model_sdadas/azure/model.pth (torch, 38506 bytes, 9 tensors)

batch_norm.weight f4 [73]
000000 1a 1a 77 3f 2e e5 75 3f ac 31 7c 3f c0 b5 75 3f
       0.965242 0.96052825 0.98513293 0.95980453
000010 1b 6d 7e 3f 24 1c 76 3f 43 c5 75 3f 36 92 78 3f
       0.9938523 0.9613669 0.9600412 0.970981
000020 6f 5b 77 3f d7 22 76 3f a2 75 75 3f ec 14 76 3f
       0.9662389 0.9614691 0.9588262 0.96125674
000030 53 d9 78 3f d2 0f 77 3f 71 0b 88 3f e4 e0 77 3f
       0.9720661 0.96508515 1.0628492 0.9682753
000040 f3 89 75 3f 1c 36 76 3f 99 3d 75 3f 53 70 7a 3f
       0.9591362 0.96176314 0.95797116 0.97827643
000050 fe 37 75 3f ca a6 75 3f 32 83 76 3f ca 07 76 3f
       0.9578856 0.95957625 0.9629394 0.96105635
000060 09 39 77 3f 92 37 76 3f 5f 58 75 3f 77 c3 76 3f
       0.96571404 0.96178544 0.9583797 0.96392006
000070 8b 40 76 3f c4 ac 76 3f 05 a8 75 3f 0e da 75 3f
       0.96192235 0.9635737 0.959595 0.9603585
000080 74 26 77 3f 8a d2 75 3f 45 44 76 3f 21 a6 75 3f
       0.9654305 0.9602438 0.9619792 0.9595662
000090 8f 84 76 3f c9 4e 75 3f 66 2b 75 3f bd b7 75 3f
       0.9629602 0.9582334 0.95769346 0.9598349
0000a0 a9 8f 75 3f cd b0 75 3f d6 f3 76 3f 5f b1 76 3f
       0.95922333 0.959729 0.96465814 0.96364397
0000b0 26 d5 75 3f 29 49 76 3f 41 d6 75 3f ca bc 76 3f
       0.96028364 0.96205384 0.9603005 0.9638182
0000c0 bb d5 76 3f 77 af 75 3f de 09 75 3f 9f 82 76 3f
       0.96419877 0.95970863 0.9571818 0.9629306
0000d0 ee 6a 77 3f 8d ec 75 3f c3 65 75 3f f8 77 76 3f
       0.96647537 0.9606407 0.958584 0.9627681
0000e0 ac b0 74 3f 4f 95 75 3f 95 69 77 3f dc 4f 75 3f
       0.9558208 0.9593095 0.9664548 0.9582498
0000f0 c1 3c 76 3f 4d 3a 76 3f 22 5f 76 3f d4 1c 76 3f
       0.96186453 0.9618271 0.9623891 0.9613774
000100 6c 4a 75 3f 90 b3 75 3f ce 9e 75 3f 11 46 77 3f
       0.95816684 0.95977116 0.9594544 0.9659129
000110 22 c9 78 3f f2 a4 7b 3f af 8f 7d 3f af 74 76 3f
       0.97181904 0.9829856 0.9904737 0.96271795
000120 82 b5 78 3f
       0.9715196

batch_norm.bias f4 [73]
000000 0e 18 0a 3c 5e 51 09 bc ba 4e 12 3a 8b c2 8f 3b
       0.008428587 -0.008381216 0.0005581189 0.004387205
000010 3d ff f8 3a 38 3e de bb 57 89 57 bb 36 0f a5 3b
       0.0018996965 -0.0067823194 -0.0032888257 0.0050372137
000020 a5 1a 30 bc 0c f2 9b bb 1b e0 0c bc 6b 68 ad bb
       -0.01074854 -0.004759079 -0.008598353 -0.0052919886
000030 86 34 2a 3c 4e ae 7b ba a2 01 94 ba 26 2d 12 3c
       0.010388499 -0.00096008636 -0.001129199 0.008921897
000040 df af b7 bb 29 b4 7d ba d9 20 c0 3a d5 1d 7f ba
       -0.0056056823 -0.000967803 0.0014658227 -0.00097319233
000050 ba 1b 26 bc 59 84 f2 3b 0f 17 9a 39 c4 dc fc ba
       -0.010138446 0.007401031 0.0002939035 -0.0019291868
000060 dc b5 0a 3c 5a 73 d2 39 6b d5 6b bb d7 33 97 bc
       0.00846621 0.00040140265 -0.0035985361 -0.018457336
000070 e7 62 d5 ba bd 6e 86 39 a7 cb 28 3c e0 61 c4 3b
       -0.0016280086 0.00025640978 0.010302461 0.005993113
000080 01 2f f1 b9 f5 dd 5a 3b aa 88 8a ba 7e f3 07 3b
       -0.00046002123 0.0033396457 -0.0010569294 0.0020744498
000090 6e ae a2 bb 3f 23 57 bc b6 21 6f bc 16 c2 64 bc
       -0.0049646413 -0.013130962 -0.01459544 -0.013962289
0000a0 94 f2 f3 3b 7c 41 e9 bb 85 eb 8f bb 34 6b bc bb
       0.007444689 -0.007118402 -0.00439209 -0.0057500843
0000b0 89 71 36 bc 2b a3 a0 bb 9f 12 05 bc 80 92 ad 3a
       -0.011135467 -0.0049022636 -0.008122115 0.0013242513
0000c0 9c 52 dd 3a 5a 44 0b bb cd 5d 36 3c ce 9f 4f bc
       0.0016885581 -0.0021250458 0.011130762 -0.012672378
0000d0 ab c2 97 bb b0 ac 12 bc 9c 96 fa bb b3 f4 0f ba
       -0.0046313605 -0.008952305 -0.0076473486 -0.000549148
0000e0 ca dc be bb db f7 1d 3c ca d5 ab 3b 2e 97 6e 3a
       -0.00582466 0.009641613 0.0052439915 0.0009101507
0000f0 6c fb 53 3a 62 70 59 ba fe 2d a8 bb 7d 88 ae ba
       0.0008086476 -0.00082946394 -0.005132436 -0.0013315823
000100 74 4a 44 bc a4 95 25 bc 7e 0f dd ba 16 3b 24 38
       -0.011980642 -0.010106478 -0.0016865579 3.9155675e-05
000110 89 38 cd bb 44 bb 85 3b dd fd 44 3b 2a 21 a4 3b
       -0.006262843 0.0040811617 0.003005854 0.0050088363
000120 99 6f 87 bb
       -0.0041331765

batch_norm.running_mean f4 [73]
000000 94 37 c1 42 95 07 16 41 fd 67 36 43 6c 42 c5 42
       96.60855 9.376851 182.4062 98.62973
000010 0d 14 f8 41 1f 08 47 43 53 d9 cb 42 76 57 87 41
       31.00979 199.03172 101.92446 16.917706
000020 6e c2 42 43 6f 94 cb 42 d8 3a 0c 41 f9 1b 24 41
       194.75949 101.78991 8.764366 10.256829
000030 39 aa 90 40 e2 44 31 40 ef de cd 3f 04 28 fe 3c
       4.520779 2.7698293 1.6083659 0.03102494
000040 bd c6 31 3d 9e 7d b6 3b fb 37 a5 3b b8 0c 16 3c
       0.043402422 0.005569174 0.005042074 0.009158306
000050 68 aa e4 3c 80 00 f2 3c e8 b2 5c 3c 2e 66 29 3c
       0.027913287 0.029541254 0.013470389 0.010339303
000060 75 c4 70 3c 60 59 c1 3c 34 32 39 3c e9 66 6e 3c
       0.0146952765 0.023602188 0.011303473 0.014550903
000070 09 06 e4 3c 26 b7 4d 3c bb 6e 02 3c 30 4c 59 3c
       0.027834909 0.012555873 0.0079609705 0.013262793
000080 5d be 3e 3c 0a 18 69 3d 1f 3d ad 3c fe d3 5d 3c
       0.011642066 0.05690769 0.021147309 0.013539312
000090 86 95 96 3c bd 30 b6 3c 8f da c2 3c fd 3d a4 3c
       0.018381845 0.022240037 0.023785857 0.02004909
0000a0 8f c7 55 3c 92 5a b0 3b d2 bc 8c 3c 54 a8 5b 3c
       0.013048067 0.0053818906 0.01717988 0.013406832
0000b0 a2 0e 8d 3c 02 21 c2 3c 59 6f 3c 3c f4 83 98 3b
       0.017218892 0.02369738 0.011501157 0.004654402
0000c0 e3 04 47 3c e2 8f 06 3d c8 42 cf 3c e2 8a af 3c
       0.012147161 0.03285206 0.025300398 0.02142853
0000d0 56 e6 5c 3c 53 b7 3e 3b 1e 36 b7 3c 31 c5 9c 3c
       0.013482651 0.002910097 0.022364672 0.019136997
0000e0 09 f2 b0 3c c2 8d 34 3b 4e 45 77 3c ca 4a 1d 3d
       0.021599786 0.0027550315 0.015092207 0.038401403
0000f0 b8 d0 d1 3c 82 6f 19 3c ed 99 58 3c e0 4c ab 3c
       0.02561222 0.009364964 0.0132202925 0.02091068
000100 6f f3 bb 3d e6 4d 88 3c f2 15 8d 3e b1 58 06 3f
       0.09177291 0.016638707 0.27555805 0.5247908
000110 55 71 4c 3e 28 19 6e 3f bf 36 8f 3d b1 16 34 3f
       0.19965108 0.93007135 0.06992864 0.70347124
000120 a0 d2 97 3e
       0.29652882

batch_norm.running_var f4 [73]
000000 2a 4a d4 44 84 07 76 43 5a 10 31 45 3a 7b a4 43
       1698.3176 246.02936 2833.022 328.9627
000010 1a c1 a3 42 2a 84 0e 45 c2 a3 b9 43 2c cb 83 41
       81.87715 2280.2603 371.27936 16.474205
000020 a0 10 1e 45 95 0f cb 43 d2 db a3 40 d4 a3 df 40
       2529.039 406.12173 5.1205835 6.9887486
000030 0c dc e5 40 24 4d 02 3f 51 f8 0b 40 5a 3c f4 3c
       7.183111 0.5089896 2.187031 0.029813934
000040 ca f0 26 3d 6f ea b5 3b f4 f8 a3 3b d7 e5 15 3c
       0.040756978 0.0055516283 0.0050040428 0.009149036
000050 e0 37 e4 3c 24 82 e0 3c 41 0c 5c 3c 7b b9 28 3c
       0.027858675 0.027405806 0.013430656 0.010298128
000060 47 15 70 3c a3 2f c1 3c 48 a1 38 3c 64 13 6e 3c
       0.01465351 0.023582285 0.011268921 0.01453099
000070 f5 e5 d8 3c 1c 4d 4d 3c 81 2c 01 3c d1 ec 54 3c
       0.02647684 0.012530591 0.007884146 0.012995915
000080 e9 ac 3d 3c 57 fc 68 3d 1c cf ac 3c d1 de 5b 3c
       0.0115768695 0.056881275 0.021094851 0.013419823
000090 81 66 8c 3c b4 d6 b5 3c bf e9 be 3c 82 f5 a3 3c
       0.017138721 0.022197105 0.023304818 0.020014528
0000a0 0a b5 54 3c 93 60 af 3b 3a 2a 89 3c 83 26 5b 3c
       0.012982616 0.0053520887 0.016743768 0.013375881
0000b0 fe cc 8c 3c 9b 91 bf 3c ba 98 3b 3c d9 2f 95 3b
       0.017187592 0.02338486 0.011449987 0.004552823
0000c0 e4 43 46 3c e8 e6 ec 3c 06 6c ce 3c c8 33 af 3c
       0.012101147 0.028918698 0.025197994 0.021386996
0000d0 25 25 5c 3c 66 69 3d 3b 68 8a b6 3c cb 73 9c 3c
       0.01343659 0.0028901934 0.022282794 0.019098183
0000e0 0f fd aa 3c 18 3a 30 3b 16 a6 76 3c c6 07 1d 3d
       0.02087262 0.0026890095 0.015054246 0.03833749
0000f0 fd 42 d1 3c e4 1d 18 3c ad 52 57 3c 41 2d a1 3c
       0.025544638 0.00928447 0.01314227 0.019674899
000100 bc d3 71 3d 3c 94 87 3c b4 bb 5a 3e 65 b1 80 3e
       0.059039816 0.016550176 0.21360666 0.2513534
000110 7e 13 2b 3e 07 23 89 3d 07 23 89 3d 2b 4a 59 3e
       0.16706654 0.06696134 0.06696134 0.21219699
000120 2b 4a 59 3e
       0.21219699

fc1.weight f4 [10, 73]
000000 2a 71 a7 3d 2b f2 d8 bd 18 bf d2 bb 0d 18 c7 bc
       0.08175881 -0.10593065 -0.0064314716 -0.02430346
000010 0d 5b 49 3d 5d 50 da 3c 23 31 72 3d f6 e5 a4 3d
       0.0491591 0.026649648 0.05912889 0.08051674
000020 f3 ff fe bc ff 0d b2 bd 6f 3a 3a bc 7d 9c 24 3d
       -0.031127905 -0.08694076 -0.011366471 0.0401883
000030 bf 8b 05 bd 9e ec 96 bc 35 e2 77 bc e5 68 a2 bb
       -0.032603975 -0.018423375 -0.015129616 -0.004956352
000040 e8 3f 9e 3d ed b6 b3 3c e2 39 a2 bc 67 44 0b 3e
       0.07727033 0.021937812 -0.019802991 0.13600312
000050 47 df be 3d 33 90 28 3d 8c fb ab 3c 85 72 a6 bb
       0.093199305 0.041153144 0.02099397 -0.0050795698
000060 cf e6 85 3d e0 0c b8 bd ef 62 1f 3d ed 80 79 bd
       0.06538164 -0.08986831 0.03891271 -0.06091397
000070 e6 b6 b9 bd 87 04 06 bd c4 65 44 3d 8f c0 56 3d
       -0.09068088 -0.03271916 0.047948614 0.052429732
000080 01 03 5b bc 93 ff 2b 3d 91 e3 ab 3d 22 05 88 bd
       -0.013367415 0.04199178 0.08393014 -0.06641604
000090 cd 3b 52 bd b4 e8 78 bd 2b 0b 5a 3d 44 00 43 bd
       -0.05132656 -0.060768798 0.053233307 -0.047607675
0000a0 34 26 74 3d 85 a9 22 bd d3 90 f0 3c 8d b3 62 3d
       0.059606746 -0.039712448 0.029365933 0.055347014
0000b0 8a 1e 81 3d 1f 42 e2 bc e4 2a 9f 3c b0 60 8d bd
       0.06304653 -0.02761942 0.019429632 -0.06903207
0000c0 63 2a a5 bd 20 16 2c bd 99 da 58 bd 8b 74 54 bb
       -0.08064725 -0.042013288 -0.052942846 -0.0032418098
0000d0 dc c2 7a 3c 91 81 9a bd 1d cd 90 bd b3 56 da 3b
       0.015305247 -0.07544244 -0.07070372 0.0066631674
0000e0 6b 9f 08 bd 80 10 7a bd 70 d0 df bd 18 20 94 bd
       -0.033355158 -0.061050892 -0.10928428 -0.07232684
0000f0 33 76 c6 bd 38 10 61 bd 22 dc 7d bd 1e f6 b9 bc
       -0.096905135 -0.054947108 -0.061977513 -0.022700366
000100 81 e8 5a 3d 91 71 56 3b 45 bb ba bd 46 90 10 bd
       0.05344439 0.00327215 -0.0911775 -0.03529384
000110 e6 e6 ec bd cc 81 99 3d c1 06 d5 3d 46 c3 be 3b
       -0.11567478 0.0749546 0.10401679 0.0058216183
000120 04 04 44 bd 6a ae bf bd 5a 3a d0 bd f4 f0 92 3b
       -0.047855392 -0.09359439 -0.1016738 0.0044842903
000130 76 4c 51 bc ac 7b 50 3d e8 c8 6b bc b7 f7 a4 3d
       -0.012774577 0.050899193 -0.0143911615 0.0805506
000140 5a ca aa 3c 2e c2 d3 3d 54 86 09 bd 75 7b 9b 3d
       0.020848442 0.10339771 -0.03357537 0.07591907
000150 59 e5 cd bd be 24 8d bd 09 90 e9 bd 06 4b cb bd
       -0.1005351 -0.06891774 -0.11404426 -0.09926419
000160 91 7c 90 3c f5 1d dd bd 2c d5 7a bc b1 3d 9e 3d
       0.017637523 -0.107967295 -0.015309613 0.077266105
000170 cf 51 f3 3c 21 83 9c bd 8a b5 e3 3d ce 41 12 3d
       0.029702095 -0.07642198 0.1111861 0.035707287
000180 d8 a8 4b 3d 67 7c e6 bc e1 14 44 3d 18 46 89 bd
       0.04972157 -0.028135492 0.047871474 -0.067028224
000190 4a 13 8a bd e8 1d 17 bd 6f 91 cf bb 83 b7 2a bd
       -0.0674196 -0.036893755 -0.0063344757 -0.041678917
0001a0 ea 8c 79 3c a3 e9 5b bd 22 32 84 3d 5e a7 98 bd
       0.01523135 -0.05368961 0.064548746 -0.07453798
0001b0 8b 29 f2 bb f5 af a1 3a a7 74 93 bd 94 4e 15 3d
       -0.007390206 0.0012335764 -0.07199984 0.03645189
0001c0 72 cd e0 3d f4 69 6a 3d a7 b0 ff 3c c8 b5 4f 3d
       0.109766856 0.05722995 0.031212164 0.05071047
0001d0 4d e1 89 bd 51 45 8a 3d d3 6a 84 bd 19 a3 c2 bd
       -0.06732426 0.06751502 -0.064656876 -0.09503765
0001e0 59 56 85 bc 7f bd bf bd ae 95 8c 3d 76 df 34 bc
       -0.016276525 -0.093623154 0.06864487 -0.011039605
0001f0 2d 08 41 3d 9a 5e 3e bd 4c 0b 48 bd f1 8a 8e bd
       0.047126938 -0.046476938 -0.0488389 -0.06960095
000200 d1 9d 1f 3c 30 cb c0 bd 3a e0 a1 3d 42 93 d8 3d
       0.009742216 -0.09413755 0.07904096 0.10574962
000210 7f 63 e2 bd 4d 35 94 3d 02 27 60 bd 5e 9c 63 39
       -0.110541336 0.07236729 -0.0547247 0.00021706658
000220 bf 43 33 3d 04 ef b6 3d d8 e2 cf 3d c5 45 97 bd
       0.04376578 0.08932307 0.10150689 -0.07386354
000230 fe 45 15 3d 9b 70 90 bd 43 3a 40 bc 51 66 8c bd
       0.036443703 -0.07052728 -0.011732641 -0.06855453
000240 7b 1d a5 3d eb b6 4f 3c af 51 c5 3d e1 bc b9 bd
       0.080622636 0.012677888 0.096347205 -0.09069229
000250 9f cd 16 3e a4 57 9d bd cf d1 b5 3d eb 3a d8 3c
       0.14726876 -0.07682732 0.088779084 0.026395282
000260 17 25 13 bd 74 39 77 bc 24 77 df 3d 05 a2 86 3d
       -0.035924044 -0.0150893815 0.10911396 0.065738715
000270 dd 42 4f bd 7b d8 72 3d af 47 b2 bd 0e 04 e8 bd
       -0.050600875 0.059288483 -0.08705079 -0.11328898
000280 4e 3e 9b 3c 8f 3c a2 3c dd 88 92 3d ba 7c 3f bd
       0.018950608 0.019804267 0.07155011 -0.046749808
000290 81 84 b8 bd 3d 84 8f bd eb 00 cd 3c 0a 86 9c bd
       -0.09009648 -0.07007644 0.025024852 -0.076427534
0002a0 b2 88 75 3d 22 56 1c 3c 1b 2d ba bd d2 18 95 3d
       0.059944816 0.00954202 -0.090906344 0.07280125
0002b0 99 3a 76 bd 4a c1 e7 bd 55 64 2c bd 3d 52 e3 bd
       -0.060114477 -0.11316164 -0.04208787 -0.1109967
0002c0 6a 93 4d bc 49 8f 35 3d 8a 28 37 3d f3 a5 42 bc
       -0.012547353 0.0443261 0.044716395 -0.011880386
0002d0 00 74 06 bd 93 1b ab bd d6 3e b6 3d 84 4e aa 3d
       -0.03282547 -0.08354869 0.08898704 0.08315757
0002e0 02 39 41 bd b2 74 d0 bd e2 9c 62 bd 41 45 eb ba
       -0.047173508 -0.10178508 -0.055325396 -0.0017949716
0002f0 71 a4 07 bc 50 56 e2 bb 5e 09 72 bd 1f 56 68 3d
       -0.008278952 -0.006907262 -0.059090964 0.056722756
000300 e3 03 57 3c 8a e9 85 bd 90 5d 56 3d da 64 a3 bd
       0.013123485 -0.06538685 0.052335322 -0.0797822
000310 1a bd a7 3d fc 1c 2d 3d 33 ac 46 3c f0 42 7d 3d
       0.08190365 0.04226397 0.012126016 0.061831415
000320 64 73 ce bd de 89 35 bd 32 c2 63 bd fb 94 08 3d
       -0.10080603 -0.044320934 -0.05560512 0.033345204
000330 f9 99 9b bd be 7f 6b 3d 76 30 00 be 4b e6 e3 bb
       -0.07597727 0.05749487 -0.12518486 -0.0069549433
000340 09 06 6d 3d 9b 4a 2f 3d 12 89 8b bd b7 42 90 ba
       0.057867084 0.04279576 -0.068132535 -0.0011006211
000350 2e 14 04 3e c9 0b 89 bd ef d9 bc bd 19 fa 37 3d
       0.12898323 -0.06691701 -0.09221255 0.044916246
000360 60 ce 1f 3e a6 eb 0a 3d b2 d1 ec bd d9 6e 70 3d
       0.1560607 0.033916138 -0.11563434 0.058699463
000370 76 09 92 3d ae f1 c7 3d c9 cb a9 3c 80 75 f7 3d
       0.07130711 0.097628936 0.020727055 0.12082958
000380 df f9 65 3d 20 20 b2 3c 03 e9 b3 3d d7 89 c1 bd
       0.0561465 0.021743834 0.08784678 -0.09450119
000390 36 04 b5 3d 0d 5e 03 3d 64 12 f8 3c 15 8e 2a bc
       0.08838694 0.032072116 0.030282207 -0.010409852
0003a0 d0 6c df 3d b6 41 6c 3e 61 93 93 bd 07 6c 8e 3c
       0.10909426 0.23071942 -0.07205845 0.017385496
0003b0 85 78 46 bd e2 0f fa 3c 88 fd 76 3d 2b 86 df bd
       -0.04845478 0.030525152 0.06030038 -0.109142624
0003c0 0c 60 0d 3d b0 fb ec 3a 77 7d 4e bd 88 fa d3 3d
       0.034515426 0.001808038 -0.05041262 0.103505194
0003d0 8d 5c 81 bd a0 bd dc 3b 54 4f e9 bd 9e c3 43 bc
       -0.06316481 0.0067364722 -0.11392084 -0.011948494
0003e0 05 2d fd bc 15 e7 6e 3d 86 82 74 3d 24 c6 d8 bd
       -0.030905256 0.058325846 0.05969479 -0.10584667
0003f0 3c 87 ee 3c fb 4c ae bd 09 37 9f 3d 8f e2 37 3c
       0.02911722 -0.085107766 0.07774169 0.011223449

fc1.bias f4 [10]
000000 12 6b 28 3b 72 68 7c 3c 2d ef 06 3d 17 fb 53 3d
       0.0025698585 0.015405761 0.03294294 0.05175313
000010 3f 93 ac 3d c8 d9 81 3d 2c 80 00 3e 50 3b 92 3d
       0.084265225 0.063403666 0.12548894 0.07140219
000020 ed 80 12 3e 92 c0 f7 3d
       0.14306994 0.12097277

fc2.weight f4 [10, 778]
000000 f0 ee 64 3d 56 ad 20 3d 52 ba 98 3d 25 5a e8 3d
       0.05589193 0.039227806 0.07457413 0.11345319
000010 ac 17 68 bd 06 b7 ce 3d 8e af f9 3d 25 94 8b 3d
       -0.0566632 0.10093503 0.121916875 0.06815366
000020 76 3b 00 be 63 c8 bf bc f9 a3 56 3c 40 6c ff 3a
       -0.12522683 -0.023410982 0.013100618 0.0019487217
000030 c6 70 a3 bc b4 44 be 3b d5 69 50 3d 82 aa 2c bd
       -0.019951236 0.00580653 0.05088218 -0.042154796
000040 e5 3c e4 3c 43 e9 11 bc 27 4d 6d bd ef 6a eb 3c
       0.027861068 -0.008905712 -0.057934906 0.028737513
000050 b7 0b 11 3b 21 9e 34 bc d9 f6 44 3b 86 aa 81 bc
       0.0022132227 -0.011024029 0.003005436 -0.015828382
000060 f3 be 03 3c 0a c7 04 bc 18 77 00 bd 27 5e 39 3d
       0.008041131 -0.008104095 -0.031363577 0.045255806
000070 86 20 82 ba 2a 59 8d 3c 8c f7 06 bc 9f f9 2d bc
       -0.0009927906 0.01725443 -0.008237731 -0.010618596
000080 62 da 45 bd 57 ec 37 bd a1 81 0f bd 41 af e4 bb
       -0.04830397 -0.044903126 -0.035035733 -0.0069788997
000090 3a b3 e1 3c d5 19 2f bb ec 1e dd bb f2 fb 50 3c
       0.027551282 -0.0026718278 -0.006748071 0.012755381
0000a0 a7 0b e7 3c 19 2e b3 3b 30 c4 5f bd c6 7e c8 bc
       0.028203798 0.0054681418 -0.05463046 -0.024474513
0000b0 48 94 a2 bc a3 01 03 bd cc 47 65 bb fc 87 88 bc
       -0.019846097 -0.031983983 -0.0034985421 -0.016666405
0000c0 22 4e 0b bc 33 31 d6 3b 27 b9 11 bd be f6 92 bd
       -0.008502515 0.0065366267 -0.035576966 -0.071759686
0000d0 00 a0 ac bc ba cf 9c ba 62 47 19 3c 53 bc 4e 3c
       -0.021072388 -0.0011963763 0.009355398 0.012618142
0000e0 74 69 45 bc ad 67 0f bd 8a d0 cd bc ae ef 63 bc
       -0.012049068 -0.035010982 -0.025123853 -0.013912125
0000f0 46 80 33 3d c2 49 15 bd 54 c8 1e 3d d7 11 28 3d
       0.043823503 -0.036447294 0.038765267 0.04103264
000100 1a 12 8d bc 6b 89 10 bc dd 0b 24 bc 4e cd fe 3c
       -0.017220546 -0.0088218255 -0.010012594 0.031103756
000110 c7 39 1c 3d bd aa e4 bb 9f b4 35 3b 31 2d 2f bd
       0.03814104 -0.0069783614 0.0027726067 -0.042767707
000120 1b 18 06 3d 52 79 57 3b 8c 5b 95 bc 8a 74 e1 bc
       0.032737833 0.003287871 -0.01823213 -0.02752139
000130 d5 f2 1f bc c1 68 a6 bd 41 6f 3d 3c ff 2a 4d 3d
       -0.0097624855 -0.08125449 0.0115621695 0.050089832
000140 55 43 43 3c 8f 4f c9 3c 1d 79 e1 3a 31 d5 96 3d
       0.011917909 0.02457407 0.0017202232 0.07364882
000150 45 8a 5d bb 3d e1 b5 3b ae 61 ff 3b 63 ac a4 3d
       -0.003380434 0.005550532 0.0077936267 0.08040693
000160 ef 28 89 3d 1b 03 c6 3c 3e 4f 42 bc 8b 13 ad bc
       0.066972606 0.024171403 -0.011859713 -0.021127483
000170 2b 41 00 bd 0f 5e 06 bd 9c fd ce bc 2f 2c 21 38
       -0.03131215 -0.032804545 -0.025267415 3.842654e-05
000180 50 87 b4 3b 54 d8 54 3d 6e 0f c2 3c d6 6f da bc
       0.0055092946 0.05196412 0.023688998 -0.026664656
000190 21 ad 55 3d 27 21 fc 3c d0 74 04 3c 7a 80 84 3c
       0.05216706 0.030777527 0.008084491 0.016174544
0001a0 c9 78 cd 3c e7 0a 74 3a 59 9d c7 b8 a1 34 98 bc
       0.025082009 0.0009309486 -9.518368e-05 -0.018579783
0001b0 3d ce 94 bc d5 97 c5 bc c7 91 ee 3c 50 ca 8e bc
       -0.018164748 -0.02412025 0.029122246 -0.017430454
0001c0 ce 74 2f 3c 79 dc 86 3c 8f 16 f0 bc e9 4c 51 3c
       0.010709001 0.016462551 -0.029307632 0.0127746845
0001d0 35 1b 5e bc 88 c0 78 bc be 69 50 3d a7 f4 8f 3c
       -0.013556291 -0.015182622 0.050882094 0.017572714
0001e0 b2 eb 0c 3d 9f a6 72 bd ed f8 6d 3c 57 c2 fe bb
       0.034404464 -0.059240934 0.014524681 -0.007774632
0001f0 ed 6c 30 3d 2c 1a 8f bb e5 ce ee 3a 36 86 36 3c
       0.04307263 -0.0043671336 0.0018219618 0.011140397
000200 10 bf 97 bc 17 31 be bc 9a 0b f8 3b 3e 32 73 3b
       -0.018523723 -0.023216767 0.0075697424 0.0037108804
000210 71 ab 3f 3d a7 4d 6e bc 9c 9a 13 bd 4a 91 fa 39
       0.04679436 -0.014544881 -0.03603612 0.00047791965
000220 aa 19 be bb 7b 20 ae bb 31 ad 58 3d f6 68 0b 3d
       -0.0058013992 -0.0053139306 0.052899543 0.034035645
000230 75 ef 55 3c c3 87 ac bc c3 69 a2 bc b8 0e a4 bb
       0.013057579 -0.02106083 -0.019825822 -0.0050066374
000240 f8 ca 2e 3d ac 31 05 bc cb cf 92 3c 03 01 0f bb
       0.042674035 -0.0081295185 0.017921349 -0.0021820671
000250 b3 84 b1 3c 79 1a d3 bc dd d3 2d bc 15 65 a8 3c
       0.021669721 -0.02576946 -0.010609594 0.020556012
000260 04 94 46 bc b3 26 02 bd e5 85 01 3d 9b 00 c2 bb
       -0.012120251 -0.031775188 0.031621832 -0.0059204823
000270 67 66 19 3d a4 62 46 bd 6c c2 41 bb 5a b5 6a 3d
       0.037451174 -0.048433915 -0.0029565347 0.057301857
000280 a4 7b fa 3c ef 6a 0e 3c 0a df 19 3d a5 3f 8c 3b
       0.030576535 0.008692487 0.037566222 0.004280048
000290 d8 1f da 3c 88 05 07 bd 00 18 1c 3c 89 81 07 3d
       0.026626512 -0.03296426 0.009527206 0.03308252
0002a0 d8 da b1 bc 98 b2 54 bd 51 71 90 3c de fc 32 bd
       -0.021710798 -0.051928133 0.017632158 -0.043698184
0002b0 ac 41 07 3c 81 de f7 3c d6 4c 99 bc 24 20 54 3c
       0.0082554035 0.030257465 -0.018713396 0.012947116
0002c0 92 fb a3 bc 9b ed 03 bc e7 84 f2 bc 0c 48 55 bd
       -0.020017419 -0.008052255 -0.029604388 -0.052070662
0002d0 a0 8d c5 bc 9d 9d 2a 3d 40 db 5d b9 e7 55 a8 3c
       -0.024115384 0.041654218 -0.0002115788 0.020548774
0002e0 e0 ab 76 bc 5e 80 93 3d 77 30 7a 3c 00 82 13 bd
       -0.015055627 0.072022185 0.015270344 -0.03601265
0002f0 33 fe ae 3b d9 4d dc 3c 68 67 4c 3c 8a f0 92 3c
       0.0053403615 0.02689259 0.012475826 0.017936964
000300 52 d2 b3 3c b2 b9 a2 bc ed 06 c5 3b 9a d4 78 bc
       0.021950874 -0.019863937 0.0060127885 -0.015187407
000310 10 72 70 bc 1f a8 2f 3d 5b 84 35 3c 76 c3 88 bb
       -0.014675632 0.042884942 0.011078919 -0.0041736914
000320 05 7c ac bc 98 70 92 3c c1 a6 2b bb d8 57 fd bc
       -0.02105523 0.017875955 -0.0026191922 -0.030925676
000330 1a 50 5d bd 6c ab 5e bc 9d c2 95 bd 20 58 74 b9
       -0.05403147 -0.013590675 -0.0731251 -0.00023302482
000340 02 e1 19 bd 34 48 36 3d 32 da ad bc c0 f7 30 3d
       -0.0375681 0.044502452 -0.021222208 0.043205023
000350 02 68 83 3d f7 b9 3a bd bd ae d6 3c 14 24 ea 3c
       0.06416322 -0.045587506 0.026206369 0.028581657
000360 1c 33 b2 bc a3 73 7c bd 40 da de bc 42 7c d1 3b
       -0.021752886 -0.061633717 -0.02720368 0.0063929865
000370 75 c9 bb 3a 89 a0 5b bc ce 40 99 ba f4 5b 1c bd
       0.0014327007 -0.013404974 -0.0011692287 -0.03817363
000380 ac 13 d7 bb 86 55 58 3c 21 5c 01 bd d1 65 7d 3d
       -0.0065636244 0.013203984 -0.031582 0.061864678
000390 d1 af 89 bb ac 54 8c 3b 3b b9 f3 bc 16 2b 9d 3c
       -0.004201867 0.0042825546 -0.02975141 0.019185584
0003a0 fc 95 51 3d 01 16 0f bd d4 42 96 bc 16 bb 0f 3d
       0.051168427 -0.034933094 -0.018342413 0.03509053
0003b0 17 e6 6c 3c eb 97 bb 3c d7 6a e0 bc 90 be 19 bc
       0.014459155 0.022899589 -0.027394695 -0.009383813
0003c0 43 9d 69 bc 0b 38 5a 3d b2 d7 c2 bc 58 8f a7 3c
       -0.0142586855 0.053276103 -0.023784492 0.020454094
0003d0 be 51 e2 3c fe 49 e2 bc 8c dc e8 3b 6c 68 36 bc
       0.027626868 -0.027623173 0.0071063694 -0.011133295
0003e0 3f e8 1e 3c 85 45 c3 bc 44 5d 0e bc a1 2d 61 3b
       0.0096989265 -0.02383686 -0.008689228 0.0034359472
0003f0 d9 96 ae 3b 54 02 0e 3d 88 69 c5 bc 3e 64 68 bc
       0.005328041 0.03467019 -0.024098173 -0.014184056

fc2.bias f4 [10]
000000 7b d5 e1 bc c8 b2 4d 3c d4 66 8e 3c fe 74 d8 3c
       -0.027567616 0.012554832 0.017383017 0.026422974
000010 94 45 43 bc 78 ba d5 3c 93 3c 14 bd e7 57 c5 bc
       -0.011918444 0.026089892 -0.03619058 -0.024089767
000020 40 67 04 3d 09 f8 a7 3c
       0.03232503 0.020504015

fc3.weight f4 [1, 10]
000000 2f 7b 29 3f 9e ab 57 bf 70 68 2d 3e 68 68 53 bf
       0.6620359 -0.8424624 0.16934371 -0.82581186
000010 36 66 3e bf c0 50 20 be 45 59 78 3f 21 95 74 3f
       -0.7437471 -0.15655804 0.97011214 0.9554005
000020 02 b8 d1 3d 79 05 ec be
       0.10240175 -0.46097925
