model_cased/google/model.pth (torch, 38506 bytes, 9 tensors)

batch_norm.weight f4 [73]
0.30732617 0.019844683 0.66540563 0.16647469 0.58604455 0.40876824 0.18521109 0.4396681
0.22550373 0.22419332 0.25070357 0.23453751 0.117673084 0.24441607 0.6710214 0.010498306
0.0014581643 0.0014174602 0.01749124 0.5643806 1.742079e-05 0.00024024931 0.0050943918 0.0057465266
0.00013820002 7.563758e-05 0.008628528 8.9763584e-05 0.0002222708 0.014088915 0.010127125 0.0011050655
0.00016085783 2.6934562e-05 0.0010471031 0.1401149 0.38635933 0.047490455 0.00010864023 0.0002133737
0.007784487 0.16731516 0.06098493 0.0019385689 0.18409486 0.03294927 0.0003406232 0.00020051253
0.0012848707 0.0011217914 0.009631585 0.00016673763 0.00039419113 0.00033808418 4.6689438e-05 0.17271242
0.0013772349 0.0002562178 0.35629478 0.00028847985 0.19224337 4.8319056e-05 0.00021974395 0.13363317
0.0010571615 0.00025136792 0.059756484 0.085251294 0.06881606 0.58676755 0.5974635 0.409905
0.40919828
00000000: db59 9d3e 5191 a23c 0658 2a3f 5778 2a3e
00000010: 0407 163f 124a d13e faa7 3d3e 2d1c e13e
00000020: 73ea 663e ef92 653e 385c 803e 9a2a 703e
00000030: 96fe f03d 3548 7a3e 0fc8 2b3f 1601 2c3c
00000040: e01f bf3a 12ca b93a ca49 8f3c 3f7b 103f
00000050: dd22 9237 6feb 7b39 dbee a63b 5c4d bc3b
00000060: c9e9 1039 9e9f 9e38 ab5e 0d3c 753f bc38
00000070: 5d11 6939 31d5 663c 3eec 253c d8d7 903a
00000080: f2ab 2839 88f1 e137 f33e 893a 487a 0f3e
00000090: e4d0 c53e 5a85 423d c8d5 e338 11bd 5f39
000000a0: 0315 ff3b aa54 2b3e 55cb 793d 9417 fe3a
000000b0: 5d83 3c3e d0f5 063d ac95 b239 ac40 5239
000000c0: 1b69 a83a 1309 933a cccd 1d3c 4bd6 2e39
000000d0: 70ab ce39 e440 b139 67d4 4338 86db 303e
000000e0: 5684 b43a f954 8639 456c b63e 1c3f 9739
000000f0: 72db 443e 31aa 4a38 116b 6639 22d7 083e
00000100: 7490 8a3a 08ca 8339 37c3 743d 3b98 ae3d
00000110: 6fef 8c3d 6636 163f 5ef3 183f 11df d13e
00000120: 7082 d13e

batch_norm.bias f4 [73]
-0.062253464 0.0035251244 -0.08496292 -0.045648046 -0.07483991 -0.04661828 -0.042912014 -0.05016187
-0.038004726 0.04831404 -0.042287834 -0.00681786 -0.0045248084 -0.0069282628 -0.11970575 0.0030557632
0.00060453336 0.00065714057 0.0052753817 -0.10939816 1.0488772e-06 -1.7159758e-05 0.0012367241 0.0019621588
-3.633771e-05 7.253446e-05 0.002445686 -1.6157696e-06 2.5592755e-05 0.004367015 -0.0015732853 0.00054267567
-1.5224977e-05 1.9883371e-05 0.0005152383 -0.021383524 -0.052600577 -0.012762669 7.2694565e-05 1.5304213e-05
-0.002887082 -0.034019876 -0.013180727 -0.0006592301 -0.03917381 0.009103383 -0.00012478404 0.00015045144
-4.980359e-05 -0.00034381694 0.002640654 -3.8902996e-05 0.00014653672 0.00017669304 2.707432e-05 -0.03740037
-3.4209195e-05 0.00016899485 -0.059874035 -0.0001558904 0.03812565 6.59078e-06 2.8789895e-05 0.031062989
-0.0005553989 0.000118393094 -0.012024948 0.0036408885 0.007856215 0.08187182 -0.0833675 -0.095418274
0.095256016
00000000: 7dfd 7ebd c605 673b 0a01 aebd 72f9 3abd
00000010: ab45 99bd cff2 3ebd 82c4 2fbd 8876 4dbd
00000020: d8aa 1bbd f1e4 453d 0236 2dbd 5b68 dfbb
00000030: d844 94bb 7b06 e3bb 4a28 f5bd 3343 483b
00000040: 8c79 1e3a f543 2c3a 1cdd ac3b 240c e0bd
00000050: 25c7 8c35 4df2 8fb7 9319 a23a 9097 003b
00000060: 5269 18b8 a41d 9838 cd47 203b 6cdd d8b5
00000070: 06b0 d637 2d19 8f3b b236 ceba 5942 0e3a
00000080: c76e 7fb7 37cb a637 0f11 073a 802c afbc
00000090: b473 57bd 831a 51bc 9973 9838 8c61 8037
000000a0: 3335 3dbb 6d58 0bbd faf3 57bc 2fd0 2cba
000000b0: b874 20bd 5b26 153c 76d8 02b9 80c2 1d39
000000c0: 33e4 50b8 5442 b4b9 d30e 2d3b c62b 23b8
000000d0: a7a7 1939 ad46 3939 a91d e337 2131 19bd
000000e0: d87b 0fb8 3634 3139 7a3e 75bd 8376 23b9
000000f0: a429 1c3d 5e26 dd36 d481 f137 cf77 fe3c
00000100: 3098 11ba cf49 f838 4a04 45bc f99b 6e3b
00000110: 5bb7 003c 6aac a73d 94bc aabd a86a c3bd
00000120: 9615 c33d

batch_norm.running_mean f4 [73]
100.598366 8.768521 176.3652 100.038475 29.98231 203.13359 102.6475 17.266285
204.91893 100.60254 9.222035 10.164204 4.8598366 2.744895 1.5221246 0.006049516
0.013888706 0.021397425 0.021208866 0.0056036217 0.0051619033 0.011862756 0.0112348795 0.0179206
0.018399304 0.015848963 0.017864566 0.006223133 0.018292857 0.013547599 0.016542884 0.03753814
0.00390872 0.010697266 0.020823909 0.02310604 0.017362176 0.019268505 0.048189644 0.010786242
0.04189627 0.011070332 0.022338085 0.01711342 0.006287706 0.012652833 0.021722507 0.01646443
0.026277084 0.022437679 0.023975488 0.04985185 0.035181835 0.014370796 0.011948893 0.01817964
0.015057312 0.020898506 0.02656382 0.020697644 0.023941185 0.023316557 0.018622136 0.04078907
0.04208 0.0035367191 0.25173625 0.5002121 0.24805175 0.9409627 0.059037387 0.7161174
0.28388268
00000000: 5d32 c942 dd4b 0c41 7e5d 3043 b313 c842
00000010: c5db ef41 3322 4b43 854b cd42 5a21 8a41
00000020: 3feb 4c43 8034 c942 758d 1341 94a0 2241
00000030: c883 9b40 5cac 2f40 fbd4 c23f 053b c63b
00000040: 758d 633c a749 af3c 37be ad3c 969e b73b
00000050: 2f25 a93b 015c 423c 8012 383c 39ce 923c
00000060: 23ba 963c afd5 813c b658 923c 6ceb cb3b
00000070: e7da 953c c0f6 5d3c f184 873c 98c1 193d
00000080: b814 803b 9643 2f3c e796 aa3c e148 bd3c
00000090: 1f3b 8e3c fcd8 9d3c 8162 453d c7b8 303c
000000a0: 6c9b 2b3d 5660 353c 5cfe b63c 7131 8c3c
000000b0: 1a09 ce3b d44d 4f3c 66f3 b13c 6ae0 863c
000000c0: 0a43 d73c 39cf b73c 3e68 c43c 7431 4c3d
000000d0: d41a 103d 7d73 6b3c 4ac5 433c 78ed 943c
000000e0: f2b2 763c 5833 ab3c 5e9c d93c 1b8e a93c
000000f0: 4e20 c43c 5d02 bf3c 738d 983c 7112 273d
00000100: 145c 2c3d 4dc8 673b 93e3 803e e60d 003f
00000110: 4701 7e3e eee2 703f 30d1 713d 7853 373f
00000120: 1259 913e

batch_norm.running_var f4 [73]
1641.9009 219.9335 2946.393 439.76178 85.15585 2413.9014 403.13675 17.440115
2332.7224 396.98813 4.724742 7.6364574 7.168311 0.55615824 1.5849961 0.0060319356
0.013670358 0.021376204 0.021167139 0.005595367 0.0050862343 0.011820586 0.011213691 0.016821481
0.018361337 0.015523462 0.01777647 0.006152789 0.018163681 0.0135129765 0.01639093 0.035838775
0.0038895796 0.010045766 0.019771425 0.021744682 0.016975313 0.017645527 0.044864055 0.0106947
0.041449934 0.0109065585 0.021237237 0.017090907 0.006265079 0.012564289 0.01957101 0.015764078
0.026221788 0.02234014 0.02342558 0.049822114 0.033293817 0.014344069 0.011910925 0.01815436
0.014378184 0.020615561 0.026522093 0.020663433 0.023862101 0.023228018 0.016928094 0.040454447
0.040985074 0.003476402 0.19525136 0.2470922 0.19023311 0.05538475 0.05538475 0.21219635
0.21219635
00000000: d43c cd44 faee 5b43 4a26 3845 82e1 db43
00000010: cc4f aa42 6cde 1645 8191 c943 5b85 8b41
00000020: 8fcb 1145 7b7e c643 1631 9740 dc5d f440
00000030: ce62 e540 6360 0e3f 27e1 ca3f 8ba7 c53b
00000040: a3f9 5f3c 261d af3c b566 ad3c 5759 b73b
00000050: 6daa a63b 22ab 413c a1b9 373c 34cd 893c
00000060: 846a 963c 1e56 7e3c f69f 913c 569d c93b
00000070: 00cc 943c 8865 5d3c 4646 863c aecb 123d
00000080: 51e8 7e3b ff96 243c aff7 a13c e721 b23c
00000090: d00f 8b3c 5a8d 903c 5fc3 373d d338 2f3c
000000a0: 68c7 293d 6cb1 323c b7f9 ad3c 3b02 8c3c
000000b0: 4b4b cd3b 73da 4d3c 6253 a03c ab23 813c
000000c0: 13cf d63c ab02 b73c 00e7 bf3c 4612 4c3d
000000d0: 195f 083d 6303 6b3c 0a26 433c 74b8 943c
000000e0: 7a92 6b3c f7e1 a83c dc44 d93c 5c46 a93c
000000f0: 747a c33c af48 be3c c9ac 8a3c 90b3 253d
00000100: f7df 273d 59d4 633b f9ef 473e bd05 7d3e
00000110: 78cc 423e 1fdb 623d 1fdb 623d 004a 593e
00000120: 004a 593e

fc1.weight f4 [10, 73]
-0.09211122 0.0011276196 -0.063834585 -0.058756914 -0.056243174 -0.04738896 -0.050559394 -0.05097457
-0.02463597 0.07437053 -0.027358295 0.0022308258 -0.006182053 0.0026911446 -0.24130487 0.0033981493
0.00058856496 0.0005227681 0.006726796 -0.18052082 8.186904e-07 1.1004648e-05 0.0013055612 0.0019248901
1.3815587e-06 3.5917183e-05 0.0027386877 1.7620492e-05 1.4123925e-05 0.004954183 -0.0023738148 0.00043094993
-3.269693e-05 7.4521654e-06 0.000344719 -0.04012829 -0.117276125 -0.016407436 4.356479e-05 -4.203514e-06
-0.0031266524 -0.06209302 -0.021112619 -0.00048329856 -0.050528478 0.011310068 -9.0247195e-05 8.187503e-05
9.7414675e-05 -0.00018245025 0.002887423 -8.027229e-06 0.00010842494 9.890099e-05 1.3471043e-05 -0.05730026
-6.822368e-05 8.299787e-05 -0.10602127 -0.00010327961 0.06605895 7.584941e-06 4.2003394e-05 0.03816214
-0.00043133978 6.992066e-05 -0.023938617 0.019038692 0.00790182 0.1820483 -0.18536791 -0.114149
0.11395169 0.08655606 -0.0032457972 0.28514105 0.01235501 0.25112516 0.1398914 0.06714892
0.15047818 0.06792515 0.068689704 0.0755441 0.14770669 0.040149625 0.15424237 -0.12557438
-0.0016444741 0.00010058218 -0.0001492324 -0.0011255648 0.10889098 2.9256626e-06 0.0001290432 -0.0014901297
-0.0008203341 -2.3744378e-06 8.640071e-06 -0.0010768282 2.9774917e-05 -0.00010176131 -0.0021484059 -0.0029160113
6.4825135e-06 -2.7638714e-06 8.47339e-07 -0.00015503299 0.03318587 0.03979904 0.009322075 -2.478948e-05
-8.315352e-05 -0.0013980423 0.012291495 0.008301768 0.00067127886 0.046277467 -0.009958206 0.00010045762
-1.38313935e-05 0.00065232214 0.0005162459 -0.0026501017 0.00010444163 0.00010107068 -0.00011935609 1.6691576e-05
0.029573249 -0.0008359921 -6.776874e-05 0.090124995 -9.268659e-05 -0.038726993 1.0735672e-05 0.00012680897
-0.045551687 3.3464923e-05 -9.025553e-05 0.01969728 -0.018466927 -0.0056026615 -0.21627326 0.22021319
0.10290904 -0.102729544 0.08542832 -0.0037936866 0.32940966 0.021087877 0.29011333 0.18003641
0.0670558 0.19360755 0.088587195 0.082784146 0.098494515 0.16274196 0.050631534 0.1699404
-0.12872724 -0.0015032062 4.9533377e-05 -0.00020275227 -0.0017708123 0.09539641 -1.9155873e-06 0.0001092967
-0.0013647273 -0.0005995319 7.2723283e-06 1.8584673e-06 -0.000978848 2.6723588e-05 -0.00011290622 -0.002348968
-0.003107548 -1.1904596e-05 -8.429554e-06 -2.6106438e-06 -0.0001847401 0.038500503 0.057291236 0.009843207
-2.4663672e-05 -8.112358e-05 -0.00067470974 0.007956502 0.0019787727 0.00070672226 0.067442454 -0.010997369
8.185262e-05 -2.1366612e-05 0.00070565025 0.0005058465 -0.0024333657 0.00010040103 0.00013210911 -0.000114753246
1.8367859e-05 0.030233206 -0.0008560979 -6.674871e-05 0.10281812 -8.450435e-05 -0.041474413 1.622226e-05
0.00012548991 -0.048269283 6.530735e-05 -8.349659e-05 0.020525638 -0.0143657345 -0.010296625 -0.18474334
0.18810898 0.11227762 -0.112083666 -0.06998871 0.0146306055 -0.27589747 0.02413819 -0.24295563
-0.22762279 -0.06341449 -0.24489172 -0.07113603 -0.024946118 -0.07904488 0.08174533 -0.096957535
0.08419504 0.36655805 -0.0049808235 -0.00030456987 -0.0004448638 -0.0036647602 0.2729307 1.1351791e-05
-0.00012615998 -0.003178692 -0.0012922644 -0.00012115742 -1.8305791e-05 -0.004686998 -5.6883557e-05 0.00014823115
-0.0041378727 0.006781141 -0.00024652446 0.000101097074 -1.3638082e-05 -0.00040475858 0.082133554 0.27380145
00000000: cfa4 bcbd a3cc 933a b5bb 82bd 17ab 70bd
00000010: 3e5f 66bd ed1a 42bd 5e17 4fbd b6ca 50bd
00000020: 60d1 c9bc 944f 983d 811e e0bc 0c33 123b
00000030: d292 cabb ea5d 303b a018 77be 7cb3 5e3b
00000040: ed49 1a3a 600a 093a 746c dc3b 73da 38be
00000050: fac3 5b35 9aa0 3837 5d1f ab3a 984c fc3a
00000060: ff6d b935 c8a5 1638 8e7b 333b b8cf 9337
00000070: ccf5 6c37 b356 a23b 0192 1bbb 1ff1 e139
00000080: 1024 09b8 9d0d fa36 67bb b439 905d 24bd
00000090: 772e f0bd e368 86bc 56b9 3638 e90b 8db6
000000a0: 86e8 4cbb 4055 7ebd 5ff4 acbc 3c63 fdb9
000000b0: f3f6 4ebd dd4d 393c 1843 bdb8 52b4 ab38
000000c0: 1b4b cc38 1e50 3fb9 eb3a 3d3b b0ac 06b7
000000d0: 3262 e338 1169 cf38 b001 6237 adb3 6abd
000000e0: 4f13 8fb8 240f ae38 ae21 d9bd d297 d8b8
000000f0: ea49 873d 2682 fe36 cd2c 3038 e74f 1c3d
00000100: 7225 e2b9 5ea2 9238 eb1a c4bc 08f7 9b3c
00000110: a376 013c df6a 3a3e 16d1 3dbe f3c6 e9bd
00000120: 815f e93d 4e44 b13d 71b7 54bb 02fe 913e
00000130: ab6c 4a3c 7a93 803e b13f 0f3e 5f85 893d
00000140: f416 1a3e 571c 8b3d 30ad 8c3d ddb6 9a3d
00000150: 6c40 173e ef73 243d b6f1 1d3e 9296 00be
00000160: 658b d7ba a6ef d238 447b 1cb9 b087 93ba
00000170: 3c02 df3d 8056 4436 c54f 0739 7550 c3ba
00000180: b10b 57ba 8858 1fb6 d3f4 1037 5c24 8dba
00000190: 26c5 f937 b068 d5b8 45cc 0cbb 8d1a 3fbb
000001a0: 5e84 d936 f37a 39b6 b174 6335 5a90 22b9
000001b0: e8ed 073d 5104 233d 9ebb 183c 01f3 cfb7
000001c0: b562 aeb8 843e b7ba 4462 493c 2404 083c
000001d0: c3f8 2f3a 718d 3d3d be27 23bc c6ac d238
000001e0: 620d 68b7 9900 2b3a ad54 073a 54ad 2dbb
000001f0: ac07 db38 e8f5 d338 d04e fab8 e304 8c37
00000200: 9943 f23c 7b26 5bba 111f 8eb8 7493 b83d
00000210: bc60 c2b8 32a0 1ebd 5c1d 3437 06f8 0439
00000220: 6894 3abd b05c 0c38 9247 bdb8 315c a13c
00000230: f447 97bc 8896 b7bb bd76 5dbe 917f 613e
00000240: fac1 d23d de63 d2bd 0bf5 ae3d 809f 78bb
00000250: 62a8 a83e 7cc0 ac3c bc89 943e 775b 383e
00000260: 8d54 893d 0f41 463e 346d b53d bc8a a93d
00000270: 7eb7 c93d d4a5 263e 0363 4f3d db04 2e3e
00000280: 13d1 03be 3b07 c5ba 0fc2 4f38 e699 54b9
00000290: 9a1a e8ba 315f c33d 8a8d 00b6 3836 e538
000002a0: a6e0 b2ba e829 1dba d304 f436 7370 f935
000002b0: b04c 80ba 782c e037 11c8 ecb8 25f1 19bb
000002c0: 01a8 4bbb dab9 47b7 a96c 0db7 8532 2fb6
000002d0: cbb6 41b9 b4b2 1d3d 37aa 6a3d 6745 213c
000002e0: d5e4 ceb7 e420 aab8 01df 30ba fd5b 023c
000002f0: 4cae 013b 5443 393a 451f 8a3d 4f2e 34bc
00000300: 4aa8 ab38 733c b3b7 63fb 383a c99a 043a
00000310: 1a79 1fbb 648e d238 c586 0a39 aea7 f0b8
00000320: ad14 9a37 a1ab f73c c26b 60ba 71fb 8bb8
00000330: 4e92 d23d ed37 b1b8 13e1 29bd 0a15 8837
00000340: f195 0339 03b6 45bd 9ef5 8838 e41a afb8
00000350: 6225 a83c 425e 6bbc 2db3 28bc 5c2d 3dbe
00000360: a49f 403e cff1 e53d 1f8c e5bd 3e56 8fbd
00000370: 35b5 6f3c 6f42 8dbe 74bd c53c 5cc9 78be
00000380: f315 69be 75df 81bd e5c4 7abe c4af 91bd
00000390: cd5b ccbc 48e2 a1bd 186a a73d ac91 c6bd
000003a0: 736e ac3d 7fad bb3e 2d36 a3bb adae 9fb9
000003b0: 9c3c e9b9 792c 70bb 93bd 8b3e 9273 3e37
000003c0: d049 04b9 9a51 50bb 3361 a9ba e515 feb8
000003d0: 638f 99b7 6495 99bb 4196 6eb8 7f6e 1b39
000003e0: fe96 87bb 5534 de3b f43f 81b9 1404 d438
000003f0: 1ecf 64b7 c735 d4b9 a335 a83d b42f 8c3e

fc1.bias f4 [10]
0.09080207 0.03448519 0.026058054 -0.008571537 0.10527886 0.076392196 -0.16469534 0.07761128
0.114678495 0.074307956
00000000: 70f6 b93d 5840 0d3d b377 d53c a26f 0cbc
00000010: 719c d73d 8373 9c3d e5a5 28be aaf2 9e3d
00000020: 8fdc ea3d c52e 983d

fc2.weight f4 [10, 778]
0.15956844 -0.20426871 -0.2230141 -0.26612967 0.16756028 0.16209495 -0.27040368 0.15949136
0.17180833 0.16011502 0.03226921 0.037114438 -0.03308359 -0.030843003 0.05588116 -0.053899836
-0.011579711 -0.06068719 -0.046786435 -0.082489505 0.05340419 0.005489035 -0.043005984 -0.0034940147
-0.015208852 0.0077734254 -0.0005054129 -0.0005374263 0.0031053731 -0.034111734 0.020452114 -0.0056872694
0.01852165 -0.023273647 -0.075210646 0.009241573 -0.04643495 -0.066510096 -0.06802022 0.021409808
-0.026752979 -0.00250944 0.005511475 -0.0025814804 -0.03488965 -0.08577571 0.04822268 0.0508441
0.06897598 -0.006733334 0.014806455 -0.04497724 0.0064236824 -0.013537654 -0.03978761 0.0011380723
-0.06013592 0.024292434 0.0077400873 0.060046513 -0.0060759597 0.050231054 0.02674424 -0.015881538
-0.0017817684 -0.020473382 0.018281076 -0.07333123 -0.01142051 0.042291276 0.014980201 0.0019312158
-0.007337439 -0.0022321697 -0.014481355 -0.052602854 -0.009046909 0.002454327 0.0086989915 -0.020073978
0.008172969 0.009423135 0.032716807 -0.03550536 0.09915599 0.027189968 0.0436206 0.004079716
0.013627067 0.018545143 0.020597367 -0.03453804 0.083148584 -0.010650836 -0.038964253 -0.029081699
-0.10935577 -0.04586903 -0.008869362 0.0012012796 -0.008914994 -0.03480764 0.028504526 0.012095634
0.01716903 0.016576948 -0.047232475 0.043239083 -0.022738839 0.0050058686 -0.003748999 0.016492538
-0.008001071 0.009604844 0.029361313 -0.006335065 -0.041664552 -0.010320867 -0.04564725 0.009824038
0.0045536817 0.04117864 0.033829425 0.0011901265 1.3423832e-05 0.058433663 -1.6884129e-06 0.06402167
0.039500937 -0.044111792 -0.0030235087 -0.0013603925 0.02976651 0.021442834 0.034563053 0.025213877
-0.055299066 -0.011546501 -0.0150159085 -0.07214198 -0.0020053883 -0.026950814 -0.03156684 0.01750666
-0.0016653069 -0.046888955 0.04042321 -0.026253683 -0.033263154 0.047606237 -0.024385242 -0.01638979
0.023220556 -0.037307095 -0.06314668 -0.022274427 -0.017989732 0.015049415 0.034214035 -0.031039266
-0.031696785 -0.036075834 -0.028071377 -0.0071150702 -0.010701134 -0.0017009182 -0.012153179 -0.0055798986
-0.0033942442 0.024035817 0.05796001 -0.06912252 -0.05174667 0.031310827 0.013161431 0.07288956
-0.010915811 -0.08207688 0.028435625 0.06566407 0.023147494 -0.0499199 -0.074430846 0.015866911
-0.0048727957 0.061970126 0.022412514 -0.007866934 0.003960205 -0.006011837 0.03255323 0.02045244
-0.015642224 -0.010709739 0.08058516 0.003041362 0.0028520748 0.03339951 -0.034479883 0.084268466
0.017913172 0.053130385 0.031989276 -0.022434453 -0.05316579 -0.027118774 0.026731813 0.09456727
-0.0064557935 -0.008189391 -0.016611189 0.0026309243 -0.06743184 -0.024390327 -0.027264249 -0.029747488
-0.03431496 -0.0024911617 0.019906044 -0.02173676 0.038103394 -0.023779377 -0.022878997 -0.008753446
0.017729722 0.0111704925 -0.04552071 -0.0004930959 0.0093653845 -0.0028583822 -0.02460018 -0.06779392
0.11014039 0.00019398771 -0.008829308 -0.024049604 0.00039676804 -0.06629735 -0.0014713324 0.006268665
-0.047484223 -0.026809327 0.013257836 0.01498754 -4.9131624e-05 -0.0082421005 0.087248325 0.0014224055
-0.042774424 0.0027176794 -0.0055452455 0.10868744 -0.05595867 0.0047413097 0.018388215 0.010923227
00000000: e965 233e d12b 51be cf5d 64be 2642 88be
00000010: ec94 2b3e 38fc 253e 5a72 8abe b451 233e
00000020: 86ee 2f3e 31f5 233e b82c 043d 4f05 183d
00000030: a982 07bd 77aa fcbc a5e3 643d 13c6 5cbd
00000040: d4b8 3dbc 2293 78bd 22a3 3fbd 42f0 a8bd
00000050: 5abe 5a3d 5ddd b33b 0b27 30bd d7fb 64bb
00000060: 8c2e 79bc 38b8 fe3b b07d 04ba 12e2 0cba
00000070: 8483 4b3b bfb8 0bbd 318b a73c 465c babb
00000080: b7ba 973c 60a8 bebc 0a08 9abd f769 173c
00000090: 9332 3ebd 7236 88bd 2f4e 8bbd 9f63 af3c
000000a0: 1029 dbbc 6b75 24bb 9a99 b43b 0e2e 29bb
000000b0: 73e8 0ebd 2dab afbd 2585 453d e741 503d
000000c0: 4743 8d3d 4da3 dcbb c696 723c 0e3a 38bd
000000d0: c17d d23b 09cd 5dbc 55f8 22bd 5f2b 953a
000000e0: 1551 76bd ed00 c73c 8fa0 fd3b 55f3 753d
000000f0: d818 c7bb 14bf 4d3d bd16 db3c 001a 82bc
00000100: 3a8a e9ba cbb7 a7bc 32c2 953c af2e 96bd
00000110: 171d 3bbc 9e39 2d3d 846f 753c d920 fd3a
00000120: e66e f0bb 9849 12bb 3543 6dbc 1776 57bd
00000130: 7d39 14bc c6d8 203b 3786 0e3c 2f72 a4bc
00000140: ebe7 053c 7e63 1a3c 0f02 063d 126e 11bd
00000150: 4c12 cb3d 7fbd de3c 84ab 323d 23af 853b
00000160: 1044 5f3c fceb 973c cfbb a83c c377 0dbd
00000170: ce49 aa3d d880 2ebc fb98 1fbd be3c eebc
00000180: ebf5 dfbd 2ae1 3bbd cd50 11bc 4174 9d3a
00000190: 3210 12bc 7592 0ebd 5382 e93c c42c 463c
000001a0: 11a6 8c3c 61cc 873c d776 41bd 771b 313d
000001b0: cd46 babc 4508 a43b c4b1 75bb 5c1b 873c
000001c0: ed16 03bc a35d 1d3c 2387 f03c 6096 cfbb
000001d0: 73a8 2abd db18 29bc 9cf8 3abd 00f5 203c
000001e0: 0d37 953b efaa 283d b990 0a3d 05fe 9b3a
000001f0: eb36 6137 2358 6f3d 6d9d e2b5 cb1d 833d
00000200: bccb 213d 91ae 34bd 0f26 46bb 334f b2ba
00000210: e5d8 f33c e2a8 af3c fd91 0d3d 558d ce3c
00000220: 4681 62bd 892d 3dbc 4905 76bc 2dbf 93bd
00000230: d56c 03bb f4c7 dcbc 3b4c 01bd 216a 8f3c
00000240: 6d46 daba a20e 40bd cf92 253d f711 d7bc
00000250: f23e 08bd c2fe 423d 8fc3 c7bc e243 86bc
00000260: 0939 be3c 53cf 18bd 0c53 81bd dc78 b6bc
00000270: 345f 93bc d291 763c 0424 0c3d 0f46 febc
00000280: 7dd4 01bd 41c4 13bd f2f5 e5bc 8925 e9bb
00000290: cf53 2fbc 58f1 deba 211e 47bc 95d7 b6bb
000002a0: f871 5ebb c3e6 c43c 7a67 6d3d 1c90 8dbd
000002b0: 51f4 53bd c83f 003d 0ba3 573c 1f47 953d
000002c0: 3bd8 32bc ec17 a8bd d4f1 e83c e27a 863d
000002d0: d09f bd3c cf78 4cbd 336f 98bd 53fb 813c
000002e0: f9ab 9fbb 63d4 7d3d 739a b73c 50e4 00bc
000002f0: 9bc4 813b f2fe c4bb 8956 053d e08b a73c
00000300: 1f24 80bc e777 2fbc d509 a53d 9651 473b
00000310: e0e9 3a3b edcd 083d c73a 0dbd f294 ac3d
00000320: a5be 923c 3f9f 593d 3007 033d 75c8 b7bc
00000330: 5fc4 59bd 3128 debc adfc da3c 7cac c13d
00000340: 1f8b d3bb cc2c 06bc 3014 88bc 966b 2c3b
00000350: b419 8abd 39ce c7bc 4659 dfbc 01b1 f3bc
00000360: d88d 0cbd c242 23bb 0012 a33c 4a11 b2bc
00000370: 4e12 1c3d f8cc c2bc bc6c bbbc 9d6a 0fbc
00000380: ec3d 913c 7104 373c ed73 3abd 1b43 01ba
00000390: 4571 193c b253 3bbb 5186 c9bc 8ad7 8abd
000003a0: 4991 e13d 2e69 4b39 cda8 10bc ad03 c5bc
000003b0: 4e05 d039 e8c6 87bd b9d9 c0ba 6069 cd3b
000003c0: d17e 42bd 3c9f dbbc 6537 593c 4d8e 753c
000003d0: ae12 4eb8 e009 07bc 40af b23d 0270 ba3a
000003e0: 3c34 2fbd 181b 323b e4b4 b5bb 8597 de3d
000003f0: eb34 65bd fd5c 9b3b e2a2 963c 56f7 323c

fc2.bias f4 [10]
0.0037526262 -0.0023601572 0.0038902927 -0.0022275795 0.0031941948 0.0044497447 -0.0008658869 0.005846281
-0.00501151 0.0022967998
00000000: 9fee 753b deac 1abb 48f4 7e3b 95fc 11bb
00000010: b255 513b 2acf 913b b0fc 62ba 2992 bf3b
00000020: 9837 a4bb e885 163b

fc3.weight f4 [1, 10]
-0.38592574 0.24270903 -0.4000952 0.22914793 -0.32852492 -0.4576536 0.08907826 -0.60131663
0.5154324 -0.23624822
00000000: 0f98 c5be b788 783e 47d9 ccbe c1a5 6a3e
00000010: 6b34 a8be 9351 eabe aa6e b63d e3ef 19bf
00000020: 61f3 033f 0eeb 71be
