model_sdadas/google/model.pth (torch, 38506 bytes, 9 tensors)

batch_norm.weight f4 [73]
00000000: 65bf 043e 89e3 a23d 402b 2b3f 75bc 473d
00000010: 52a7 023f 3bfa ca3e ce08 d43e 228e be3e
00000020: 7773 6a3e 677f 123e 38f4 543e 5c45 ad3d
00000030: 2d6a bb3e 0b9f a23d f518 353f ba09 783e
00000040: 234a 4b3b e70f 3639 c0b0 ab3b c5fc 303f
00000050: 0c66 003d 0299 623b ec44 3e3a 94dc a03a
00000060: 86e0 233e 097b 3638 e853 493d 00b4 9a39
00000070: baaa e73b 6f54 e23a 18a4 ef3b 1dfd c439
00000080: 7971 2b3c b4a3 2638 e24d 4239 d2c2 5439
00000090: 7ef7 3b3e d270 3d39 ee8c 813c 2bdf 503a
000000a0: 8315 ed3a bc72 d437 c252 0e3b 044a e938
000000b0: 1788 3c3c a947 813d 3df3 c33d 8b33 d33a
000000c0: 53b8 e738 7a18 4c3b 1527 9b3c 91aa 953b
000000d0: fed0 c93a 8947 353a 1d33 9939 6b77 d339
000000e0: 321f fe3c a7b2 203c eb01 933e e5a2 f039
000000f0: 8181 823e 622f 0638 e357 7f3b 47df 9c3e
00000100: e778 293b 17e0 c33a 2b51 8d3b 90fc 9d3e
00000110: 3a43 003e e843 fd3e 1492 f13e 0e28 d03e
00000120: 0856 ca3e
0.12963636 0.07953555 0.6686287 0.04876371 0.5103656 0.39644036 0.41412967 0.37217814
0.22895609 0.14306413 0.20796287 0.08460495 0.36604443 0.07940491 0.70741206 0.2422246
0.003101953 0.00017362797 0.005239576 0.69135696 0.03134732 0.0034576063 0.0007258195 0.0012272769
0.16003618 4.3506767e-05 0.049152285 0.0002950728 0.0070699127 0.0017267595 0.0073132627 0.00037572617
0.010464066 3.9729945e-05 0.00018530295 0.00020290472 0.1835613 0.00018066473 0.01581427 0.0007967825
0.0018088076 2.5325797e-05 0.0021716808 0.00011124092 0.011507056 0.06312496 0.095678784 0.0016113383
0.000110492714 0.003114252 0.018939534 0.0045674522 0.0015397368 0.00069152616 0.00029220516 0.0004033403
0.031020734 0.009808219 0.287124 0.00045897733 0.2548943 3.199222e-05 0.0038962297 0.30639097
0.0025859417 0.0014944103 0.0043126545 0.30856752 0.12525645 0.4946587 0.4718176 0.4065556
0.39518762

batch_norm.bias f4 [73]
00000000: 8ef9 e2bc 4cc3 803c a79d c4bd c64e dd3b
00000010: 101a 96bd 9f9b e8bc b240 06bd bec2 dabc
00000020: 025f 21bd af79 63bc 5373 12bd 8988 cb3b
00000030: 8f12 a03c 1291 ba3b a192 11be dd1b 363d
00000040: 6386 223a ab65 26b8 24c9 f93a 58a6 7abd
00000050: c713 043c 13f2 92ba 21fc cab9 c261 0c3a
00000060: 8108 b4bc 19c6 3138 8006 433c aeaa 8db8
00000070: 0e76 deba 5662 363a eafe 60ba 8ee6 2039
00000080: d5f9 3bbb ae28 1d38 76a9 cd38 18ff b3b8
00000090: b04a 33bd bd9b b9b8 7413 4dbb a17e 7339
000000a0: e4fb 2bba 4432 11b7 b00b 503a 9467 86b8
000000b0: 6882 32bb 8579 703c cf22 b9bc 590f 1a3a
000000c0: c741 8737 b880 1d39 4af0 aebb 679d 8c39
000000d0: 5d41 203a e547 b6b8 6e0a 1539 b69e 09b9
000000e0: 4ef3 cabb 701b 313b 1ffc 2abd 7c2a 1238
000000f0: 98ba 473d c4ee 8e36 041d 84ba 2d71 853d
00000100: f330 86ba 36c3 1a3a dcb7 c3ba 4eb2 063d
00000110: fe51 6b3b 3383 9d3d e238 96bd bae2 b6bd
00000120: 4ac6 b13d
-0.027706888 0.015718125 -0.09600382 0.0067537753 -0.0732919 -0.028394518 -0.032776542 -0.026704188
-0.039397247 -0.013883992 -0.035754513 0.0062113446 0.0195401 0.0056935633 -0.1421609 0.044460166
0.0006199835 -3.967217e-05 0.0019057137 -0.061193794 0.008061356 -0.001121106 -0.00038716293 0.0005355143
-0.021976711 4.238458e-05 0.011903405 -6.7551955e-05 -0.0016972439 0.0006957402 -0.0008582907 0.00015344677
-0.0028682847 3.7469603e-05 9.806726e-05 -8.5829e-05 -0.0437724 -8.850496e-05 -0.0031292113 0.00023221459
-0.0006560667 -8.654377e-06 0.0007936312 -6.408911e-05 -0.0027238373 0.01467741 -0.022599606 0.0005876921
1.6123884e-05 0.00015020638 -0.0053387033 0.00026820155 0.00061132555 -8.691828e-05 0.00014213633 -0.00013124463
-0.006193555 0.002702441 -0.041744348 3.484868e-05 0.048761934 4.2597258e-06 -0.0010079448 0.06515727
-0.0010237977 0.00059037225 -0.0014932114 0.03288489 0.0035907025 0.0769104 -0.07335068 -0.089299634
0.08680399

batch_norm.running_mean f4 [73]
00000000: 75e5 c242 0f4c 0041 6177 3743 a1d9 c942
00000010: 5884 f941 d6db 4943 52de c242 e843 8941
00000020: dabc 4b43 e56a ca42 00b1 1241 16be 2241
00000030: 6135 8a40 eac7 2f40 1669 d83f 52a5 923c
00000040: 2acc 9c3c 651c 443c bef9 d43c 39a6 b03b
00000050: be0f c23c d584 a53c d8b7 3c3c 75f0 4e3d
00000060: 73f7 253c 92c7 473b c343 0d3d 4c5a 083d
00000070: 1f3c 9f3c 7a8a 363c 1b39 663c 9c82 523c
00000080: 57a4 6d3c 1578 a63c 2ba4 443c 117f 5a3c
00000090: 4e1b 503d 88f0 183c 4a87 5d3c 4e47 603d
000000a0: d189 1f3c 0533 bc3c adcc de3b 29ad b03b
000000b0: 3037 303c fafc f93b 9688 c43b b94a e43b
000000c0: 5528 903c b8d2 a83c 0ed1 a33c 1355 c03c
000000d0: 060b 8f3c 42cb 923c 305e 803c 2b42 9d3c
000000e0: 2c8d fe3c bd16 903c 8042 d33c e010 af3c
000000f0: 7756 d63c 04b3 743c 7e9a 5e3c 3787 c23c
00000100: 120f 2e3d 73e3 2a3d e785 733e ade8 f13e
00000110: 6154 943e f245 6c3f 6cd0 9d3d cd4f 393f
00000120: 6960 8d3e
97.44816 8.018569 183.46632 100.92506 31.189621 201.85873 97.43422 17.158157
203.7377 101.20878 9.168213 10.171408 4.319016 2.7465768 1.690707 0.017901096
0.019140322 0.01196966 0.025997993 0.005390909 0.023689147 0.02020494 0.011518441 0.050522286
0.010129797 0.0030483943 0.03448845 0.03328924 0.019437848 0.011141414 0.014051701 0.0128485225
0.014504514 0.020320931 0.012002031 0.013335959 0.05080729 0.009334691 0.013521025 0.0547555
0.009737448 0.022973547 0.0067993016 0.005391736 0.010755345 0.007629034 0.0059977276 0.0069669154
0.017597357 0.020608291 0.019997146 0.023478067 0.017461311 0.017919187 0.015669912 0.01919659
0.031073175 0.017588967 0.025788546 0.021370351 0.026164277 0.014935259 0.0135866385 0.023746116
0.04249484 0.04172082 0.23781548 0.4724783 0.28970626 0.9229423 0.07705769 0.7238739
0.27612618

batch_norm.running_var f4 [73]
00000000: 7b03 c444 3716 3e43 6887 2545 3979 c343
00000010: 6715 9942 26f4 3645 24b6 c543 722f a941
00000020: 086b 2a45 6810 d743 98b1 b040 7eec fe40
00000030: 5181 c140 36b3 143f ce6a 0440 e661 923c
00000040: 791b 8f3c cf71 423c a3bf c83c 5149 b03b
00000050: ba3a c13c a4f7 a43c da70 3c3c 1bf8 4d3d
00000060: 2365 253c 7c7b 443b eb85 023d fb02 013d
00000070: c3d7 9b3c 2e18 363c ce8a 653c 71b4 503c
00000080: b6fd 6c3c 8a4c a53c 3aee 433c e9e6 593c
00000090: b1d2 4d3d 24f5 173c 9c2a 5c3c edc9 583d
000000a0: 91db 1e3c 4e09 b23c 0ba4 dd3b 192b ac3b
000000b0: c4d8 2f3c c27f f83b b594 c23b 25e7 dc3b
000000c0: e255 8d3c 5b93 a23c 60e3 9e3c 5129 b63c
000000d0: 028d 873c cc82 923c 940e 803c 1162 9a3c
000000e0: f8cb e63c d652 8e3c 5477 ce3c 999b ae3c
000000f0: d816 d53c 76e1 733c 43e1 5d3c 612f b63c
00000100: d36f 213d b927 223d 8e4c 293e e5b3 803e
00000110: 799b 533e 2f06 8e3d 2f06 8e3d a951 593e
00000120: a951 593e
1568.1088 190.08678 2648.463 390.94705 76.5418 2927.2593 395.42297 21.148167
2726.6895 430.12817 5.521679 7.9663687 6.0470357 0.58085954 2.0690188 0.017868947
0.017469155 0.011867954 0.024505442 0.0053798337 0.023587573 0.020137616 0.011501515 0.05028544
0.010094914 0.002998083 0.031865995 0.031496983 0.019023782 0.011114163 0.014010144 0.012738333
0.014464786 0.020178098 0.011958653 0.013299682 0.05024976 0.009274755 0.013437893 0.052926946
0.009695903 0.021732952 0.00676394 0.005254161 0.010732833 0.0075835893 0.0059381374 0.0067414218
0.017252866 0.019845655 0.01939553 0.022236498 0.01654673 0.017884634 0.015631951 0.01884559
0.028173432 0.017373484 0.025203384 0.02131443 0.02601187 0.014885297 0.013542476 0.022239389
0.039413285 0.039588664 0.1653311 0.2513725 0.20664777 0.06934773 0.06934773 0.21222557
0.21222557

fc1.weight f4 [10, 73]
00000000: 4dcc c9bc 16b0 803c c2a2 37be 8b25 923c
00000010: a939 0cbe 63c6 d4bd 710e 44be dda6 c7bd
00000020: a1be 983c 6f04 293d 73dd 8a3c be4c d33c
00000030: f200 4abe f4df c53c d732 793e f44e a9bd
00000040: 1077 82ba 8e1a 8e38 19bc 61ba 58a8 913e
00000050: 14cd 06bc 53ec 62ba 85ec e738 57df d837
00000060: 9c7e 6d3d 8d93 8cb7 57e5 05bc 5426 dcb8
00000070: 897c 583b a04a 04ba 9c73 363b 3aff 09b9
00000080: 6bd8 7a3b b39f 02b7 ed56 95b8 63c8 9138
00000090: 5707 933d d90d 83b7 2926 f03b ed98 5f39
000000a0: 91a8 0aba 7777 a9b6 f1d7 08ba 2859 24b8
000000b0: d50c d9ba 6072 63bc 4cf6 d63c 4b77 bfb9
000000c0: f0bb dab7 f0cd 7aba adbc 4abb e8dc ccba
000000d0: 7d64 d0b9 a552 7e39 d962 f438 bd55 59b8
000000e0: c147 483c a159 0dbb 2054 f43d 620d 4939
000000f0: 80ec a5bd 90bb 21b7 7903 a1b9 b9b0 80bc
00000100: 3359 72b9 60c7 cfb9 0e23 c439 7609 16be
00000110: e5aa 853d 779e fcbd 6cf4 f03d b225 533c
00000120: fb46 4dbc 387c 6bbd 246a c63c e049 0ebe
00000130: 63a2 883c 2d40 d9bd f1a1 c5bc 8c05 85bd
00000140: 6d78 babc 6887 52bd 8ab1 cabb 7e6e 3fbd
00000150: e172 bcba d622 0a3b 1a9a c4ba 938e 8bbe
00000160: 86b7 c73d 9e87 763a b333 45b8 4aa1 363b
00000170: aba8 3cbe a4fc 633c d79a bcba 9767 bdb9
00000180: dd62 0a3a 2fc4 69bd 8aac b837 8f70 ad3c
00000190: 2974 d6b7 70fe e8ba e344 403a a368 f9ba
000001a0: 7bf1 1839 20a8 89bb d915 b537 0c21 a038
000001b0: 2d94 a5b8 050c 88bd 963e a9b8 a95c a1bb
000001c0: 3b0e 2039 ad9d 38ba 4e71 b5b6 5867 843a
000001d0: 5572 3ab8 1933 7dbb 2478 d63c 96f8 1cbd
000001e0: 7229 eb39 ae47 de37 673b 0f3a 09ba debb
000001f0: bc5c cf38 4017 373a f48e 15b9 4cf0 c438
00000200: 2fa5 a0b8 06eb 39bc 958e 763b 77a6 c8bd
00000210: f141 8d37 9ff7 c33d 1546 c436 45ee 2eba
00000220: 7396 013e 8e74 96ba 7c2d 263a 9ea4 ebba
00000230: 1eff a43d 3927 b6bb 9171 4b3e 4e0b 42be
00000240: dddd 27be 5b2c 233e 3092 013d 544a 2cbd
00000250: b3c1 c73e 545b d83b be76 983e 82ec 623e
00000260: d1de 203e 080d 553e 5e34 183e 0e4a 683d
00000270: 1034 0a3e c9fe 04bc 6b6d b83d cf92 efbb
00000280: 6cb0 22bd 616d d5bc ecb5 8d3a 0eb3 34b8
00000290: 1736 2dba 49ab 893c 27de bdbb 8740 953a
000002a0: ff3b 3538 3785 edb9 2aa5 5fbc 249d b3b7
000002b0: 02c7 42bc 8dac 1339 0c63 01ba 688b 03ba
000002c0: a75e 28bb 71d3 4938 9849 d73a c97d aeb7
000002d0: b2b0 15b8 2cda 8c38 b419 163d 6383 b337
000002e0: 5edd 563b b4e5 ecb9 9167 8439 2513 c3b6
000002f0: 37f8 5039 d642 2738 b2ab bb3b 2a7a 98bc
00000300: 0446 c73c 251b 56ba 64c2 3f38 9f65 bb3a
00000310: 90e5 153c 8ac7 af3a 5809 b2b9 1e28 74b9
00000320: 9e70 eab8 d530 7439 f396 a7ba 00be 51bb
00000330: 9b03 83bc ff59 45b9 647d 54bd 489e 5e37
00000340: 407e 233b f5df eebd 333d 823a 4e4a f6b9
00000350: 9f4f 9a39 c015 8c3d a10b 21bd 2fc1 ea3c
00000360: bbef dfbc 9d8f 453e 5109 40be 7d23 823c
00000370: 750a 17bd cb45 bc3e 8aa5 8b3b 77b1 8f3e
00000380: e5fd 5d3e b20b 2e3e 4d67 503e d23e ef3d
00000390: 9112 483d 713a d93d f29b 3bbb 03fe 563d
000003a0: 5eb5 1cbb 3f49 9bbd 2387 9ebc 1780 903a
000003b0: 04e2 27b8 316b 18ba ef5c d9bb 9413 31bb
000003c0: f67d 993a 71a5 be37 635e 11ba 4e31 abbc
000003d0: 9a64 c6b7 ca37 33bc d74d 1c39 09d0 47ba
000003e0: 8a70 01ba 1a3d 23bb 4c14 f137 d956 313a
000003f0: 90a6 a8b7 478e a4b7 9bc2 4138 f56e ea3c
-0.024633551 0.015708964 -0.17933181 0.017840168 -0.1369387 -0.10389402 -0.19146134 -0.097486235
0.018645586 0.041263994 0.016951298 0.02579343 -0.19726923 0.02415464 0.243358 -0.08267012
-0.0009953696 6.776034e-05 -0.00086110976 0.2844875 -0.008227605 -0.0008656431 0.000110589936 2.5853207e-05
0.057982072 -1.675801e-05 -0.008172355 -0.00010497557 0.0033033213 -0.00050465204 0.0027839905 -0.00013160417
0.0038275968 -7.785787e-06 -7.121065e-05 6.951464e-05 0.07179134 -1.5622865e-05 0.007328768 0.00021323907
-0.00052894006 -5.0505e-06 -0.0005220166 -3.918368e-05 -0.001655961 -0.01388225 0.02624049 -0.0003651924
-2.607514e-05 -0.000956743 -0.0030935213 -0.00156298 -0.0003974772 0.00024254115 0.000116532385 -5.181668e-05
0.012224139 -0.0021568316 0.11930108 0.00019173839 -0.081017494 -9.640018e-06 -0.000307109 -0.015709268
-0.00023112148 -0.00039630663 0.0003741015 -0.14652047 0.06526736 -0.12334912 0.1176537 0.012887405
-0.01252913 -0.05749151 0.024220534 -0.13895369 0.016678995 -0.10607944 -0.024125071 -0.064951986
-0.022762502 -0.051398665 -0.006185715 -0.046736233 -0.0014377498 0.0021077893 -0.0014999539 -0.27257213
0.09751801 0.0009404364 -4.701661e-05 0.0027867132 -0.18423717 0.013915215 -0.0014389408 -0.0003612607
0.0005279014 -0.05707186 2.2014854e-05 0.021171836 -2.556488e-05 -0.0017776024 0.00073344837 -0.0019028377
0.00014585808 -0.0042009503 2.1587055e-05 7.63555e-05 -7.895413e-05 -0.066429175 -8.0702055e-05 -0.004924376
0.0001526409 -0.00070425385 -5.4074108e-06 0.00101016 -4.4452336e-05 -0.0038635193 0.026180334 -0.038323008
0.00044853572 2.649784e-05 0.0005463869 -0.0067970795 9.887802e-05 0.00069843605 -0.00014263002 9.390767e-05
-7.6601624e-05 -0.011347538 0.0037621607 -0.09797376 1.6839216e-05 0.09568714 5.849414e-06 -0.0006673078
0.12655048 -0.0011478828 0.0006339175 -0.0017978137 0.08056472 -0.005558875 0.19867541 -0.18949625
-0.16393228 0.15934889 0.031633556 -0.042063072 0.39014968 0.006602684 0.29778093 0.22160533
0.15709998 0.20805752 0.14863726 0.05671125 0.13496423 -0.008117386 0.09005245 -0.007311202
-0.03971903 -0.026053132 0.0010811663 -4.3082102e-05 -0.0006607486 0.016805308 -0.005794305 0.0011387028
4.320964e-05 -0.00045303415 -0.013650218 -2.1411637e-05 -0.0118882675 0.00014083293 -0.00049357186 -0.00050180266
-0.0025691183 4.8119055e-05 0.0016425131 -2.080099e-05 -3.568893e-05 6.716358e-05 0.036645606 2.1399645e-05
0.0032785754 -0.0004518457 0.00025254165 -5.8136816e-06 0.00019928893 3.987815e-05 0.005727255 -0.01861294
0.024325378 -0.0008167497 4.571899e-05 0.0014297253 0.00914897 0.0013410908 -0.00033957767 -0.00023284598
-0.00011178966 0.00023287845 -0.0012786075 -0.0032004118 -0.01599293 -0.0001882091 -0.051877394 1.3269084e-05
0.0024947077 -0.1166381 0.0009936452 -0.00046976138 0.0002943249 0.06840086 -0.03931773 0.02865657
-0.027335992 0.19293065 -0.18753554 0.015886063 -0.036875207 0.36771998 0.004261677 0.28065082
0.21678884 0.16996649 0.20351906 0.11681904 0.04884583 0.1060685 -0.0028626886 0.05248834
-0.0023911814 -0.0758233 -0.019351548 0.0011024502 -4.0026396e-05 -0.00058143126 -0.006633393 -0.0027019726
0.0011710513 2.2726805e-05 -0.0005545376 -0.020897534 -2.3650286e-05 -0.010938594 0.00014906317 -0.0007622247
-0.0004937729 -0.0024908246 2.873889e-05 0.00067649555 -2.0104722e-05 -1.9616577e-05 4.6196026e-05 0.028617362

fc1.bias f4 [10]
00000000: 9cb1 51bd db27 033e 4918 22be b79c 8bbd
00000010: b897 0c3e 85e1 c43d 5616 a43d aca7 2ebd
00000020: 4987 fd3d b7d9 5f3c
-0.051194772 0.12808172 -0.15829577 -0.06817 0.13729751 0.09613327 0.08012073 -0.042640373
0.12379319 0.013662747

fc2.weight f4 [10, 778]
00000000: 0978 96be 8d7d 8f3e 6b48 b4be e65f a4be
00000010: 3e29 8d3e 8cd5 8f3e 2344 843e d465 95be
00000020: 8bf9 a2be 3b1d 94be 95e7 e73b 11a6 a8bd
00000030: fdb3 07bd 9a2a 0e3c 6cbc 68bd 1a52 433d
00000040: 5456 6cbc f357 993c 4ddd 833d 436b 9dbc
00000050: f78d 5abc 914d 403b 917e cebb 9323 42bd
00000060: d014 d73c c37b 5e3d d52d fa3c f0e8 43bd
00000070: 41f1 24bd 6f8c ad3c 4db9 1fbd d89e 84bb
00000080: 55de dd3b b000 ce3d c1ad c93c c829 d5bb
00000090: 71f4 ebbd 506a 123d d30e 2ebd 02f5 8ebd
000000a0: eb25 1fbc a67b bf3b 5980 793d 85d7 893c
000000b0: f0d9 a3bb 9667 cf3b e103 843c be16 173d
000000c0: 111a 7c3d 1606 95bc f59a 81bb f498 063e
000000d0: 88cf 5a3d 53fa c1bb 59ca 7cbd 9d92 073a
000000e0: c2b4 443a 5e76 b63c 6850 773c 0519 8c3c
000000f0: 04ff d5bc f1f2 1f3d 4276 b2bc 0c81 97bc
00000100: 64af 7c3d e26b 313c 5d33 583d f84b abbc
00000110: f48d 6cbc cbf4 e33a 448d 263c cfb7 de3d
00000120: 6588 73bd 1d1b 013b ba3c cbbc 65d6 453b
00000130: 7d35 31bd f1ce 8b3d ac8c 3e39 bc04 87bd
00000140: bb56 1abc 4b65 32bd 43af 10bd 37d7 fcbc
00000150: 3f3b 68bc 80f0 2a3d 448b 62bd 3b39 58bd
00000160: 7ddd f0bd 7849 0cbd 6ac0 953b f35c 72bd
00000170: 8cad 3aba 626b 323c 91df fbbc 5850 833c
00000180: b6d9 363b 2d18 5abd 228d 96bc 6090 bf3c
00000190: d4ff 97bc 08b6 053c 5e9e 003c 5025 cc3c
000001a0: b64e b73c 1e75 0c3d f9a1 e2bc f3dd ae3c
000001b0: 214e c03c 0fc2 b73d d9e6 f13b 318f 053d
000001c0: b474 7dbd 25a5 f3bc d16a 0d3c 4bd3 bbbc
000001d0: 2042 2bbd aebc a3bc c00a e8bd f36a e4bc
000001e0: 7117 8dbd 4c3d f63d e3b2 d4bc 9a9e 10bc
000001f0: 8d8b 52bd 9f27 81bc 16c1 c73c e1c0 36bc
00000200: e212 7a3c 9dae 1e3d 20f2 ae3c 60b6 063d
00000210: 214d 9ebd c867 6c3b 97b4 773b b8d5 51bc
00000220: 7838 4b3d 533e 503c efdd 0ebc 72d2 cebc
00000230: 725f eb3b e2dc d43c 559d 113d 692f b6bd
00000240: 3dc3 8fbc 914f 83bd 5ec0 93bb b6cb 80bc
00000250: 7216 2c3c 7fa2 013d c9b6 acbc 0482 70bd
00000260: 8484 a43c 25ee bf3c 7f4d 43bd ed19 b4ba
00000270: 8ffe 58bd 4e45 3c3d b4a5 8fbc b9af a8bd
00000280: d1e7 be3b 0771 343b 0f8b f3bb 2190 14ba
00000290: 236f c4bc 378a 203d bf68 09ba 30ce 5b3c
000002a0: 678f 163d faaf 873d 3f84 b8bd 7205 e23c
000002b0: fe60 fb3c e37d 8ebd 5d04 943c 1a11 83bc
000002c0: 3e3f 923d c25b b7ba 9f5a b93c 23a0 523c
000002d0: 10f0 8a3c cccc b53b 18bc 1cbd 0f8a 85bc
000002e0: 2d02 8b3b 3411 31bd ee6c 9ebd efcf c23c
000002f0: 8c30 373d 1ddf d5bc c188 793c c78a 19bd
00000300: 23ba 02bd 6400 bbbb f2fe 063d 2a7e db3c
00000310: 4258 b93d 1458 d2bc ea79 d3bc ff9e 1ebd
00000320: 582c 42bb 3965 c53b 1c44 953c 0ad6 1f3d
00000330: 4530 333d 7a0a b43d 3796 ef3d 9f9c 0bbd
00000340: b55c 2b3d d307 cfbc 769e d13c 3f75 31bd
00000350: 5326 5bbd ee34 413d cb49 fa3b 38c2 c5bd
00000360: 95d7 50bc 3c52 463d cf2c 7a3c 5eca 663c
00000370: 3a7a 7c3d ce5e b0bc 8b20 9e3c 938a 483d
00000380: 3211 003d 7e0d a93c cce7 0c3d 883a bbbd
00000390: b551 f4bc d74d 86bd cbd0 f7bc 02a9 893c
000003a0: d828 37bd 847a a33d 04e1 0c3c 71ed 973b
000003b0: 9307 0dbd ca9f 9dbd cfff c03c 329e 6abd
000003c0: 0869 a9bc 3c71 04bd 5d8d d6bc 9e18 d8bc
000003d0: ef66 71bd 3aa1 0d3c b987 0c3d bf65 7c3c
000003e0: 14f3 4fbc 111d 2f3d b525 d7b9 418b 9cbc
000003f0: 7714 e239 3257 07bc ac40 a03d 374a d93c
-0.29388455 0.28025475 -0.352115 -0.32104415 0.27570528 0.2809261 0.25833234 -0.2917925
-0.3183101 -0.2892855 0.0070771673 -0.082348 -0.033130635 0.008677149 -0.056820318 0.04768572
-0.014424879 0.018718695 0.06438694 -0.019216185 -0.013339511 0.0029343108 -0.006301709 -0.047397207
0.026255041 0.054317247 0.030539433 -0.04782957 -0.04026914 0.021185128 -0.038995076 -0.004047256
0.006770889 0.10058725 0.024618985 -0.006505225 -0.11521233 0.03574592 -0.042494606 -0.06980325
-0.00971363 0.0058435975 0.060913417 0.0168264 -0.0050003454 0.006329487 0.01611513 0.036886923
0.061548296 -0.018191379 -0.00395524 0.13144284 0.053420573 -0.0059197336 -0.06171641 0.00051716884
0.00075037417 0.022273239 0.015094854 0.017101774 -0.026122577 0.039050046 -0.021784905 -0.018494152
0.061690703 0.010828944 0.05278336 -0.020910248 -0.014438141 0.001739168 0.010165516 0.108749025
-0.059456248 0.0019699999 -0.02480923 0.0030187604 -0.0432639 0.0682658 0.00018172216 -0.065927
-0.009420092 -0.04355363 -0.035323393 -0.030864341 -0.014174282 0.041733265 -0.055308595 -0.052788954
-0.117609955 -0.034249753 0.0045700567 -0.059170675 -0.00071211974 0.01088986 -0.030746253 0.016029522
0.0027900762 -0.053245712 -0.018377844 0.023384273 -0.018554606 0.008161075 0.007850258 0.024920136
0.0223764 0.03429138 -0.027665125 0.021346068 0.023474755 0.089725606 0.0073822555 0.03260726
-0.061878875 -0.029741833 0.008631424 -0.0229279 -0.04181111 -0.01998743 -0.113301754 -0.027883029
-0.06889237 0.1202341 -0.025964206 -0.008826876 -0.051402617 -0.015765963 0.024384063 -0.011154384
0.015263291 0.038740743 0.021355689 0.03288877 -0.07729555 0.00360726 0.003779685 -0.012807302
0.0496144 0.012710172 -0.008719905 -0.025246833 0.007183009 0.025984231 0.035550434 -0.088957615
-0.017549152 -0.064116605 -0.004509016 -0.015722137 0.010503398 0.03164911 -0.021083253 -0.058717743
0.02008272 0.023428986 -0.047681328 -0.0013740637 -0.05297714 0.04596453 -0.017535068 -0.082366414
0.0058259745 0.002753319 -0.0074323486 -0.0005667229 -0.023978775 0.039194312 -0.00052417436 0.013415858
0.036757853 0.06625362 -0.09009599 0.027590487 0.030685898 -0.06957605 0.018068487 -0.015999366
0.07140969 -0.0013989138 0.02262622 0.012855562 0.016960174 0.0055480953 -0.038265318 -0.016301183
0.0042422027 -0.043229297 -0.077356204 0.023780791 0.044724032 -0.026107365 0.015230359 -0.037485864
-0.031915795 -0.0057068337 0.03295798 0.026793558 0.09050037 -0.025676765 -0.02581497 -0.03872585
-0.0029628482 0.0060240296 0.018220954 0.039022483 0.043747205 0.08791061 0.11698573 -0.034084912
0.04183646 -0.025272286 0.025588255 -0.043324705 -0.053503346 0.04716962 0.0076381913 -0.09656185
-0.012746711 0.04841827 0.015269472 0.014086334 0.06164 -0.021529581 0.019302627 0.04896028
0.0312664 0.020636316 0.034400746 -0.09142023 -0.029824117 -0.065578155 -0.030250927 0.016804222
-0.044716686 0.079823524 0.00859857 0.0046364595 -0.03443105 -0.07696493 0.023559479 -0.057279773
-0.020679966 -0.03233455 -0.026190454 -0.026378926 -0.058936056 0.008644396 0.034309123 0.0154051175
-0.012692232 0.04275233 -0.0004103609 -0.01910937 0.00043121327 -0.008260535 0.07824835 0.026524646

fc2.bias f4 [10]
00000000: e45a 17bc 1165 afba 7b47 cd3b 661c 293a
00000010: 7091 f53b 2d97 1bbc 7804 a73b 95d6 12bb
00000020: 8a1e dbbb 7f96 aa3a
-0.009237979 -0.001338156 0.0062646247 0.000645107 0.007494144 -0.009496492 0.0050969683 -0.0022405733
-0.00668699 0.0013014822

fc3.weight f4 [1, 10]
00000000: 6069 3cbf b549 dabd 8f89 ff3e 0b95 523d
00000010: c0d6 183f 09ac 41bf 27e7 cf3e b7cc 36be
00000020: e45f 08bf 7962 d43d
-0.7359829 -0.1065859 0.49909636 0.05141167 0.5970268 -0.7565313 0.40606043 -0.1785153
-0.5327132 0.10370345
