model_uncased/azure/model.pth (torch, 38506 bytes, 9 tensors)

batch_norm.weight f4 [73]
0.33398014 0.35906625 0.5686651 0.32517374 0.5599028 0.4211605 0.33991233 0.4070296
0.34222907 0.33366483 0.35176274 0.32954034 0.3755656 0.3430325 0.60816437 0.3486917
0.33500493 0.3249493 0.36034453 0.346196 0.32609627 0.3329355 0.33220443 0.3292703
0.33853665 0.3296789 0.33376324 0.32660854 0.32471913 0.3353598 0.32599056 0.32863754
0.32455534 0.3294758 0.3463376 0.3994781 0.36860624 0.3387413 0.3415644 0.3234369
0.42680657 0.33850822 0.3259133 0.33645704 0.33513504 0.34517354 0.35928342 0.3478665
0.33035 0.33221602 0.33698952 0.33012372 0.33433282 0.33098772 0.32856825 0.32710707
0.3296224 0.3265773 0.34062 0.3248381 0.34175053 0.34778354 0.32445335 0.34181637
0.32691443 0.330529 0.3465922 0.3585537 0.32407153 0.5272837 0.4555817 0.3947077
0.38489592
00000000: 72ff aa3e 88d7 b73e 0994 113f 2c7d a63e
00000010: ca55 0f3f 59a2 d73e fd08 ae3e 2f66 d03e
00000020: a638 af3e 1ed6 aa3e 3f1a b43e 83b9 a83e
00000030: 224a c03e f5a1 af3e a9b0 1b3f b887 b23e
00000040: c485 ab3e c15f a63e 147f b83e 9a40 b13e
00000050: 17f6 a63e 8676 aa3e b316 aa3e 1e96 a83e
00000060: ad54 ad3e accb a83e 04e3 aa3e 3c39 a73e
00000070: 9641 a63e 48b4 ab3e 3ce8 a63e 2e43 a83e
00000080: 1e2c a63e 0db1 a83e 2953 b13e 6588 cc3e
00000090: f5b9 bc3e 806f ad3e 87e1 ae3e 8599 a53e
000000a0: 6486 da3e f350 ad3e 1cde a63e 1944 ac3e
000000b0: d296 ab3e 96ba b03e fff3 b73e 8f1b b23e
000000c0: a323 a93e 3818 aa3e e489 ac3e fa05 a93e
000000d0: ac2d ab3e 3977 a93e 193a a83e 947a a73e
000000e0: 44c4 a83e 2435 a73e bf65 ae3e 2e51 a63e
000000f0: edf9 ae3e af10 b23e c01e a63e 8e02 af3e
00000100: 5461 a73e 193b a93e 8874 b13e 5a94 b73e
00000110: b4ec a53e 11fc 063f 0142 e93e 2117 ca3e
00000120: 1411 c53e

batch_norm.bias f4 [73]
-0.017004022 0.01619135 -0.05893552 0.000562439 -0.037991412 -0.020060578 -0.00837203 0.00019400906
-0.00832283 0.006479566 0.0068969834 0.013268803 -0.010376334 -0.006280644 -0.030985108 0.018662266
0.02663522 -0.0010080724 0.011288817 -0.004221692 0.0070391945 -0.008880986 -0.0041983067 0.0097206235
-0.002080221 0.0041203825 0.013836399 0.0070590912 0.027274525 0.0052040936 -0.0131660765 -0.00078928616
-0.007255071 -0.008469572 0.018318579 -0.006745443 0.007927336 -0.003253513 0.0021271505 0.003453378
0.006085244 -0.012050863 -0.0030738867 -0.021173902 -0.0046768924 0.010025499 -0.0039053122 0.015013684
-0.0054125395 -0.0060875625 -0.010746614 0.0102356495 -0.0051187444 -0.009971791 0.007171023 -0.0083984425
0.00916685 -0.014498023 -0.0020560385 0.005094808 0.024320489 0.016652107 -0.008478934 0.037765704
-0.0009050028 0.013799708 -0.01749758 -0.005532294 0.0038390113 0.023893543 -0.025814617 -0.038514927
0.03045045
00000000: 054c 8bbc b9a3 843c 5f66 71bd a470 133a
00000010: e29c 1bbd 1556 a4bc d72a 09bc e96e 4b39
00000020: 7b5c 08bc 8a52 d43b 1700 e23b 6565 593c
00000030: 8001 2abc dccd cdbb 7bd4 fdbc 9ce1 983c
00000040: 1b32 da3c 4c21 84ba bbf4 383c 1f56 8abb
00000050: 0ba9 e63b 8e81 11bc f391 89bb 4043 1f3c
00000060: 5154 08bb 4604 873b 10b2 623c f34f e73b
00000070: d36e df3c 1a87 aa3b 87b6 57bc 19e8 4eba
00000080: f2bb edbb f6c3 0abc d810 963c e108 ddbb
00000090: a8e1 013c e438 55bb aa67 0b3b 1252 623b
000000a0: ba66 c73b fc70 45bc 4373 49bb e474 adbc
000000b0: 9e40 99bb fe41 243c 44f0 7fbb f4fb 753c
000000c0: ac5b b1bb 2d7a c7bb 9112 30bc 6db3 273c
000000d0: 24bb a7bb b960 23bc e7fa ea3b 9f99 09bc
000000e0: 8e30 163c 1e89 6dbc 9abe 06bb 59f2 a63b
000000f0: c33b c73c 006a 883c 3aeb 0abc 36b0 1a3d
00000100: b63d 6dba 2c18 623c 1657 8fbc 3f48 b5bb
00000110: ec97 7b3b 64bc c33c 2d79 d3bc d4c1 1dbd
00000120: 3973 f93c

batch_norm.running_mean f4 [73]
99.911285 7.072797 184.77603 98.897316 31.412773 202.7293 100.645744 17.232134
203.421 100.268456 9.154089 10.393316 4.4639354 2.807103 1.6861027 0.0017588525
0.0224736 0.012072542 0.030861415 0.018798402 0.013793968 0.03780409 0.019777365 0.016551502
0.0041364194 0.017965913 0.015589589 0.011468969 0.023264134 0.014507797 0.035897583 0.014161747
0.012171911 0.039590117 0.010081261 0.01120478 0.013577087 0.018634675 0.012106981 0.028591756
0.013845568 0.024941804 0.024736369 0.02195521 0.025398044 0.009397532 0.02057245 0.02841077
0.017536268 0.021286372 0.016896224 0.015600021 0.020888537 0.008529396 0.035130993 0.010089369
0.041068498 0.012936141 0.035657547 0.009856494 0.018722128 0.023874095 0.017238593 0.009992896
0.027622802 0.030973438 0.26071683 0.48977315 0.24951 0.91744673 0.082553305 0.74654096
0.25345907
00000000: 94d2 c742 5a54 e240 aac6 3843 6dcb c542
00000010: 5c4d fb41 b3ba 4a43 9f4a c942 69db 8941
00000020: c76b 4b43 7389 c842 2677 1241 064b 2641
00000030: 8fd8 8e40 93a7 3340 37d2 d73f 4c89 e63a
00000040: 8e1a b83c e9cb 453c 14d1 fc3c 1bff 993c
00000050: 1800 623c 76d8 1a3d 2404 a23c 0497 873c
00000060: cd8a 873b 402d 933c 7a6b 7f3c 58e8 3b3c
00000070: 6d94 be3c 1cb2 6d3c 5809 133d ac06 683c
00000080: b26c 473c 3f29 223d e02b 253c 4194 373c
00000090: 6e72 5e3c bfa7 983c 5c5c 463c 4239 ea3c
000000a0: 85d8 623c c152 cc3c eda3 ca3c 6adb b33c
000000b0: 8f0f d03c 1bf8 193c 8e87 a83c b4bd e83c
000000c0: 38a8 8f3c c260 ae3c f369 8a3c 3b97 7f3c
000000d0: 701e ab3c e1be 0b3c 84e5 0f3d e14d 253c
000000e0: 7137 283d 1cf2 533c a60d 123d 227d 213c
000000f0: 265f 993c 9b93 c33c f337 8d3c 3eb9 233c
00000100: 3749 e23c 02bc fd3c ad7c 853e 8cc3 fa3e
00000110: 8d7f 7f3e cadd 6a3f b511 a93d 4f1d 3f3f
00000120: 63c5 813e

batch_norm.running_var f4 [73]
1725.5051 155.16023 2939.3867 394.4286 84.9461 2561.1694 353.3956 18.505293
2593.7488 404.4191 5.2525954 7.3372483 6.438779 0.5349726 1.6762235 0.001742535
0.022421155 0.012035801 0.030821688 0.01879475 0.013756005 0.03667729 0.019731939 0.016521767
0.0041082087 0.01789754 0.0155423395 0.011302833 0.023185091 0.014478062 0.0358582 0.013770702
0.012091332 0.039352287 0.01004552 0.011168327 0.013542379 0.01859844 0.011530585 0.028215002
0.013806754 0.02380018 0.024649447 0.021925474 0.023638008 0.009344914 0.02051711 0.028333284
0.01748193 0.020042755 0.016817229 0.015570286 0.020840224 0.0084177395 0.03500924 0.010061159
0.04102512 0.012912265 0.033621162 0.009782566 0.018631663 0.02382883 0.017158072 0.009786152
0.02655792 0.030514322 0.19591683 0.2643719 0.17987536 0.07549182 0.07549182 0.17734869
0.17734869
00000000: 2ab0 d744 0529 1b43 30b6 3745 dc36 c543
00000010: 67e4 a942 b612 2045 a3b2 b043 d70a 9441
00000020: fb1b 2245 a535 ca43 4315 a840 bdca ea40
00000030: 7a0a ce40 f7f3 083f 7e8e d63f c665 e43a
00000040: 92ac b73c cf31 453c c47d fc3c 73f7 993c
00000050: de60 613c ed3a 163d e0a4 a13c a858 873c
00000060: 279e 863b dd9d 923c 4ca5 7e3c 852f 393c
00000070: a9ee bd3c 6535 6d3c 0ce0 123d 839e 613c
00000080: b91a 463c dd2f 213d f795 243c 5cfb 363c
00000090: dbe0 5d3c c15b 983c c7ea 3c3c 2623 e73c
000000a0: b935 623c 98f8 c23c a3ed c93c 0d9d b33c
000000b0: 7fa4 c13c 691b 193c 8013 a83c 341b e83c
000000c0: 4436 8f3c b430 a43c 49c4 893c 831a 7f3c
000000d0: 1eb9 aa3c 8fea 093c d965 0f3d 8fd7 243c
000000e0: f509 283d f78d 533c 58b6 093d 0e47 203c
000000f0: 6ea1 983c ae34 c33c 168f 8c3c 1956 203c
00000100: ff8f d93c 2cf9 f93c 6c9e 483e c15b 873e
00000110: 3f31 383e 759b 9a3d 759b 9a3d e59a 353e
00000120: e59a 353e

fc1.weight f4 [10, 73]
0.04565781 -0.03648511 0.1473774 0.03833891 0.1510879 0.11419761 0.050021794 0.081388064
0.00807547 0.07491532 0.070326164 0.018145561 0.048128363 0.08281226 0.093555085 -0.025102261
-0.023746168 -0.015672222 -0.08881624 0.05587102 -0.0071096416 0.0049594627 -0.06111342 -0.01543685
0.06755329 0.053266983 -0.039362248 0.021208787 -0.01921724 -0.06326911 0.016064595 0.011639838
0.0023652394 -0.045750335 0.091545664 0.13695279 0.07721828 0.06630746 0.10294411 0.013590392
0.11279018 -0.011966898 0.029744396 0.01721662 -0.007028408 -0.060496185 0.038601942 -0.0563978
-0.031829923 0.06255595 -0.0398815 0.03214837 0.062315546 -0.015161039 -0.0062576206 0.030839847
-0.032070503 -0.0254499 0.03431807 -0.008951035 -0.064471886 -0.042633638 0.0038954304 -0.013164463
0.03441562 -0.00438011 0.07461791 -0.035813812 0.016778855 -0.14838284 0.10894833 0.044337556
-0.06003769 -0.027324827 0.039157905 -0.04199853 0.00467667 0.02323231 -0.038869854 -0.06622247
0.007121113 0.03800127 0.025465984 0.018699463 0.008055006 -0.058143485 -0.012306167 0.24097301
-0.069139026 -0.021144157 -0.0063815303 -0.040373765 0.040068112 0.035149816 -0.029707137 -0.009778972
-0.052592922 0.051953424 0.048577692 -0.020140402 0.0071374006 -0.021439025 -0.02717218 -0.022352554
0.015543807 -0.02456233 -0.045595016 0.072759174 0.10116408 0.122796625 0.020035522 0.040139817
0.01227538 0.1585282 0.052039362 -0.0038539004 -0.07260564 -0.060481567 -0.051984973 0.11063034
-0.033519026 -0.027394148 -0.0054846033 -0.026386753 -0.0071332045 0.027246628 -0.011380289 -0.0197548
-0.009060181 0.017807174 -0.020118728 0.06981831 0.021907285 -0.025554921 -0.06840316 -0.009038302
-0.0014981461 -0.029790858 -0.03412859 0.044101257 -0.08528417 -0.0015854923 -0.16093533 0.11799198
0.050459184 -0.00012240616 -0.048885103 0.03199422 -0.103952594 0.012183545 -0.06585542 -0.07176275
-0.015008253 -0.013308499 -0.013969133 0.025131453 0.008857036 0.05034315 -0.0073365485 -0.021632096
-0.21358986 0.05446204 0.07144289 0.007999717 0.029009163 -0.031276923 0.007951588 -0.024852008
-0.0019465734 0.003249091 -0.03121676 -0.0035591465 0.05711869 0.012562834 0.041431572 0.05340268
-0.034999914 0.031200584 0.005013589 -0.026344826 0.005194296 -0.0110545615 -0.04255505 0.0011322371
-0.03948354 -0.013377063 -0.041582413 -0.039971974 -0.008030962 -0.028505813 -0.038992472 0.0060121706
-0.027839625 0.037027005 0.010563576 -0.019842777 -0.016362758 0.02677114 -0.04004737 -0.022324614
0.064907305 -0.028474757 0.0056793327 -0.028039081 -0.0493139 0.008751445 0.05061337 0.051575273
0.037403733 0.06450613 -0.032414142 0.00643897 -0.04882657 -0.009347759 0.016650502 0.15738265
-0.15785214 -0.05850385 0.020337032 0.014036269 -0.019494442 -0.043889385 -0.030192375 -0.009912797
-0.015107879 -0.00075882225 0.009645057 0.039313585 -0.03425935 0.030454341 -0.023724379 0.0022104918
0.03860918 -0.020275353 0.021188296 -0.032474555 -0.011783369 0.01475165 0.012755894 -0.035972603
0.024735512 -0.037856247 0.03541391 0.025062291 0.003047776 0.021622647 0.03331195 0.03708374
0.026314631 0.016786084 0.028115012 -0.021389656 -0.034098223 0.0085774185 -0.028340032 -0.010972771
00000000: af03 3b3d 6971 15bd 1aea 163e 4309 1d3d
00000010: c9b6 1a3e 70e0 e93d a7e3 4c3d c9ae a63d
00000020: fa4e 043c 346d 993d 2a07 903d 00a6 943c
00000030: 3f22 453d 7999 a93d cf99 bf3d 42a3 cdbc
00000040: 5387 c2bc 0863 80bc 4ae5 b5bd 03d9 643d
00000050: fff7 e8bb fd82 a23b 1152 7abd d7ea 7cbc
00000060: 6159 8a3d 7b2e 5a3d 4f3a 21bd 0dbe ad3c
00000070: 796d 9dbc 3c93 81bd e699 833c 05b5 3e3c
00000080: 2202 1b3b b464 3bbd 4b7c bb3d 5a3d 0c3e
00000090: 9e24 9e3d 35cc 873d 5dd4 d23d 3caa 5e3c
000000a0: 8afe e63d cf10 44bc 85aa f33c de09 8d3c
000000b0: 8f4e e6bb d9ca 77bd 121d 1e3d 6101 67bd
000000c0: 1860 02bd 551d 803d c95a 23bd 02ae 033d
000000d0: 963e 7f3d 0266 78bc ba0c cdbb d9a3 fc3c
000000e0: 5c5c 03bd 4f7c d0bc 1b91 0c3d 5da7 12bc
000000f0: d609 84bd 9ca0 2ebd 7a4a 7f3b c3af 57bc
00000100: 65f7 0c3d 0787 8fbb 46d1 983d 81b1 12bd
00000110: cf73 893c acf1 17be 4d20 df3d 4c9b 353d
00000120: 15ea 75bd 51d8 dfbc 0a64 203d a706 2cbd
00000130: c03e 993b af51 be3c ff35 1fbd a59f 87bd
00000140: 3a58 e93b 38a7 1b3d 0a9e d03c 9e2f 993c
00000150: 25f9 033c dd27 6ebd ce9f 49bc a1c1 763e
00000160: c398 8dbd 8336 adbc 281c d1bb f65e 25bd
00000170: 761e 243d 41f9 0f3d 625c f3bc fb37 20bc
00000180: ad6b 57bd 1dcd 543d 67f9 463d 7cfd a4bc
00000190: dbe0 e93b e5a0 afbc 3198 debc b41c b7bc
000001a0: 74ab 7e3c f136 c9bc d7c1 3abd c302 953d
000001b0: 1d2f cf3d cc7c fb3d 8921 a43c a669 243d
000001c0: ad1e 493c 3755 223e 3a27 553d b891 7cbb
000001d0: 44b2 94bd 85bb 77bd 32ee 54bd 2992 e23d
000001e0: 3f4b 09bd b169 e0bc 30b8 b3bb 0829 d8bc
000001f0: a8bd e9bb 5234 df3c 6474 3abc d1d4 a1bc
00000200: 2771 14bc 5ae0 913c 08d0 a4bc e7fc 8e3d
00000210: e876 b33c 8e58 d1bc f516 8cbd 6315 14bc
00000220: 715d c4ba f50b f4bc 6cca 0bbd 85a3 343d
00000230: 78a9 aebd 4bd0 cfba 3bcc 24be c7a5 f13d
00000240: 4aae 4e3d 275a 00b9 bf3b 48bd 5f0c 033d
00000250: 19e5 d4bd 7e9d 473c 35df 86bd 59f8 92bd
00000260: 2de5 75bc e40b 5abc cade 64bc 7ae0 cd3c
00000270: 1a1d 113c 9e34 4e3d 6e67 f0bb cb35 b1bc
00000280: 4db7 5abe 9713 5f3d a650 923d 3f11 033c
00000290: a0a4 ed3c 3b1c 00bd 6147 023c 7096 cbbc
000002a0: 2a24 ffba b4ee 543b 4aba ffbc 9240 69bb
000002b0: 4af5 693d 58d4 4d3c 27b4 293d c5bc 5a3d
000002c0: 125c 0fbd 5e98 ff3c 0849 a43b 1bd1 d7bc
000002d0: ea34 aa3b 311e 35bc 344e 2ebd 9367 943a
000002e0: 7eb9 21bd 782b 5bbc 5252 2abd a7b9 23bd
000002f0: 4c94 03bc 0685 e9bc 92b6 1fbd be01 c53b
00000300: ed0f e4bc a1a9 173d d912 2d3c 528d a2bc
00000310: 310b 86bc 264f db3c b608 24bd 1ce2 b6bc
00000320: 1fee 843d e543 e9bc b219 ba3b 37b2 e5bc
00000330: 5ffd 49bd 3962 0f3c f74f 4f3d 9840 533d
00000340: a834 193d ca1b 843d b1c4 04bd fffd d23b
00000350: 5ffe 47bd 5827 19bc a266 883c eb28 213e
00000360: fea3 21be bca1 6fbd d999 a63c 61f8 653c
00000370: cfb2 9fbc 5bc5 33bd 0056 f7bc 4969 22bc
00000380: 0a87 77bc b3eb 46ba 4d06 1e3c 4807 213d
00000390: 8853 0cbd 627b f93c a159 c2bc e6dd 103b
000003a0: a924 1e3d 7f18 a6bc 1493 ad3c 0a04 05bd
000003b0: 080f 41bc e8b0 713c 19fe 503c 0258 13bd
000003c0: 21a2 ca3c 270f 1bbd 2d0e 113d 6f4f cd3c
000003d0: 32bd 473b fa21 b13c 1c72 083d 1fe5 173d
000003e0: c891 d73c f882 893c 7451 e63c 5c39 afbc
000003f0: 94aa 0bbd 4d88 0c3c 5b29 e8bc 23c7 33bc

fc1.bias f4 [10]
0.063554764 0.065685764 0.16317332 0.03265905 -0.039403293 -0.010338127 -0.13391581 -0.046989147
0.009770285 0.17085546
00000000: 0029 823d 4286 863d e816 273e 7fc5 053d
00000010: 5965 21bd 3f61 29bc 3a21 09be b177 40bd
00000020: 8c13 203c bcf4 2e3e

fc2.weight f4 [10, 778]
0.1657312 0.16474372 -0.14562364 -0.022361597 0.13068125 0.13923113 0.2202086 0.15912376
0.12424961 -0.14297363 0.027728612 0.01994609 -0.01306697 -0.00627964 -0.010576018 -0.020747313
0.0054469043 -0.012989404 0.038461123 0.013878483 -0.0018743927 0.010482955 0.03545172 0.009773764
0.011419922 0.001912097 0.022387588 0.009432265 0.023495378 0.009608845 -0.011573731 -0.0043406375
-0.02554621 -0.0058967522 0.021071438 -0.03039439 -0.02515166 -0.007404012 0.012534959 0.022652809
0.046602916 0.04217195 0.025821364 0.010358712 -0.02442284 0.0025180976 0.01192199 0.017098699
-0.014014064 0.040997 -0.027107472 -0.0033171454 -0.0069037736 0.020840012 -0.03309075 -0.013441446
-0.015187784 -0.018871207 -0.028673409 -0.0019466078 0.007587098 0.013990141 0.015088945 -0.01184014
0.011492561 0.05524092 -0.005915891 -0.032598574 -0.0093106 0.043644376 0.016285326 -0.018082604
-0.010869221 -0.0141032105 -0.052234232 -0.0060638934 -0.0013234374 -0.03403592 0.003726599 0.026076611
-0.024304211 0.022289488 0.015015306 0.039878998 -0.01768799 0.02881465 0.0034010136 0.011886042
-0.020240936 -0.015351685 -0.025825812 -0.016328145 -0.010167708 -0.023904793 0.05505656 0.0030265807
-0.0040804385 0.0064668944 0.020733837 0.0090580685 0.0025733025 -0.054346424 -0.051009525 0.027865998
0.017380975 0.027194742 0.0017025279 0.008878496 0.006871351 -0.007954816 0.007848753 0.029615551
0.017585644 -0.018361224 0.006925024 -0.012818869 0.046738155 -0.023710022 -0.02450165 0.00927062
0.008023636 0.0021574553 0.024735384 0.002918519 -0.028530493 -0.02830494 -0.04492292 -0.0006214487
-0.05193341 0.041176394 0.009970071 0.008975716 0.01690393 -0.00071965484 0.015139502 0.029233268
0.0013161442 0.007576024 0.008178104 0.026901646 -0.01362244 -0.06568526 -0.026733147 0.022350086
0.04673918 0.022320062 0.043509208 -0.0077635 -0.010451564 -0.07506428 -0.0017045542 -0.0045580096
0.0059374366 -0.0053009097 0.044763386 -0.008076243 -0.04541509 -0.024292693 -0.00656188 0.045501813
0.0018266912 0.008243207 0.0016477942 0.02277204 -0.011813164 0.033604346 -0.046979815 -0.0010000976
0.0025076424 -0.02720021 0.00039667022 0.04239209 -0.007525849 -0.039711457 -0.00899705 0.021908408
-0.02142586 -0.0034241187 -0.012210593 0.0104439305 0.003998527 -0.006273758 -0.018072853 -0.02534537
0.017624302 0.015434999 -0.006581188 -0.0039882986 0.021149324 0.012191562 -0.0058075995 0.03316166
0.037581943 -0.0072954437 0.016475257 -0.014826194 -0.044810902 -0.060845315 0.036693044 0.0077152075
-0.04754628 0.043607406 0.028956586 0.0118450215 -0.044449877 0.014366629 -0.006495426 -0.030234262
0.019813301 0.008777584 0.03341184 7.714095e-05 -0.045670837 -0.031920608 0.011899576 0.0072407536
0.01613213 0.038525876 -0.01902495 -0.030139033 0.018872395 -0.0031383166 3.8429123e-05 -0.027880216
0.014089911 0.0072796205 -0.016329894 -0.021400742 0.015091254 -0.004922751 0.027425611 0.060164616
-0.018927157 0.015461843 0.016788613 -0.009848932 -0.005012878 0.037192274 0.007935045 0.0018668092
-0.021977676 -0.0269268 -0.004359258 -0.049459305 -0.04628098 -0.055445943 0.00077822385 0.04429159
-0.017560678 -0.00025211618 0.030932754 -0.011103093 0.06431614 -0.034903396 -0.013160231 -0.041194554
00000000: 71b5 293e 94b2 283e 5d1e 15be ab2f b7bc
00000010: 4ed1 053e 9b92 0e3e 5d7e 613e 57f1 223e
00000020: 9476 fe3d ae67 12be 1d27 e33c fc65 a33c
00000030: d816 56bc 70c5 cdbb 0947 2dbc 45f6 a9bc
00000040: f27b b23b 82d1 54bc 6989 1d3d 9462 633c
00000050: 2fae f5ba b3c0 2b3c d335 113d 2322 203c
00000060: a01a 3b3c 549f fa3a 2d66 b73c c989 1a3c
00000070: 6179 c03c 6b6e 1d3c bf9f 3dbc e83b 8ebb
00000080: 4946 d1bc 8b39 c1bb 029e ac3c a8fd f8bc
00000090: db0a cebc 5b9d f2bb 6e5f 4d3c 6292 b93c
000000a0: b3e2 3e3d 7fbc 2c3d 5387 d33c 96b7 293c
000000b0: 6812 c8bc ab06 253b 7354 433c 9212 8c3c
000000c0: 3f9b 65bc 78ec 273d 7d10 debc 7764 59bb
000000d0: 0d39 e2bb acb8 aa3c 2b8a 07bd 8339 5cbc
000000e0: 2fd6 78bc ca97 9abc 7fe4 eabc 5225 ffba
000000f0: 319d f83b e836 653c 9f37 773c 26fd 41bc
00000100: 4b4b 3c3c 4e44 623d 17da c1bb 1586 05bd
00000110: 7d8b 18bc 72c4 323d ce68 853c f821 94bc
00000120: d114 32bc 2711 67bc 90f3 55bd a0b3 c6bb
00000130: 3177 adba 4069 0bbd f539 743b 9e9e d53c
00000140: a019 c7bc 7298 b63c c202 763c 2958 233d
00000150: 67e6 90bc b30c ec3c 8ae3 5e3b acbd 423c
00000160: 52d0 a5bc a285 7bbc a790 d3bc 9ac2 85bc
00000170: 7596 26bc fcd3 c3bc fd82 613d 9959 463b
00000180: 33b5 85bb 3ee8 d33b 02da a93c 4b68 143c
00000190: daa4 283b 5b9a 5ebd 5def 50bd 3c47 e43c
000001a0: 8c62 8e3c 82c7 de3c 5b27 df3a 1c77 113c
000001b0: 1229 e13b eb54 02bc 0e98 003c 509c f23c
000001c0: c50f 903c 476a 96bc 50eb e23b 3c06 52bc
000001d0: 8270 3f3d 853b c2bc afb7 c8bc cce3 173c
000001e0: 9275 033c 1864 0d3b dca1 ca3c a044 3f3b
000001f0: c8b8 e9bc c3df e7bc 1901 38bd b7e8 22ba
00000200: 21b8 54bd 94a8 283d 8259 233c e20e 133c
00000210: 1c7a 8a3c 38a7 3cba ac0b 783c 9b7a ef3c
00000220: 7982 ac3a 4c40 f83b 74fd 053c d760 dc3c
00000230: a830 5fbc fe85 86bd 79ff dabc 8717 b73c
00000240: 9571 3f3d 90d8 b63c b636 323d f564 febb
00000250: 093d 2bbc 4dbb 99bd 596b dfba 5b5b 95bb
00000260: d48e c23b 41b3 adbb d059 373d 3852 04bc
00000270: 2c05 3abd 7801 c7bc 0a05 d7bb 1c60 3a3d
00000280: 966d ef3a 840e 073c ccfa d73a 6e8c ba3c
00000290: 008c 41bc b6a4 093d e86d 40bd b515 83ba
000002a0: 4257 243b fad2 debc 2df8 cf39 54a3 2d3d
000002b0: 669b f6bb 7ba8 22bd 5d68 13bc 4379 b33c
000002c0: 4985 afbc 2e67 60bb f00e 48bc 051d 2b3c
000002d0: 1306 833b 1994 cdbb 850d 94bc 18a1 cfbc
000002e0: d760 903c 14e3 7c3c 02a7 d7bb 46b0 82bb
000002f0: 5941 ad3c 1ebf 473c ad4d bebb 85d4 073d
00000300: 86ef 193d 9e0e efbb 1ef7 863c 91e9 72bc
00000310: a38b 37bd f038 79bd 724b 163d dacf fc3b
00000320: e3bf 42bd ae9d 323d 5d36 ed3c 9f11 423c
00000330: 1311 36bd 0262 6b3c 95d7 d4bb d8ad f7bc
00000340: 814f a23c dbcf 0f3c dbda 083d bbc6 a138
00000350: 5811 3bbd 2fbf 02bd 70f6 423c d843 ed3b
00000360: 8727 843c 4fcd 1d3d 36da 9bbc 22e6 f6bc
00000370: 489a 9a3c 37ac 4dbb f52e 2138 0d65 e4bc
00000380: 5fd9 663c e289 ee3b 45c6 85bc 9c50 afbc
00000390: 4f41 773c 074f a1bb adab e03c 2c6f 763d
000003a0: 200d 9bbc ac53 7d3c 4688 893c 6a5d 21bc
000003b0: 1243 a4bb ed56 183d fe01 023c b9af f43a
000003c0: 870a b4bc 9895 dcbc 1bd8 8ebb d795 4abd
000003d0: 2091 3dbd 491b 63bd b801 4c3a 196b 353d
000003e0: 69db 8fbc 762e 84b9 b066 fd3c bfe9 35bc
000003f0: 2eb8 833d ddf6 0ebd 029e 57bc 9fbb 28bd

fc2.bias f4 [10]
-0.024780074 -0.00062173937 -0.020028714 -0.0154827135 0.015756164 -0.020466954 0.026202746 0.012013545
-0.010596298 0.0075439415
00000000: 95ff cabc 39fc 22ba 4213 a4bc 35ab 7dbc
00000010: 1213 813c 50aa a7bc 24a7 d63c 76d4 443c
00000020: 189c 2dbc 2b33 f73b

fc3.weight f4 [1, 10]
0.77279586 -0.21375416 0.7118256 1.052927 -0.7950175 0.443688 -0.96570474 -0.73392814
0.3461208 -0.48664466
00000000: f3d5 453f 5fe2 5abe 343a 363f 50c6 863f
00000010: 4486 4bbf 132b e33e 6d38 77bf b7e2 3bbf
00000020: bf36 b13e 7d29 f9be
