model_uncased/google/model.pth (torch, 38506 bytes, 9 tensors)

batch_norm.weight f4 [73]
0	0x3e613909	0.21994413
1	0x3e134f48	0.14385712
2	0x3f11bd18	0.5692916
3	0x3b47a018	0.0030460414
4	0x3f084e13	0.5324413
5	0x3eccb1a4	0.3997928
6	0x3d472162	0.04861582
7	0x3ecf5156	0.40491742
8	0x3e7a804e	0.24463007
9	0x3c32225f	0.0108724525
10	0x3e4edc32	0.20201185
11	0x3e749450	0.23884702
12	0x3cd3934e	0.025827076
13	0x3e4635e7	0.193565
14	0x3f2c7563	0.6736662
15	0x3de31310	0.1108762
16	0x3d7e1c8e	0.06203895
17	0x3ac9b8f3	0.0015390202
18	0x3c189479	0.009312742
19	0x3f067fc7	0.5253872
20	0x3ba26605	0.0049560093
21	0x3b58466b	0.0033000957
22	0x3d9a87f3	0.075454615
23	0x3d872c53	0.06600251
24	0x3b32411f	0.002719946
25	0x39036f74	0.00012534653
26	0x3c9d38fd	0.019192213
27	0x39da657b	0.0004165581
28	0x384b71da	4.8505004e-05
29	0x3a2f7e5f	0.0006694551
30	0x39b0506f	0.00033629264
31	0x3be10782	0.00686735
32	0x3e516b2f	0.20451044
33	0x391472c2	0.0001415713
34	0x38174d85	3.60734e-05
35	0x3c267bf8	0.010161392
36	0x3ed52c40	0.41635323
37	0x39aef2cc	0.00033368764
38	0x3e85001e	0.25976652
39	0x390df4c0	0.00013537984
40	0x39d44629	0.00040488064
41	0x3b171454	0.0023052888
42	0x3d49cee8	0.049269587
43	0x3c0583ec	0.008149128
44	0x38b9f0d4	8.866345e-05
45	0x3b743c0e	0.003726724
46	0x39df252a	0.00042561564
47	0x3aeb1587	0.0017935493
48	0x38010017	3.075608e-05
49	0x39d89e82	0.00041316828
50	0x3cbcf4a3	0.02306587
51	0x3a1ce5b4	0.0005985156
52	0x3dbad098	0.09121817
53	0x3b7fab47	0.0039012001
54	0x38dfd1cc	0.00010672546
55	0x3d8981ef	0.06714236
56	0x3ea7c0ef	0.32764384
57	0x3c037a55	0.008024772
58	0x3e8e1f67	0.27758333
59	0x39b9d8e4	0.00035447546
60	0x3be53044	0.006994279
61	0x3980cec0	0.00024568103
62	0x398c0944	0.00026709784
63	0x3da9aa90	0.08284485
64	0x3a1c903a	0.0005972419
65	0x3b91b654	0.004446784
66	0x3e92876d	0.28618947
67	0x3e361d73	0.17784671
68	0x3e9d84d9	0.30765417
69	0x3f040c69	0.51581436
70	0x3f08013f	0.531269
71	0x3ec76383	0.3894311
72	0x3eb3629f	0.3503618

batch_norm.bias f4 [73]
0	0xbd805c23	-0.06267574
1	0x3c94e686	0.018176328
2	0xbdd91061	-0.10598827
3	0x3a4fc4ce	0.00079257495
4	0xbdcb116b	-0.099154316
5	0xbd52362b	-0.05132119
6	0xbc8ce874	-0.017200686
7	0xbd54fe57	-0.05200037
8	0xbd20f19a	-0.03929291
9	0xb9280eb5	-0.00016027207
10	0xbd050a59	-0.03248057
11	0xbc7b55b1	-0.015340255
12	0xbb1d7897	-0.0024028176
13	0xbc4a3ed4	-0.012344081
14	0xbe1985b2	-0.14992407
15	0x3cebf2e5	0.028802345
16	0x3c93d590	0.01804617
17	0x3a371597	0.0006984113
18	0x3b612b3f	0.0034358052
19	0xbdbf27c1	-0.09333754
20	0xbaa843f2	-0.0012837632
21	0xb9fa932f	-0.00047793376
22	0x3c7dccbe	0.015490709
23	0x3c8bdd18	0.0170732
24	0x3a37b31c	0.00070075854
25	0xb8852cc3	-6.350272e-05
26	0x3bc0a53a	0.0058790715
27	0x399e4b4c	0.0003019221
28	0x3690bc88	4.3134823e-06
29	0x39d43b62	0.00040480035
30	0xb88f7c3b	-6.841911e-05
31	0x3b2ae919	0.0026078878
32	0xbd2873cc	-0.041126058
33	0xb8f6f154	-0.00011775145
34	0x3161e9bf	3.2874679e-09
35	0xbb03b9ae	-0.0020099687
36	0xbdcc7fee	-0.09985338
37	0x3967f7f8	0.00022122252
38	0xbd8d8ded	-0.06911836
39	0x383fd103	4.5732606e-05
40	0xb989068c	-0.00026135554
41	0xba772150	-0.0009427266
42	0xbc179338	-0.009251408
43	0xbb3ae885	-0.002851994
44	0xb7d9317d	-2.589146e-05
45	0x3ad1f7ce	0.0016019286
46	0xb9817898	-0.00024694647
47	0x3a62fd80	0.000865899
48	0x376ee562	1.4239313e-05
49	0xb8f9a582	-0.000119040735
50	0xbbc60c7c	-0.0060439687
51	0xb91dda2d	-0.00015053964
52	0x3c62a710	0.013833776
53	0xbacf041b	-0.001579407
54	0x38bbe3b2	8.9592664e-05
55	0xbc780435	-0.015137722
56	0xbd89719b	-0.06711122
57	0x3b366c76	0.0027835644
58	0xbd66563b	-0.05623458
59	0xb838469d	-4.3934782e-05
60	0x3b2f1fb7	0.0026721784
61	0xb8d53cc2	-0.000101679485
62	0xb88c5fa9	-6.693538e-05
63	0x3cae1db3	0.021254396
64	0xb6ce8907	-6.1552305e-06
65	0x3af00f6b	0.0018315142
66	0xbd8956fc	-0.06706044
67	0x3caab73c	0.020839326
68	0x3d36be59	0.044615123
69	0x3dc7a59c	0.09748384
70	0xbdcda0e5	-0.10040454
71	0xbdb22ae6	-0.086995885
72	0x3da0477b	0.07826134

batch_norm.running_mean f4 [73]
0	0x42cce088	102.43854
1	0x40f61994	7.6906223
2	0x43323c25	178.23494
3	0x42c9cd0c	100.90048
4	0x41f26807	30.300795
5	0x434b4868	203.28284
6	0x42c8e6f7	100.4511
7	0x418a3b49	17.278948
8	0x43463393	198.20146
9	0x42c978af	100.73571
10	0x410eb588	8.919319
11	0x412340c2	10.20331
12	0x408cdbd9	4.401837
13	0x40305789	2.7553427
14	0x3fc39472	1.5279677
15	0x3c648589	0.013947853
16	0x3c98d0b2	0.018654201
17	0x3c689309	0.014195212
18	0x3cd4f43a	0.025995363
19	0x3b0ef3e5	0.0021812853
20	0x3c99fb92	0.018796716
21	0x3c9c2622	0.019061152
22	0x3c989f8e	0.01863077
23	0x3cb918d2	0.022594843
24	0x3cc9bbf4	0.024625756
25	0x3c443232	0.011974858
26	0x3c907814	0.017635383
27	0x3c94cd17	0.0181642
28	0x3c52f37b	0.012875433
29	0x3b94edb0	0.004544936
30	0x3c9225a2	0.01784021
31	0x3be7055f	0.007050201
32	0x3caa95f6	0.02082346
33	0x3c35fc95	0.0111075835
34	0x3cc5425e	0.024079498
35	0x3d49b12c	0.04924123
36	0x3c7dcc87	0.015490658
37	0x3ca08e1c	0.019599013
38	0x3c93c34e	0.018037464
39	0x3cabf5ae	0.020991173
40	0x3c035474	0.008015741
41	0x3cb20a74	0.0217335
42	0x3c681b63	0.014166686
43	0x3c94d8eb	0.01816984
44	0x3bb8b318	0.005636584
45	0x3c8bf73d	0.017085666
46	0x3d4d0364	0.05005206
47	0x3ca408c5	0.020023713
48	0x3cda6de0	0.02666372
49	0x3cdf48ef	0.027256457
50	0x3d6b8232	0.05749721
51	0x3c8f887f	0.017521141
52	0x3c69bd49	0.0142663205
53	0x3ca38ea9	0.019965487
54	0x3c9cd0fa	0.019142617
55	0x3be86bab	0.007092913
56	0x3c32c41f	0.010911017
57	0x3c9dbbbf	0.019254563
58	0x3cb44225	0.022004196
59	0x3c13216f	0.008980139
60	0x3c81a0fc	0.015823834
61	0x3cc6d31d	0.024270589
62	0x3cfd7e27	0.030943943
63	0x3ca59336	0.020211797
64	0x3d407b33	0.046992492
65	0x3c0602ab	0.008179347
66	0x3e804ff8	0.2506101
67	0x3ee6a865	0.4505035
68	0x3e9907a4	0.29888642
69	0x3f6462c4	0.89213204
70	0x3ddce9e8	0.107868016
71	0x3f3cf362	0.7380887
72	0x3e86193c	0.26191127

batch_norm.running_var f4 [73]
0	0x44ac4543	1378.1644
1	0x433a25de	186.14792
2	0x455353bb	3381.2332
3	0x43bee8b3	381.81796
4	0x42c36e41	97.71534
5	0x451a9d11	2473.8167
6	0x4405229e	532.5409
7	0x418f033c	17.87658
8	0x452978a6	2711.5405
9	0x43d2fb56	421.96356
10	0x40afb71e	5.491103
11	0x410b2048	8.695381
12	0x410b4981	8.705445
13	0x3f2218f6	0.6331934
14	0x3fca7707	1.5817574
15	0x3c63fbd5	0.013915022
16	0x3c9721d9	0.018448757
17	0x3c678a87	0.014132149
18	0x3cc779d3	0.024350083
19	0x3b0e6684	0.0021728585
20	0x3c986e5d	0.018607313
21	0x3c9b9e84	0.018996485
22	0x3c96b987	0.018399013
23	0x3cb63e56	0.022246521
24	0x3cc983e6	0.024599027
25	0x3c37093d	0.011171636
26	0x3c8d39c8	0.017239466
27	0x3c92306a	0.017845351
28	0x3c51d40c	0.012806904
29	0x3b940d4b	0.004518186
30	0x3c91c6b1	0.017794939
31	0x3be5c691	0.0070121964
32	0x3caa6c31	0.020803543
33	0x3c34a3f2	0.011025416
34	0x3cc4f961	0.024044694
35	0x3d497a91	0.049189154
36	0x3c7d0e92	0.015445368
37	0x3c9576e6	0.018245172
38	0x3c92fcf4	0.017942883
39	0x3ca77acc	0.020444296
40	0x3c027b97	0.007964036
41	0x3cb1bad7	0.021695537
42	0x3c637f88	0.013885386
43	0x3c9493e9	0.018136935
44	0x3bb7d2e5	0.0056098574
45	0x3c89e46b	0.016832551
46	0x3d4b1b08	0.049586326
47	0x3ca3d303	0.01999808
48	0x3cce794f	0.025204329
49	0x3cd3606c	0.025802813
50	0x3d6b4836	0.057441913
51	0x3c8e1660	0.017344654
52	0x3c6906f2	0.014222847
53	0x3c9ebedc	0.019378118
54	0x3c9c0cbf	0.019049047
55	0x3be48afc	0.006974576
56	0x3c2ee8c7	0.010675616
57	0x3c905ece	0.017623331
58	0x3ca8d577	0.0206096
59	0x3c1220cd	0.008918953
60	0x3c812cfc	0.01576852
61	0x3cc67fcd	0.024230862
62	0x3cfd25ed	0.030901873
63	0x3c8db925	0.017300198
64	0x3d38635f	0.045016643
65	0x3c04c571	0.008103714
66	0x3e3de2ae	0.18543503
67	0x3e841bc7	0.25802442
68	0x3e4ef3a4	0.20210129
69	0x3dbd105f	0.09231638
70	0x3dbd105f	0.09231638
71	0x3e4f7d3f	0.20262621
72	0x3e4f7d3f	0.20262621

fc1.weight f4 [10, 73]
0	0xbce98e86	-0.028510343
1	0x3d81ead8	0.06343621
2	0xbe5423c5	-0.2071677
3	0xb95a35ae	-0.00020810097
4	0xbe4652e7	-0.19367562
5	0xbe337992	-0.17526844
6	0x3b99bd80	0.0046917796
7	0xbe35c689	-0.17751516
8	0xbd7e43a1	-0.062076215
9	0x3b8e6a75	0.0043461868
10	0xbd514e3a	-0.051099993
11	0x3def0ac4	0.11671975
12	0xbc714346	-0.014725512
13	0x3dc1e336	0.09467165
14	0x3e849f08	0.2590258
15	0xbd1285d7	-0.03577217
16	0xbc98d7f8	-0.01865767
17	0xb9f16b02	-0.0004604683
18	0xbae3a7e8	-0.0017368766
19	0x3e90b24e	0.28261036
20	0xba2d8f74	-0.00066208025
21	0x39336f6d	0.0001711228
22	0xbd22141b	-0.039569955
23	0xbca1ae6c	-0.019736491
24	0xbabfedbf	-0.0014642997
25	0x38442bb0	4.677073e-05
26	0xbbba47a8	-0.0056848116
27	0xb740621d	-1.1466936e-05
28	0x365cb8da	3.2890152e-06
29	0x381e21b8	3.770154e-05
30	0x38c28bae	9.276658e-05
31	0xbae91304	-0.0017782156
32	0x3c587e2d	0.013213676
33	0x3702fe04	7.807746e-06
34	0x3701d82b	7.73933e-06
35	0x3bc3661c	0.0059631
36	0x3e190222	0.1494222
37	0x3894cc82	7.0952825e-05
38	0x3d560ea3	0.052260052
39	0x37d7ab96	2.5709898e-05
40	0x38d19269	9.9931676e-05
41	0x3a272073	0.000637538
42	0x3c988258	0.01861684
43	0xbb4e82ea	-0.0031511136
44	0xb8635dc2	-5.4208336e-05
45	0x38ab0fd0	8.156861e-05
46	0x37409839	1.1479534e-05
47	0x3884ee91	6.338687e-05
48	0xb6bc8798	-5.618622e-06
49	0x38bcbed0	9.00008e-05
50	0xbc451820	-0.012029678
51	0xb8cb581c	-9.696206e-05
52	0xbd477004	-0.04869081
53	0x3aac53d5	0.0013147542
54	0x380c9099	3.3513268e-05
55	0x3cab0232	0.02087507
56	0x3dfcae0e	0.12337886
57	0xbb1ac5c8	-0.0023616422
58	0x3dc0cc74	0.09413996
59	0x392c3fc0	0.00016426947
60	0xbab0bb37	-0.0013483529
61	0xb8fdb98f	-0.00012098543
62	0xb88d4277	-6.735784e-05
63	0x3b8d5ac0	0.0043137968
64	0x38f7b1e3	0.00011811012
65	0xba880362	-0.0010376985
66	0x3cb2c2e3	0.021821445
67	0xbddb6e30	-0.10714376
68	0x3e2f5ed9	0.17126025
69	0xbe352c38	-0.1769265
70	0x3e3a9a37	0.18222891
71	0xbdb7c297	-0.08972662
72	0x3da5546c	0.08072743
73	0xbdb28e6f	-0.08718573
74	0x3bd2b68f	0.006430454
75	0xbdb39b10	-0.0876981
76	0x39a03a5b	0.00030561056
77	0xbda81475	-0.08207027
78	0xbd149358	-0.03627333
79	0xbc5cd8da	-0.013479436
80	0xbd167bbf	-0.036739107
81	0xbcfbbc06	-0.030729305
82	0xb974ffae	-0.00023364901
83	0xbcd0d765	-0.025493333
84	0xbd791419	-0.060810182
85	0xbba94028	-0.0051651187
86	0xbd4946b8	-0.04913971
87	0xbe6c00df	-0.23047207
88	0x3d269fe5	0.04067983
89	0x3ccfcfc8	0.025367633
90	0x3a12e3f5	0.0005603426
91	0x3b57cb45	0.0032927555
92	0xbe1b4e3f	-0.15166567
93	0xba53fb94	-0.00080864993
94	0xba194ac8	-0.000584763
95	0x3caafb61	0.02087182
96	0x3cad4456	0.02115075
97	0x3a3d5bd2	0.000722346
98	0xb8201d00	-3.817398e-05
99	0x3bf14388	0.0073627867
100	0x39485c4e	0.00019107873
101	0xb69de45f	-4.7055505e-06
102	0x399da3a9	0.0003006731
103	0xb87cb3e8	-6.0249033e-05
104	0x3b2aa449	0.0026037863
105	0xbdad9fab	-0.0847772
106	0xb8a567b3	-7.8871286e-05
107	0xb666f347	-3.4414277e-06
108	0xbaed1398	-0.0018087504
109	0xbdfe9eff	-0.1243267
110	0x3915a5b8	0.00014271482
111	0xbdb75875	-0.08952419
112	0x3733eea2	1.0724792e-05
113	0xb92d8460	-0.00016547879
114	0xba7dc75d	-0.00096808915
115	0xbc358003	-0.011077884
116	0xbb3e3fa9	-0.0029029644
117	0xb6b16739	-5.2870278e-06
118	0x3abc508e	0.0014367269
119	0xb90a4208	-0.00013185304
120	0x3a3cf2cb	0.000720781
121	0x371245d0	8.718533e-06
122	0xb88cd734	-6.715805e-05
123	0xbb8b4080	-0.0042496324
124	0xb8a484d2	-7.844869e-05
125	0x3cd71061	0.026252927
126	0xbab7d8ed	-0.0014026441
127	0x3849e737	4.813747e-05
128	0xbcd634e0	-0.02614826
129	0xbdf9b7f8	-0.121932924
130	0x3b392a70	0.0028254054
131	0xbdcceb7f	-0.10005855
132	0xb8162839	-3.5800247e-05
133	0x3b284ee1	0.002568178
134	0xb8668497	-5.4959757e-05
135	0x36042d76	1.9695995e-06
136	0x3cebe6ab	0.028796514
137	0xb85a0c5d	-5.1986764e-05
138	0x3af0dd63	0.0018376525
139	0xbded6dea	-0.1159323
140	0x3d0b482c	0.034004375
141	0x3d9847a8	0.07435542
142	0x3e28d8e4	0.16488987
143	0xbe2de856	-0.1698316
144	0xbdb39575	-0.08768741
145	0x3da1910f	0.07888996
146	0xbd94ef75	-0.07272235
147	0x3c33e895	0.010980745
148	0xbdbd8b29	-0.09255058
149	0x3a4c170a	0.00077854155
150	0xbdb1695b	-0.08662673
151	0xbcf915f8	-0.030405983
152	0xbc651c86	-0.013983851
153	0xbcfc4197	-0.030792994
154	0xbd2c4b65	-0.04206409
155	0xba6120f3	-0.00085879787
156	0xbd0ecfc5	-0.034866113
157	0xbd1a9b2e	-0.037745647
158	0xbbb1ecc4	-0.005429836
159	0xbcf8bcd2	-0.030363474
160	0xbe6f4854	-0.23367435
161	0x3d2467ba	0.040137984
162	0x3cce5342	0.025186185
163	0x3a242f61	0.00062631635
164	0x3b5d3ba1	0.0033757465
165	0xbe082057	-0.13293587
166	0xba603351	-0.00085525686
167	0xb9bef37a	-0.00036421028
168	0x3c8f92fe	0.017526146
169	0x3ca78881	0.020450832
170	0x3a533fe0	0.00080585293
171	0xb7ec3878	-2.8159688e-05
172	0x3bf4f13b	0.007475046
173	0x394aaa8b	0.00019327753
174	0xb68abcfb	-4.1347207e-06
175	0x399c380e	0.00029796403
176	0xb8a7ce52	-8.001611e-05
177	0x3b342b49	0.002749162
178	0xbd857574	-0.06516543
179	0xb8976b00	-7.2201714e-05
180	0xb6983e39	-4.5371967e-06
181	0xbb0ca11a	-0.0021458329
182	0xbe15ad09	-0.14616789
183	0x38e6a781	0.00010998455
184	0xbdaf416e	-0.085574016
185	0x378c00c9	1.6689666e-05
186	0xb941f2ea	-0.00018496407
187	0xba7807d0	-0.00094616134
188	0xbc3d24a6	-0.011544382
189	0xbb1ddf76	-0.0024089492
190	0xb7704b3a	-1.432263e-05
191	0x3abdf4af	0.0014492477
192	0xb91db3c0	-0.00015039649
193	0x3a2ecae2	0.0006667805
194	0x374a1e8e	1.2047252e-05
195	0xb820b2c5	-3.8313465e-05
196	0xbb93654e	-0.0044981604
197	0xb895d666	-7.1448085e-05
198	0x3cb683dd	0.022279674
199	0xbac69b8a	-0.0015152555
200	0x384b461c	4.8464266e-05
201	0xbcd38e06	-0.025824558
202	0xbdf1e888	-0.1181193
203	0x3b3561ad	0.0027676628
204	0xbdcaf9e6	-0.099109456
205	0xb81c7069	-3.729799e-05
206	0x3b2ee2a6	0.0026685386
207	0xb844e273	-4.694094e-05
208	0xb765122a	-1.3653693e-05
209	0x3cfe90b9	0.031074869
210	0xb8880d74	-6.487491e-05
211	0x3aef74b3	0.0018269032
212	0xbddb811b	-0.10717984
213	0x3d0e43f7	0.034732785
214	0x3d8124f0	0.063058734
215	0x3e52b763	0.20577769
216	0xbe5907ef	-0.21194433
217	0xbdd18c52	-0.10231842
218	0x3dbc85f3	0.09205236
219	0xbd9ef0d7	-0.0776078
220	0x3c4b6df1	0.012416349
221	0xbdb5b837	-0.08873027
222	0x3a737794	0.0009287533
223	0xbdaa0f03	-0.083036445
224	0xbce45623	-0.027873104
225	0xbc5b9553	-0.013402301
226	0xbce72a7d	-0.028218502
227	0xbc9a8ce5	-0.018866012
228	0xb9dadee4	-0.00041746267
229	0xbc80bfb1	-0.015716406
230	0xbd77e1bb	-0.060518008
231	0xbb9d9689	-0.004809205
232	0xbd481305	-0.048846263
233	0xbe5e8b5a	-0.21732846
234	0x3d1971a1	0.03746188
235	0x3ca07acd	0.019589806
236	0x3a091c61	0.0005230364
237	0x3b5747b2	0.003284913
238	0xbe0cf5e5	-0.13765676
239	0xba5827c9	-0.00082456745
240	0xb9a9a411	-0.0003235643
241	0x3ca60a30	0.02026853
242	0x3ca4ea42	0.020131234
243	0x3a42fff6	0.0007438654
244	0xb8047fc8	-3.1590258e-05
245	0x3bcef2ff	0.0063155885
246	0x393f1a4a	0.00018224973
247	0xb5c963cd	-1.5004713e-06
248	0x3989c478	0.00026277057
249	0xb8b0fd34	-8.439497e-05
250	0x3b1de9d2	0.0024095667
251	0xbd93f34f	-0.07224142
252	0xb88b4ae3	-6.641985e-05
253	0xb6b7565c	-5.4638786e-06
254	0xbb1771df	-0.0023108644
255	0xbe069331	-0.13142087

fc1.bias f4 [10]
0	0xbc3a0754	-0.011354286
1	0x3dbae5f9	0.09125895
2	0x3dd751b7	0.10513633
3	0x3dcad4ab	0.099038444
4	0x3c959d2b	0.01826342
5	0xbe2a51ee	-0.16632816
6	0xbc722eca	-0.014781663
7	0x3dc5dda3	0.096614145
8	0x3df2ff7f	0.11865138
9	0x3def3dbe	0.11681698

fc2.weight f4 [10, 778]
0	0xbd915822	-0.07096888
1	0x3d518212	0.051149435
2	0x3d5ddf88	0.054168254
3	0x3d489b83	0.048976433
4	0xbd90490b	-0.07045182
5	0xbda70f2d	-0.081571914
6	0xbd955b57	-0.07292812
7	0x3d571cb2	0.0525176
8	0x3d52b88d	0.051445533
9	0x3d542020	0.05178845
10	0xbc178de2	-0.009250136
11	0xbbfdd0fd	-0.0077458606
12	0x3c0bc68f	0.008531227
13	0x3c6b2d14	0.014354009
14	0x3be3e124	0.006954329
15	0x3b36a1d1	0.0027867446
16	0x3a438ffa	0.0007460114
17	0x3baafc5d	0.0052180723
18	0xbc15436d	-0.009110314
19	0xbbcef32c	-0.0063156094
20	0xbb719352	-0.0036861491
21	0xbc7ed7f0	-0.015554413
22	0x3a1fa824	0.00060904236
23	0xbc54cb29	-0.01298789
24	0xbb92274d	-0.0044602514
25	0xbc4e7b63	-0.01260266
26	0xbbcb4288	-0.0062029995
27	0xbbe0d28a	-0.0068610357
28	0xbc5f58a1	-0.013631971
29	0xbc02b0e4	-0.007976744
30	0x3c8ad2f3	0.016946292
31	0xbb6620d5	-0.0035114784
32	0x3c653f46	0.013992136
33	0x3c3999ff	0.011328219
34	0xbc4149ee	-0.011797411
35	0x3c2fc828	0.010728873
36	0x3bdd541a	0.0067544105
37	0x3b46774d	0.003028351
38	0xbb777621	-0.003775962
39	0xbac4274a	-0.0014965322
40	0xbc9ccf43	-0.019141799
41	0xbcbfdb49	-0.023419993
42	0xbb54cf81	-0.0032472315
43	0xbae0b692	-0.0017144254
44	0x3c881975	0.016613701
45	0x3b6a5fbb	0.0035762626
46	0xbc169d20	-0.009192735
47	0x3ac3e432	0.0014945327
48	0x3be3fff9	0.0069580046
49	0xbc9ff9fa	-0.019528378
50	0x3b8099db	0.003924591
51	0x3bd9b96e	0.0066444194
52	0x3b753071	0.0037412907
53	0xbc81613d	-0.015793437
54	0x3c4b4ac5	0.012407963
55	0x3bdcafcc	0.006734824
56	0xbadf9136	-0.0017056826
57	0x3b8dfc84	0.0043330807
58	0x3cb39897	0.021923346
59	0xbb96db0e	-0.00460375
60	0xbc301db2	-0.010749267
61	0xb98349a2	-0.00025041128
62	0xbb230423	-0.0024874292
63	0x3abb1a53	0.0014274813
64	0xbc421277	-0.011845223
65	0xbd1791ab	-0.037004154
66	0xbacb95b5	-0.0015532287
67	0x3c347a50	0.01101549
68	0xbae83ece	-0.0017718913
69	0xbc54b3c2	-0.012982311
70	0x3b85b0b6	0.0040799035
71	0x3c94b73f	0.018153785
72	0x3acb8870	0.0015528332
73	0x3b7e3953	0.0038791492
74	0x3d0ab2f6	0.033862077
75	0x3ad42d17	0.0016187754
76	0x3bc9fa4f	0.0061638723
77	0x3b68eb39	0.0035540594
78	0xbbd34cda	-0.0064483704
79	0x3b12d9ce	0.0022407654
80	0x3c4d67c6	0.012536949
81	0xbc5b4136	-0.013382247
82	0xbbb9b49e	-0.005667283
83	0xbcc2684c	-0.023731373
84	0xbaa34d5c	-0.0012458968
85	0xbc18816d	-0.009308201
86	0x3c38e1b2	0.011284279
87	0xba928ab2	-0.001118025
88	0x3c680883	0.014162186
89	0x3a683cdf	0.0008859168
90	0x3aca8783	0.0015451763
91	0x3af5c88e	0.0018751787
92	0x3bb1bdb2	0.005424225
93	0x3c172e60	0.009227365
94	0xbce9d6ac	-0.028544746
95	0xbb0d3e93	-0.002155219
96	0x3ab0b5f3	0.001348196
97	0x3b90e771	0.004422121
98	0xbc875a62	-0.01652259
99	0xb9ba66db	-0.00035553318
100	0xbb3303e9	-0.0027315563
101	0x3cae67a3	0.021289652
102	0x3c0809af	0.00830309
103	0xbbef8dda	-0.007310611
104	0xbb5d7ce7	-0.0033796371
105	0xbb3e6ff0	-0.002905842
106	0x3c345104	0.011005644
107	0xbb74b5ae	-0.0037339735
108	0x39e86532	0.00044325885
109	0x3a6fda7d	0.0009149684
110	0x3bd3448d	0.006447381
111	0xbb7826a1	-0.0037864821
112	0xbb1803fe	-0.002319574
113	0x3c720cd3	0.014773565
114	0xbabff519	-0.0014645188
115	0x3ab1b000	0.001355648
116	0xbcae4ce8	-0.021276906
117	0x3c219796	0.009862801
118	0x3c0f2f83	0.008739355
119	0xbc0d0be3	-0.008608791
120	0xba75f408	-0.0009382372
121	0xbb704d71	-0.0036667252
122	0xbb1b3087	-0.0023680048
123	0x3b8bcd1c	0.0042663943
124	0x3c187805	0.009305959
125	0x3b8cdbcd	0.004298663
126	0x3c1c0b9a	0.00952425
127	0x395bbea1	0.00020956482
128	0x3c923d84	0.017851599
129	0xbcb60ac8	-0.022221938
130	0xbb011c76	-0.0019700802
131	0xba1099fd	-0.000551611
132	0xbc15a22e	-0.009132905
133	0x3bc7b819	0.006094944
134	0xbc34e7a2	-0.011041554
135	0xbc5c0f45	-0.013431375
136	0x3a561361	0.000816634
137	0xbc27d4f2	-0.010243641
138	0x3bc4d21e	0.0060064932
139	0xbc93a269	-0.01802178
140	0x3b786ce0	0.0037906691
141	0x3d1817ad	0.037131954
142	0x3cbe954b	0.023264548
143	0x3bdb6f6d	0.0066966326
144	0xbcaed655	-0.021342436
145	0xbbd27d90	-0.0064236596
146	0xbc045d89	-0.008078941
147	0x3be1485e	0.006875082
148	0x3bcf2132	0.006321096
149	0x3cf968d0	0.030445486
150	0x3b7fd702	0.0039038067
151	0xba9139b0	-0.0011079814
152	0xbac1f4c6	-0.001479768
153	0xbbb206a0	-0.0054329187
154	0xbcea32dd	-0.028588707
155	0x3c4b365f	0.0124031
156	0x3cbbd451	0.022928389
157	0x3ab75e7b	0.0013989949
158	0xbc1ee6f9	-0.009698623
159	0xbc6ccc1b	-0.014452959
160	0xba9dc9ef	-0.001203833
161	0xbbc53a09	-0.006018881
162	0x3b43e6a5	0.0029892114
163	0xbc62619c	-0.013817217
164	0x3c8f56c5	0.01749743
165	0xbc93f912	-0.018063102
166	0x3c7b7c92	0.015349524
167	0xbbd550d2	-0.0065098787
168	0x3afd997e	0.0019348112
169	0x3c8b512a	0.017006475
170	0xbc5c05fc	-0.013429161
171	0xbce7c1de	-0.028290685
172	0xbc26b7e3	-0.010175678
173	0x3cc5a750	0.024127632
174	0x3b39d20a	0.0028353953
175	0x3a10ab41	0.0005518683
176	0x3aa27c77	0.0012396713
177	0xbb45ace6	-0.003016287
178	0x3c80341d	0.01564985
179	0xbc517e27	-0.012786425
180	0x3a246b59	0.00062720996
181	0xbab1313b	-0.00135187
182	0x3c32b309	0.010906943
183	0x3c22eceb	0.009944181
184	0xbc2402aa	-0.010010401
185	0xbbcb85cd	-0.0062110187
186	0x3c56f40c	0.013119709
187	0x3b9e6144	0.0048333723
188	0xbcb32f7c	-0.021873228
189	0xbc1589bc	-0.009127077
190	0x3c09cffd	0.008411405
191	0xbca5d626	-0.020243715
192	0xbca876f5	-0.020564536
193	0x3a68cf6a	0.0008881005
194	0x3a65c3fc	0.00087648607
195	0xbb4ba191	-0.0031071643
196	0x3cb47c02	0.022031788
197	0x3d0cae8c	0.03434615
198	0xbca0da85	-0.019635448
199	0xbbf245db	-0.0073935813
200	0x3c6d0396	0.014466187
201	0xbc8e0469	-0.017336087
202	0xbc950bee	-0.018194165
203	0xbbd3bf3d	-0.0064620064
204	0x3c9a04a2	0.018801037
205	0xbbd851fe	-0.006601571
206	0xbb18f5f1	-0.0023339952
207	0x3c6bca3d	0.014391479
208	0xbad5e3ca	-0.0016318497
209	0xbc6ab0fc	-0.014324423
210	0x3a9d88aa	0.0012018878
211	0x3c24e9bd	0.010065493
212	0x3ca035c0	0.01955688
213	0x3c8db425	0.017297814
214	0xb80c7763	-3.348979e-05
215	0x39d0627c	0.00039746228
216	0x3bc3a83a	0.005970982
217	0xbc7d3769	-0.015455105
218	0x3c3c8efd	0.0115087
219	0x3ca85b42	0.020551328
220	0xbc6babb3	-0.014384198
221	0x3aa95d58	0.0012921495
222	0xbb24b749	-0.002513366
223	0x3caf5f7d	0.021407837
224	0xbc0de967	-0.0086616045
225	0x3bb19ca9	0.0054202867
226	0x3afd443e	0.0019322706
227	0x3bd83ac2	0.0065988014
228	0xbbfdd940	-0.0077468455
229	0xbc483771	-0.0122202495
230	0xbc27c336	-0.010239413
231	0xbcdb8f7e	-0.02680182
232	0x3b141cfd	0.0022600286
233	0xbc8252b4	-0.015908577
234	0xbbdacf33	-0.006677532
235	0xbbb116ec	-0.005404344
236	0x3c8196fa	0.015819062
237	0xbc9cc8bb	-0.019138684
238	0xbc0b2fbf	-0.00849527
239	0x3c350a38	0.0110498
240	0x3c95052b	0.01819094
241	0x3c128186	0.008942014
242	0x3c249b9c	0.010046866
243	0x3c961d95	0.018324653
244	0x3c174310	0.009232298
245	0x3d091366	0.033465765
246	0xbbc834e8	-0.0061098225
247	0xbbbd8b74	-0.0057844464
248	0x3c810ba4	0.015752621
249	0xbc3b2d5b	-0.011424388
250	0xbc7177a5	-0.014737998
251	0x3bd926d0	0.0066269413
252	0xbcacf40a	-0.02111246
253	0x3beff4be	0.0073228767
254	0x3ba8de3d	0.005153446
255	0x3c57fb65	0.013182496

fc2.bias f4 [10]
0	0x3ad754be	0.0016428453
1	0xbc2808a3	-0.010255965
2	0x3a4af8b6	0.00077427493
3	0xbba80066	-0.0051270006
4	0x3bbd2f8b	0.00577349
5	0xb8932380	-7.0161186e-05
6	0xbb930a2f	-0.004487298
7	0xbbae1a26	-0.0053131757
8	0xbaa3a817	-0.0012486008
9	0xbbaac58d	-0.005211538

fc3.weight f4 [1, 10]
0	0xbe0a7765	-0.13522108
1	0x3f580a97	0.8439116
2	0xbd828ec5	-0.063748874
3	0x3ed7fd4c	0.42185438
4	0xbef33ebb	-0.47508797
5	0x3bbd7115	0.0057813027
6	0x3ebd0df0	0.36924696
7	0x3edfdd6f	0.43723628
8	0x3dd27555	0.102762856
9	0x3edb92d3	0.42885455
