model_uncased/deepl/model.pth (torch, 38506 bytes, 9 tensors)

batch_norm.weight f4 [73]
00000000: cad5 af34 46ed b639 c9f3 d53e 3baf 8934
00000010: 73c6 db3e 2f9f 413e a632 8c34 5ad8 2c3e
00000020: e160 083e ef4b 2438 9246 0e3e 2f82 1f3e
00000030: 6c40 0e37 e73e 233e cf75 1f3f 37b1 8336
00000040: fba4 9935 a9ff 3934 f8de d233 8b2e f33a
00000050: 893b 4233 08c3 6435 404b 9434 1e8f a536
00000060: 88b0 1136 8ecb 1232 3b39 4f34 1694 9c32
00000070: 9b45 2532 0696 c633 d2d4 cb34 0f22 4b34
00000080: b2ae 8bb2 44ee c533 064b 3f34 bb05 e438
00000090: 86c4 ec3a a881 2f34 4c3d 8eb1 96a7 e5b0
000000a0: 8628 2db2 4d6a 2e33 0be4 c132 308a 6db1
000000b0: 3b32 be32 c29e 3235 455f 1034 18cd a334
000000c0: 6c28 4834 b561 0634 47e1 4737 db66 70b2
000000d0: 95fb e934 731c e536 52f7 51b2 5ebe 4b35
000000e0: 2b0f de37 0f83 b935 6af1 083c 7dc3 dfb2
000000f0: 09aa 0537 36af d434 1d56 6534 0dbc 3938
00000100: 12e0 0433 c09d e734 c214 f036 6f27 113c
00000110: 3a14 ae35 d363 083f a767 fa3e 3f39 743e
00000120: ade3 873e
3.2751842e-07 0.00034890528 0.41787556 2.5645735e-07 0.42924842 0.1890838 2.6113884e-07 0.16879407
0.13318206 3.9171366e-05 0.13894108 0.15577005 8.478859e-06 0.15941964 0.62289137 3.9247348e-06
1.1447404e-06 1.7322476e-07 9.819445e-08 0.00185533 4.5223292e-08 8.5220427e-07 2.76219e-07 4.9340442e-06
2.1709438e-06 8.5446015e-09 1.9299198e-07 1.8228132e-08 9.6200905e-09 9.2473826e-08 3.7966544e-07 1.8918239e-07
-1.6261172e-08 9.2168676e-08 1.7815555e-07 0.000108729546 0.001806394 1.6345314e-07 -4.1397126e-09 -1.6709574e-09
-1.0079139e-08 4.0609212e-08 2.2571859e-08 -3.456659e-09 2.2141753e-08 6.654119e-07 1.3445704e-07 3.051034e-07
1.8641157e-07 1.2515268e-07 1.1913776e-05 -1.3993225e-08 4.3582682e-07 6.8280438e-06 -1.2221635e-08 7.5900414e-07
2.6471525e-05 1.3821717e-06 0.008358339 -2.6049515e-08 7.967007e-06 3.961556e-07 2.1358615e-07 4.4282573e-05
3.0937436e-08 4.314188e-07 7.154974e-06 0.008859499 1.2969897e-06 0.5327732 0.48907205 0.23849963
0.2654089

batch_norm.bias f4 [73]
00000000: 1ad3 aa34 1c7f 2f39 4acf c7bc 1797 2635
00000010: 6146 cdbc dab6 26bb 77a1 4eb5 6a26 14bb
00000020: 4e07 adbc 80e3 1c38 b749 b4bc 46e5 623c
00000030: 2427 50b7 ecb6 6a3c a8ed 13be e69e 7136
00000040: 67c8 1836 cbb5 4f35 88f7 1635 47d1 06ba
00000050: e813 0835 b731 5035 e8b8 a5b5 de63 6c36
00000060: 33bc dfb5 0320 ef34 674b 6a35 7315 9a34
00000070: 7e18 bab3 45d5 f534 24f7 92b5 9f0c 1a35
00000080: 6b55 48b5 fc29 1bb5 5154 3835 442b 5137
00000090: 18a0 2bba 6bb7 6835 8f8a a433 3215 65b3
000000a0: 10ce ea34 7946 c8b4 89fe ac34 e703 b932
000000b0: a5df 1034 7672 cb35 bd5f 3cb5 748a 33b5
000000c0: 6d31 3735 4854 fa34 c2e8 2837 e4a6 13b5
000000d0: 4bc9 f7b3 bc6d c4b6 47ca 05b4 295d f0b5
000000e0: 8927 ecb7 7cee ff35 be51 efba f565 34b4
000000f0: 07bf 7836 5f23 b3b5 4b37 5a35 9260 fb37
00000100: eb01 a3b4 f6ed 80b5 6168 eab6 0e53 b33a
00000110: 0b47 2c35 a0d2 473d 256f 37bd 2d71 6bbd
00000120: ab00 833d
3.1818564e-07 0.00016736652 -0.024390835 6.2059684e-07 -0.025057973 -0.0025438578 -7.697594e-07 -0.0022605904
-0.021121647 3.7405174e-05 -0.022007806 0.013848608 -1.2406879e-05 0.014325839 -0.14446127 3.600429e-06
2.2766415e-06 7.737805e-07 5.623956e-07 -0.0005142879 5.0692915e-07 7.755838e-07 -1.2347273e-06 3.522487e-06
-1.6669568e-06 4.454051e-07 8.728152e-07 2.8700342e-07 -8.665755e-08 4.578998e-07 -1.0949775e-06 5.7387837e-07
-7.4630105e-07 -5.7803095e-07 6.866804e-07 1.2467444e-05 -0.0006546988 8.6693643e-07 7.662049e-08 -5.3337494e-08
4.3735827e-07 -3.730418e-07 3.2222695e-07 2.153861e-08 1.3492406e-07 1.5157991e-06 -7.0174775e-07 -6.688417e-07
6.8244736e-07 4.662745e-07 1.00677735e-05 -5.5004625e-07 -1.1538449e-07 -5.85403e-06 -1.2460178e-07 -1.7908507e-06
-2.8151802e-05 1.9068389e-06 -0.0018258614 -1.6800898e-07 3.7066072e-06 -1.3346834e-06 8.129179e-07 2.99665e-05
-3.0362511e-07 -9.605999e-07 -6.9858947e-06 0.0013681368 6.4178374e-07 0.048784852 -0.04478373 -0.05748098
0.06396612

batch_norm.running_mean f4 [73]
00000000: 7eca bb42 0dc2 e940 5a07 2d43 b07b c742
00000010: 8d52 eb41 cfd8 4343 9efe c442 5b2d 8541
00000020: 7408 4543 25b4 cf42 76dc 0d41 0283 2a41
00000030: 9640 9840 582e 3840 328d de3f 33ea 2c3c
00000040: 09f5 fa3c bf08 d63c add3 663c 6ab1 7f3a
00000050: 7bfd af3c 1936 c83c bded 113c 2faa 3a3d
00000060: 7bab 783c c45e 4c3c bf2c ce3c ce3e f13b
00000070: fbe8 983c 964b 013c 1a5a 573c 0a10 0a3c
00000080: 6d38 ea3c 9a4f f73b e1a7 033c d752 533c
00000090: aed4 293c 00de 183d b50e 093d 9848 2e3d
000000a0: 56b1 a33c 71d6 b93c a58a 063c 4a98 913c
000000b0: da1d ec3b af76 8c3c 6a2d b63c df5f e93c
000000c0: f9b9 723c 095d 1c3c c407 603c 0abe 553d
000000d0: 1472 a03c 3f3e 823b fbfc c73c d9ba a33c
000000e0: 5128 a93c 4e31 943b 1df7 ab3c 233f 8d3c
000000f0: d2c4 983c 7892 c03c 88c7 8b3c 98b4 443c
00000100: 1a47 243d 7bed 523d d81a 713e 4c0f e83e
00000110: 4b63 9f3e 97ab 6e3f 40a3 8a3d 331e 3c3f
00000120: 9ac3 873e
93.89549 7.304938 173.02872 99.74158 29.415308 195.84691 98.4973 16.647146
197.03302 103.851845 8.866323 10.656984 4.757884 2.8778286 1.7386839 0.010553884
0.03063442 0.026127217 0.014088553 0.0009753915 0.021483174 0.024439858 0.008906779 0.045572456
0.015177603 0.012473766 0.025167821 0.007362223 0.018665781 0.007891556 0.0131440405 0.008426676
0.028591359 0.007547331 0.008035631 0.0128981685 0.010365648 0.03732109 0.03346129 0.0425497
0.019982021 0.022685261 0.008211766 0.017772812 0.007205707 0.017146436 0.022238452 0.028488098
0.014814847 0.009543666 0.0136737265 0.05218319 0.019585647 0.0039747055 0.024412623 0.019986557
0.020649107 0.004522479 0.020991856 0.01724202 0.018648539 0.023507342 0.017062917 0.0120059475
0.04010687 0.05149601 0.23545396 0.4532417 0.31130442 0.93230575 0.06769419 0.7348358
0.2651642

batch_norm.running_var f4 [73]
00000000: 8381 db44 a3c1 1c43 cb04 2a45 3393 b943
00000010: a63e 9d42 c74e 1d45 2138 b843 a17d 9141
00000020: a5ff 1545 409c c943 1484 9b40 01eb ce40
00000030: 6d54 bc40 2536 f13e c3a2 0840 2a80 2c3c
00000040: eb85 fa3c 2308 cb3c 0a22 603c 6615 7e3a
00000050: 6296 af3c 2ab4 c73c 4654 113c 607b 3a3d
00000060: 47de 773c d905 4c3c b642 c53c bc6a f03b
00000070: ff47 983c 8de1 003c 35e1 503c 9b30 093c
00000080: 6100 ea3c ecc6 f63b c0e1 023c bebe 4e3c
00000090: 1b6d 283c 1d2e 123d 29db 083d dd3f 2b3d
000000a0: 01c3 993c e369 b93c 5aec 053c a685 893c
000000b0: b874 eb3b e875 8b3c 54f0 b43c 8805 e93c
000000c0: 97d6 703c 8c0e 1b3c 4cee 5e3c 6c72 513d
000000d0: 2872 9f3c f2be 813b c02b c73c 2386 a33c
000000e0: 8cd3 a83c fbed 923b e193 ab3c edac 843c
000000f0: 8659 983c 6825 c03c 7d76 8b3c d0b0 433c
00000100: 6444 203d f755 513d 7ec9 313e ab8a 803e
00000110: 1ffa 5c3e e93c 853d e93c 853d faf9 3f3e
00000120: faf9 3f3e
1756.0472 156.7564 2720.2996 371.15 78.62236 2516.9236 368.4385 18.186342
2399.9778 403.2207 4.859873 6.466187 5.885306 0.47111621 2.1349342 0.010528604
0.030581435 0.024784153 0.013679991 0.00096925197 0.021434013 0.024377901 0.00887019 0.045527816
0.015128679 0.012452566 0.024079662 0.0073369425 0.018589018 0.0078662755 0.012749006 0.008373405
0.028564634 0.0075310376 0.007988393 0.012618719 0.010279919 0.03568851 0.033412132 0.04180895
0.018769743 0.022633499 0.008174026 0.016787361 0.007185545 0.017023996 0.022087254 0.02844502
0.0146996 0.009463917 0.013606619 0.05113451 0.019463614 0.00395953 0.024312854 0.019961422
0.020608686 0.004483936 0.020944538 0.016195739 0.018597376 0.023455337 0.017024273 0.011944011
0.039127722 0.051107373 0.1736202 0.25105795 0.21579789 0.06505758 0.06505758 0.18747702
0.18747702

fc1.weight f4 [10, 73]
00000000: 2530 7b34 107d 56b5 0469 023e ea16 8434
00000010: 00f5 053e c98d 243d 7d52 5fb4 57e4 123d
00000020: d3ae 123d 7ec9 5f37 1623 193d a22e 793d
00000030: d4ee 8eb6 4b4b 7f3d d0c4 1f3e 4d2e 3bb3
00000040: 0d88 0935 f50a 6934 048f 2834 1483 eb39
00000050: 29fb 3034 12a1 f734 e97b eab4 c301 f1b4
00000060: 552c 2a34 7eea 1c34 5b32 8834 e055 c733
00000070: 87e9 02b3 d959 1434 6691 e5b4 102a 3e34
00000080: 9a12 82b4 3a9e 4cb4 a83a 6f34 2f8a 4b38
00000090: dcc5 b639 e985 9d34 3b91 d732 053b 94b2
000000a0: b788 1834 797d 03b4 910d df33 49a0 f431
000000b0: 5c6d 1e33 7b0d bf34 f5e8 5fb4 0ef6 abb4
000000c0: 7995 7f34 f9b7 4434 c3dd 2234 28ba 3eb4
000000d0: c456 fb33 e4a4 60b3 b722 2bb3 3efc f0b4
000000e0: 1f4d 79b6 5a9f 8134 fc30 003b ff24 60b3
000000f0: af5d beb5 c123 c6b4 364a 8f34 25e8 86b6
00000100: 1477 d6b3 f435 b5b4 bae4 8c34 ea73 26bb
00000110: 355e 3035 ce6f 3fbe f0bb 2f3e 3008 f03c
00000120: b18e 05bd 847a 20b3 6e65 3bb9 85aa 873e
00000130: 7cdb 4534 d85d 8b3e 083c 1a3e 0975 20b2
00000140: ffb4 093e b13c 8e3d 2e28 9637 0c53 943d
00000150: 5765 a73d 9b49 61b5 9998 ab3d c49b c8bd
00000160: df58 33b5 9b1c a033 d667 3c33 6bbf d632
00000170: 55a4 9339 f237 5933 9056 3035 bac2 5db4
00000180: 8701 90b5 16cc ce34 e2aa 3833 4081 8a33
00000190: add1 0933 8d80 74b2 7483 2133 e13f 58b4
000001a0: d683 8933 c2cb 92b3 460b 57b3 df0c 7133
000001b0: d17e f337 934f 013a 7edc c033 b747 f431
000001c0: 4bb8 b2b1 fd0d 2c33 6282 1eb3 eed3 f932
000001d0: 9e03 0b31 e671 e231 6076 30b2 9f0c 35b3
000001e0: 3ec3 40b4 e54d e333 83f5 ed33 e1ab 8db5
000001f0: 4e52 59b3 2b1d 4b34 7896 0e35 621b 35b2
00000200: a179 01b4 bafb 30b6 0f9b 2db4 5d26 0e3b
00000210: bfba 60b2 d7c7 1db6 f1ad dbb1 44db df33
00000220: 57fc 5cb7 a92f fab2 1df7 bfb3 0357 a135
00000230: 158c 38bb bbb4 0c35 12ea 6abe 32a5 573e
00000240: 0890 da3d de38 f3bd cec4 ce32 1462 1939
00000250: c565 d4bd 4d04 7b34 aa2a dabd 2e78 31bd
00000260: 6228 a5b4 7362 1ebd a8b4 3bbd 0aa5 a337
00000270: 2dca 43bd a009 07bd ee7c c2b6 61a0 09bd
00000280: 8b72 86be bdf0 1c36 661f 9335 2037 ad34
00000290: 7a9b 7a34 0f70 4cba f0bd 4e34 3899 1a34
000002a0: 6f3a f2b4 77ed 2f36 95be abb5 d8c9 3334
000002b0: 3d6e bf34 2152 ea33 8d89 05b3 1636 4634
000002c0: 95dc d8b4 e775 7f34 04e9 97b4 30b7 6db4
000002d0: 8a50 9134 06b9 dcb7 013c 52ba 72c8 b034
000002e0: 96af f832 fd5a aeb2 94d0 3134 67f6 17b4
000002f0: a200 0434 72a0 0d32 0fb3 6f33 872d 3c35
00000300: 007d 97b4 0c52 48b4 ae0b 8d34 ed6a 2b34
00000310: c5e6 e936 a0f2 5fb4 f87e 1eb4 214b 82b6
00000320: 7dc1 4db3 ba26 62b5 372f 81b7 3712 8e35
00000330: 3124 4cbb 99f5 8db3 e08b 6a36 6483 17b5
00000340: 2d4e aa34 3574 c437 3580 f7b3 0456 cfb4
00000350: 5e64 88b6 3591 3b3b 5e92 58b4 dc38 273e
00000360: 4d81 19be d2ea b2bd 8f1a c73d 5e67 6534
00000370: 9106 1eb7 4bc8 d83d 1ddc 5d34 c7ac de3d
00000380: 977f 0f3d 294c 3cb4 7512 003d 01cf f73c
00000390: 6bd5 2737 f251 013d 2b75 5e3d 7b44 9eb6
000003a0: b8dc 633d 7406 163e 84d0 ecb3 60ab fe34
000003b0: adba 4e34 9c99 1934 341e e939 313f 2034
000003c0: 3c53 f634 f0c6 cfb4 3d84 0eb5 17dc 3f34
000003d0: 03bb 0e34 de6d 7234 4e8f b533 4d1c eab2
000003e0: 17de 0634 dbf8 ceb4 1d09 2534 aaba 6bb4
000003f0: 60cd 3bb4 b8f0 5834 2814 3038 9e69 a339
2.3393712e-07 -7.99032e-07 0.12735373 2.4603588e-07 0.13081741 0.04017428 -2.0798502e-07 0.035862293
0.035811257 1.3338749e-05 0.037386976 0.06083549 -4.259733e-06 0.062327664 0.15602422 -4.358144e-08
5.1234457e-07 2.1703802e-07 1.5698248e-07 0.00044920354 1.6482649e-07 4.612453e-07 -4.3676053e-07 -4.489103e-07
1.5848612e-07 1.461394e-07 2.5368612e-07 9.28228e-08 -3.0480376e-08 1.381626e-07 -4.2760365e-07 1.7710431e-07
-2.422792e-07 -1.9056543e-07 2.2279949e-07 4.8527665e-05 0.00034861162 2.934096e-07 2.5095337e-08 -1.7256307e-08
1.420584e-07 -1.2245972e-07 1.03867144e-07 7.119557e-09 3.6886703e-08 3.558633e-07 -2.0853243e-07 -3.203026e-07
2.3803103e-07 1.8320851e-07 1.5168102e-07 -1.7762852e-07 1.1703881e-07 -5.230403e-08 -3.9845613e-08 -4.4887014e-07
-3.7148782e-06 2.4144066e-07 0.0019560447 -5.2187712e-08 -1.4183369e-06 -3.6906388e-07 2.668982e-07 -4.0205364e-06
-9.986812e-08 -3.3753133e-07 2.6243453e-07 -0.002539868 6.57022e-07 -0.18694994 0.17161536 0.02930078
-0.032606784 -3.736433e-08 -0.00017871495 0.26497284 1.8426903e-07 0.27220035 0.15061963 -9.3398365e-09
0.13447951 0.0694517 1.7900104e-05 0.072424024 0.08173626 -8.392614e-07 0.08378715 -0.09795335
-6.681202e-07 7.455784e-08 4.38666e-08 2.4999926e-08 0.00028160462 5.057513e-08 6.5691074e-07 -2.065307e-07
-1.0729281e-06 3.8518982e-07 4.2996255e-08 6.449636e-08 3.2088497e-08 -1.4231898e-08 3.760529e-08 -2.0139807e-07
6.4035405e-08 -6.835718e-08 -5.006884e-08 5.612389e-08 2.902691e-05 0.0004932817 8.980804e-08 7.1094877e-09
-5.2014335e-09 4.0059593e-08 -3.6905824e-08 2.908379e-08 2.0229218e-09 6.5904144e-09 -1.0271464e-08 -4.2153825e-08
-1.7952422e-07 1.058468e-07 1.1080831e-07 -1.0555342e-06 -5.0599105e-08 1.891646e-07 5.3118083e-07 -1.0541813e-08
-1.205831e-07 -2.6372568e-06 -1.616829e-07 0.0021690347 -1.3080977e-08 -2.3511145e-06 -6.3935137e-09 1.0424131e-07
-1.3171774e-05 -2.9125504e-08 -8.93908e-08 1.2020759e-06 -0.0028159667 5.241706e-07 -0.22940853 0.21059111
0.10672003 -0.11876081 2.4071053e-08 0.00014627754 -0.103709735 2.3377761e-07 -0.10652669 -0.043327503
-3.0763027e-07 -0.038668107 -0.045826584 1.9507966e-05 -0.04780023 -0.032968163 -5.7961943e-06 -0.033600215
-0.26259264 2.338594e-06 1.0961492e-06 3.226387e-07 2.3339626e-07 -0.00077986805 1.9254344e-07 1.4398108e-07
-4.511853e-07 2.6215255e-06 -1.279596e-06 1.6744104e-07 3.565673e-07 1.0911413e-07 -3.1091577e-08 1.8459863e-07
-4.039363e-07 2.3791618e-07 -2.8295483e-07 -2.2138988e-07 2.7066955e-07 -2.6312202e-05 -0.00080198055 3.2928398e-07
2.8950847e-08 -2.0297643e-08 1.656029e-07 -1.4152612e-07 1.2293688e-07 8.243761e-09 5.5809377e-08 7.010171e-07
-2.821689e-07 -1.86563e-07 2.6271795e-07 1.5964515e-07 6.970806e-06 -2.085676e-07 -1.4761088e-07 -3.883048e-06
-4.790626e-08 -8.4247915e-07 -1.5399984e-05 1.0585126e-06 -0.0031149501 -6.610498e-08 3.4950135e-06 -5.644308e-07
3.1721848e-07 2.3419134e-05 -1.15251545e-07 -3.861934e-07 -4.0648e-06 0.0028620486 -2.0169816e-07 0.16330284
-0.1499073 -0.08736195 0.097218625 2.1364892e-07 -9.419063e-06 0.10585078 2.0662306e-07 0.108727984
0.03503379 -1.7536571e-07 0.031267602 0.030250074 1.0003666e-05 0.03157229 0.05431096 -4.716739e-06
0.055630416 0.14650899 -1.1027535e-07 4.7435879e-07 1.9253157e-07 1.4305118e-07 0.00044463726 1.492415e-07
4.5881632e-07 -3.87015e-07 -5.3091554e-07 1.786833e-07 1.3292815e-07 2.2577976e-07 8.454536e-08 -2.7254055e-08
1.2560518e-07 -3.8551556e-07 1.5370138e-07 -2.1953988e-07 -1.7490447e-07 2.020414e-07 4.1980442e-05 0.00031168474

fc1.bias f4 [10]
00000000: 667d 263e ee4a 663d 7df5 4c3e aec4 053e
00000010: 52e7 443e 54cb 453e 9b8d 2c3e ff13 0b3e
00000020: 1d15 213e 1143 2a3e
0.16258773 0.056223802 0.20015521 0.13063309 0.19228867 0.19315845 0.16850893 0.13581847
0.1573071 0.16627146

fc2.weight f4 [10, 778]
00000000: 5c00 d53d 139a 1b3e 1ebb f0bd 8de1 b03d
00000010: 232d edbd c086 f7bd 9752 dabd 646a a63d
00000020: 149c c83d 9b41 d7bd 337c 48ba 3b9d ed3b
00000030: de41 75bb 3479 4abc c189 b23c e5d3 07bd
00000040: 1732 d83c 1128 a7bb 4a7e d33c 5dea 433c
00000050: 14fc d0b8 4078 143d cc70 8b3c e1d6 003d
00000060: 199d f03c d812 1b3b 7e69 a73a 1765 b63c
00000070: e373 8c3c 70af d0bb 6bd7 02bc 8fb5 603c
00000080: 03eb 60bc c9bc 68bd fef9 663c d537 15bd
00000090: 1e15 fcbc 1c71 84ba 862e 923c a3e5 ce3c
000000a0: 331c 313c 69bc da3c 452a 5f3c 0ff9 ba3c
000000b0: 1eb6 b3bc e590 733c beeb e33c 723c 95bb
000000c0: d39c fdbc 83c8 363d d85f c1bc 73e6 13bc
000000d0: a797 34bc dce6 833d 237b 0dbd 1df4 323c
000000e0: 4569 ffbb ec51 2bbc f897 6abc b261 293c
000000f0: ee4c 813c 1bca b73b d9e5 b0bc 1187 1c3c
00000100: 67b4 013d 0233 953d 8731 86bb c858 24bd
00000110: 9dbc 6bbc 9d32 363d 0cbb ffbb 2368 98bc
00000120: c8a8 96b7 661b d8bc d724 a0bd 3df4 2e3b
00000130: dc2a 82bc fd82 b2bc eccd 1c3c b8b7 01bc
00000140: 087a 2dbd 03df e23c 9522 5e3c 2cb6 363d
00000150: 384c 0bbb 560e 53bc 5a04 2cbd 4500 42bc
00000160: 5cd5 a6bc 4789 13bd 4e5b f3ba 4d5f b9bc
00000170: 9e37 e6bb 2557 a2bc e47e 5e3d 231d cf3b
00000180: 0420 e7bc 49a5 e6bc 0c62 9e3c 78e2 913a
00000190: 175e 173c 0fdd 14bd bab4 36bc 2cf2 943b
000001a0: 5453 593c 9d7c 103b 2b40 a0bb 1a94 04bc
000001b0: 6a3b 73bc 0dc6 bdbb a4c1 1cbb 40db 3c3c
000001c0: 0e6a c83c f730 0abd 9e68 993c bcb0 873c
000001d0: 3815 043d c1f5 febc 583d 13bd 1d72 cf3c
000001e0: 3845 d03c 0370 13bc 0ab5 2c3c b119 473a
000001f0: dce8 2cbc 9b50 e73b 2210 dfbc 83fd 203b
00000200: 2f11 98bc 56eb 7e3d 12f6 9c3b 011c 813c
00000210: 3585 ed3c 3bf4 a5bc cc6c b93b 2dfe ff3c
00000220: 4537 99bb abe4 b93b 2347 fb3b 72e9 7b3c
00000230: 58f2 6d3b 2ae9 73bd b110 4cbd ea94 463c
00000240: 8658 123d 8087 a73c 1863 e03c c2d4 28bb
00000250: 2940 91bc 560a 84bd 446c 9e3b f003 d93c
00000260: ae36 ff3b ce6d b63c 048f 093d 915b a93a
00000270: 37b3 04bd f8e0 15bc 06a6 ae3c 25f0 3b3d
00000280: 8221 633c 1948 9f3c 922b 083b 586b 453d
00000290: 2f3b 9bbc a5f3 813c 6524 debc e0fc 80bc
000002a0: b499 03bd 7ac6 19bd 62ca c43c 1e2f 6d3d
000002b0: 71bd 943b fe57 1ebd ef40 97ba 946d 6bbb
000002c0: 9a99 54bc b222 d3b9 c655 0cbd 269d 273c
000002d0: bdde dbbc 442e 0bbd a0c1 bbbc 500c 17bd
000002e0: c5b8 ac3c eea1 c23c e025 24bc 10ef 90bb
000002f0: 0abf d03c 843d 953c 0f5a 63bc b76c fe3c
00000300: 302b c83c a1d8 9ebc fde5 68bc 6dbc 6a3c
00000310: 8f76 7bbd 443a 05bd 701f 403d 9809 4ebb
00000320: 3143 b7bc 781d 0e3d da88 f03c a4f1 c8bc
00000330: 1e30 19bd 0a0d ea3b 8e61 6a3b fba1 a1bc
00000340: 0dc9 bf3b 3e0f 653c 8c57 233d 14d9 8e3c
00000350: a085 40bd b9c8 e9bc 64b7 3f3c d2e6 46bb
00000360: 2bd8 bebb 85b5 8e3c a330 80bc d84d 42bd
00000370: 789b 0c3d 0384 153c 74ca b73b 4efc 51bc
00000380: 2f4b 65bb 0622 c239 b809 a4bc b2c6 e4bc
00000390: 3534 37bb a35d 253c 69b2 783d b337 733d
000003a0: 3ab9 73bc d4b7 eaba 3c58 03bb ce7c 2a3c
000003b0: 228b d8bc 3a5f dc3c e8b1 093c 1b78 28bc
000003c0: c1a0 01bd 0ad7 99bc d228 a8bc a52c 19bd
000003d0: 6790 09bd e3f1 78bd 685a 2ebb 0b4d 9c3c
000003e0: 0e09 debc fc91 ac3c 7136 0e3d 6688 773b
000003f0: 28da f03c cf2b 56bc 1d8c 78bc 0a47 39bd
0.10400459 0.15195493 -0.1175444 0.086367704 -0.11580875 -0.120862484 -0.10660284 0.08125761
0.097953945 -0.1051056 -0.00076479017 0.0072514093 -0.0037423293 -0.012357999 0.021794202 -0.033161063
0.026391072 -0.005101212 0.025817055 0.011957732 -9.965166e-05 0.03624749 0.01702156 0.031454924
0.029371785 0.0023662355 0.0012772528 0.022265 0.017145103 -0.00636857 -0.00798593 0.013715162
-0.013727906 -0.056820665 0.014097689 -0.0364302 -0.030771788 -0.001010451 0.01784445 0.025255984
0.010809946 0.02670117 0.013620918 0.022823839 -0.021937426 0.0148660885 0.027822372 -0.004554325
-0.030958569 0.044624817 -0.023605272 -0.009027111 -0.011022485 0.06440517 -0.03454126 0.010922459
-0.0077945315 -0.010456543 -0.014318459 0.010338234 0.015783753 0.0056088096 -0.021593975 0.009553687
0.031666186 0.072851196 -0.0040952596 -0.04012373 -0.014388231 0.044481862 -0.00780428 -0.018604344
-1.7959988e-05 -0.026380252 -0.07819527 0.002669587 -0.015889578 -0.021790976 0.00957058 -0.007917337
-0.042352706 0.02769423 0.01355805 0.044607326 -0.0021255147 -0.012881836 -0.041996337 -0.011840885
-0.02036541 -0.03601959 -0.001856664 -0.02262845 -0.007025673 -0.019816944 0.05432023 0.006320612
-0.028213508 -0.028154986 0.019333862 0.0011130115 0.009238741 -0.03634363 -0.011151487 0.0045454707
0.013264496 0.0022046932 -0.004890462 -0.008091951 -0.014845708 -0.0057914318 -0.002391913 0.011526883
0.024464633 -0.033738103 0.018726643 0.016563766 0.0322468 -0.031123044 -0.035947174 0.025322968
0.025423631 -0.008998874 0.01054121 0.0007595076 -0.010553565 0.0070591695 -0.027229372 0.0024565167
-0.018562881 0.062236153 0.004790076 0.015760424 0.028994182 -0.02025806 0.0056587216 0.03124913
-0.004675778 0.0056730113 0.0076683923 0.015375482 0.0036307778 -0.059548534 -0.049820606 0.012120465
0.035728954 0.020450354 0.027391002 -0.002576158 -0.01773079 -0.06447284 0.0048346836 0.026491135
0.0077885007 0.022269156 0.033583656 0.0012920966 -0.032397475 -0.009147875 0.0213194 0.045883317
0.013862969 0.019443559 0.0020777923 0.048198074 -0.01894912 0.01586325 -0.027116964 -0.01574558
-0.032129005 -0.037542798 0.024022285 0.057906263 0.0045391847 -0.038658135 -0.0011539737 -0.0035923468
-0.012976075 -0.00040270906 -0.034261487 0.010230338 -0.026839608 -0.03397967 -0.022919476 -0.036876976
0.021084199 0.023758855 -0.010018796 -0.0044230297 0.02548172 0.01821781 -0.013876452 0.031057699
0.024434656 -0.019390406 -0.01421499 0.014327151 -0.061392363 -0.03252627 0.04690498 -0.0031438824
-0.022370907 0.034696072 0.02936213 -0.024529286 -0.037399404 0.0071426677 0.0035763714 -0.019730559
0.0058528245 0.013980685 0.039878413 0.017437495 -0.047002435 -0.028538095 0.011701439 -0.0030349982
-0.005824109 0.01742054 -0.015648192 -0.04743752 0.034327954 0.009125712 0.005608851 -0.012816502
-0.003498744 0.00037027913 -0.020024166 -0.027926777 -0.0027954702 0.0100931255 0.06071702 0.05937929
-0.014875704 -0.0017907568 -0.0020041605 0.010405732 -0.026433531 0.026900876 0.008404233 -0.010282542
-0.031647447 -0.018779296 -0.020527277 -0.037396092 -0.03358498 -0.060777556 -0.002660418 0.019079706
-0.027103927 0.021065705 0.034719888 0.0037770509 0.0294009 -0.013071968 -0.015170124 -0.045233764

fc2.bias f4 [10]
00000000: 1113 52bb e2c3 87bb 10da 393b 2a93 ba3b
00000010: 2fde 52ba 4321 1fba 6f78 203b ec90 903b
00000020: 154e b63b e2c5 9e3b
-0.0032054821 -0.004143224 0.0028358735 0.005693813 -0.0008043972 -0.0006070325 0.0024485847 0.0044118073
0.0055635073 0.004845367

fc3.weight f4 [1, 10]
00000000: c4b4 a73e 51c4 d83e 695e 94be 35f2 14bf
00000010: eb56 a83d 6112 7e3d 301b 80be 15d2 e6be
00000020: 7e89 11bf a980 fdbe
0.327551 0.42337278 -0.2897828 -0.5818208 0.08219703 0.062029246 -0.25020742 -0.45082155
-0.5685042 -0.49512222
