model_cased/deepl/model.pth (torch, 38506 bytes, 9 tensors)

batch_norm.weight f4 [73]
0.09004558 0.112347804 0.6712328 0.20507762 0.62353855 0.3652096 0.18723209 0.41392145
0.24280798 0.05485546 0.253721 0.23608793 0.16301502 0.22367114 0.67951167 0.11313568
0.0013967197 0.000106784806 0.22008687 0.6068964 0.0068106954 8.3050836e-05 0.014036924 0.01571078
0.00040613415 6.7596084e-05 0.0042383135 4.7084555e-05 0.0021568208 0.0019870831 0.004491041 0.004437385
0.13494438 0.001355142 0.007573666 0.014460565 0.36200434 0.0002604994 0.0574384 0.0005326999
0.3866354 0.1165279 0.070379645 6.699679e-05 0.10015095 0.08674643 0.08022674 0.009015533
0.0041977637 0.051555935 0.06205732 0.00019150446 0.010880443 0.0011065757 0.00066453323 0.00012406499
0.31077442 0.00077802304 0.06343354 0.00052367273 0.27824974 0.0018853702 0.00032445794 0.37357834
0.07390212 0.0006290517 0.25839576 0.018189503 0.0011171162 0.5059372 0.55683154 0.38435614
0.38598204
00000000: d169 b83d 9b16 e63d ead5 2b3f deff 513e
00000010: 39a0 1f3f c1fc ba3e c5b9 3f3e 83ed d33e
00000020: a8a2 783e 1eb0 603d b8e7 813e 09c1 713e
00000030: 69ed 263e 0c0a 653e 7af4 2d3f aeb3 e73d
00000040: 2312 b73a a8f1 df38 745e 613e 905d 1b3f
00000050: 412c df3b 942b ae38 20fb 653c e5b3 803c
00000060: 67ee d439 5fc2 8d38 8de1 8a3b a87c 4538
00000070: 7359 0d3b b939 023b 9529 933b 7c67 913b
00000080: dc2e 0a3e 059f b13a 842c f83b 01ec 6c3c
00000090: a258 b93e a393 8839 8744 6b3d e3a4 0b3a
000000a0: 13f5 c53e 2ea6 ee3d 3423 903d a180 8c38
000000b0: f11b cd3d 1da8 b13d eb4d a43d e3b5 133c
000000c0: 658d 893b 512c 533d d12f 7e3d 96ce 4839
000000d0: e343 323c 850a 913a 1234 2e3a 7117 0239
000000e0: d31d 9f3e 3ef4 4b3a 72e9 813d 1547 093a
000000f0: c076 8e3e 871e f73a 021c aa39 a945 bf3e
00000100: ff59 973d f2e6 243a 734c 843e 2702 953c
00000110: 336c 923a 1a85 013f 838c 0e3f 54ca c43e
00000120: 709f c53e

batch_norm.bias f4 [73]
-0.021214155 0.016913619 -0.13244167 -0.055527356 -0.123029664 -0.05163099 -0.053657066 -0.05856122
-0.047152594 -0.011022136 -0.049302164 -0.040647376 -0.02651883 -0.038514063 -0.10063689 0.026412394
0.0005923725 -4.8505826e-05 0.049268063 -0.09413157 0.0025029788 -6.174131e-05 0.003657709 0.0052615125
0.0001791667 5.214371e-05 0.001240396 -1.2575319e-05 0.0008115218 0.0008912605 -0.0009907716 0.0013009098
-0.03147982 0.00065781584 -0.0024725946 -0.003104789 -0.0734695 0.00011348346 -0.0193692 -7.510422e-05
-0.07537336 -0.023607945 -0.016990209 6.0675557e-06 -0.02306201 0.02308727 -0.018817583 0.003002341
-0.0008754627 -0.013657739 0.015752478 6.981275e-05 0.0033799033 0.00044965453 0.0003551305 -9.150854e-05
-0.051756755 0.00040776219 -0.01308094 0.00015551981 0.067407444 -0.00074226834 -7.1299123e-06 0.09323735
-0.018933509 -0.000251953 -0.063744165 0.004785728 0.00042841586 0.096370324 -0.10606366 -0.08875661
0.08913378
00000000: 4fc9 adbc 6e8e 8a3c ca9e 07be a770 63bd
00000010: faf6 fbbd 047b 53bd 83c7 5bbd e4dd 6fbd
00000020: 1423 41bd 3096 34bc 11f1 49bd dd7d 26bd
00000030: 043e d9bc ecc0 1dbd b71a cebd ce5e d83c
00000040: 7249 1b3a bc72 4bb8 4fcd 493d 0dc8 c0bd
00000050: 0409 243b 1d7b 81b8 2db6 6f3b c468 ac3b
00000060: b2de 3b39 e2b4 5a38 c994 a23a 95fa 52b7
00000070: 4ebc 543a 7ba3 693a c7dc 81ba 4a83 aa3a
00000080: fcf0 00bd 4671 2c3a 410b 22bb b779 4bbb
00000090: 2d77 96bd f8fd ed38 28ac 9ebc 4581 9db8
000000a0: 595d 9abd 7365 c1bc 0d2f 8bbc e897 cb36
000000b0: 8aec bcbc 8421 bd3c 5527 9abc ecc2 443b
000000c0: 4f7f 65ba b6c4 5fbc 570b 813c 6f68 9238
000000d0: 5e81 5d3b 9cbf eb39 cf30 ba39 46e8 bfb8
000000e0: e4fe 53bd eac8 d539 7051 56bc 0813 2339
000000f0: ea0c 8a3d c994 42ba 7b3d efb6 39f3 be3d
00000100: 721a 9bbc 8f18 84b9 4d8c 82bd 99d1 9c3b
00000110: 019d e039 ce5d c53d e737 d9bd 07c6 b5bd
00000120: c58b b63d

batch_norm.running_mean f4 [73]
93.982765 7.814989 185.30467 100.2001 31.502506 199.64285 99.80231 16.969496
202.48065 101.035675 9.111721 10.255506 4.4797006 2.7695322 1.4230193 0.0068252296
0.013907036 0.0026619502 0.023193523 0.0021772408 0.008224691 0.015163906 0.007295281 0.018201232
0.0060411044 0.01820769 0.041863207 0.011012444 0.02622971 0.013141899 0.048483863 0.014533026
0.021961598 0.008599338 0.021803284 0.0150952935 0.04004006 0.014185946 0.019490913 0.009842534
0.01406808 0.020197585 0.033276297 0.017284168 0.021380823 0.055089958 0.030514782 0.019175913
0.009343432 0.032337278 0.029100992 0.035489947 0.016651833 0.012390968 0.010999176 0.014774097
0.0061737243 0.026117189 0.009527614 0.014101208 0.019178256 0.011352249 0.008970016 0.023774412
0.032310773 0.048237246 0.27726725 0.51005864 0.21267411 0.9235061 0.0764939 0.73232925
0.26767084
00000000: 2df7 bb42 6414 fa40 ff4d 3943 7466 c842
00000010: 2205 fc41 92a4 4743 c89a c742 87c1 8741
00000020: 0c7b 4a43 4412 ca42 9cc9 1141 8d16 2441
00000030: b559 8f40 0440 3140 7f25 b63f 2da6 df3b
00000040: 56da 633c 1d74 2e3b 5800 be3c 0ab0 0e3b
00000050: dbc0 063c 0872 783c 410d ef3b c01a 953c
00000060: 75f4 c53b 4b28 953c c178 2b3d 8a6d 343c
00000070: b0df d63c 1f51 573c 0497 463d ee1b 6e3c
00000080: cfe8 b33c 3de4 0c3c cd9c b23c 4052 773c
00000090: 0c01 243d 2c6c 683c 68ab 9f3c 9442 213c
000000a0: ce7d 663c 6875 a53c ba4c 083d 8797 8d3c
000000b0: d626 af3c 02a6 613d 23fa f93c ce16 9d3c
000000c0: 3215 193c 1874 043d 3465 ee3c e85d 113d
000000d0: 6d69 883c 7d03 4b3c e335 343c 0e0f 723c
000000e0: f44c ca3b b7f3 d53c b619 1c3c c108 673c
000000f0: b81b 9d3c c9fe 393c f9f6 123c 8ec2 c23c
00000100: 4d58 043d 6b94 453d f9f5 8d3e 3493 023f
00000110: 3ec7 593e e56a 6c3f d5a8 9c3d ee79 3b3f
00000120: 270c 893e

batch_norm.running_var f4 [73]
1729.6788 185.8576 3051.535 330.61664 88.188835 2550.6973 319.5629 18.42792
2392.4429 385.16226 4.845598 8.30281 4.1157084 0.6051868 1.4339515 0.0067999493
0.013176952 0.0026444944 0.02307307 0.002170289 0.008010617 0.015129246 0.00725934 0.018098913
0.005905135 0.018183053 0.041831907 0.010325879 0.024634778 0.013113642 0.044491135 0.014473215
0.020475388 0.008551501 0.021765323 0.014124733 0.038658094 0.0134540405 0.019435545 0.009807951
0.014011977 0.020154083 0.03225098 0.017252868 0.01972627 0.052781146 0.030405434 0.017901199
0.009294142 0.030840293 0.02808093 0.032855347 0.016107703 0.012358875 0.010973894 0.014615487
0.0061439895 0.0260802 0.0094993375 0.01402822 0.017913023 0.0107988985 0.0089486325 0.022063436
0.031786807 0.047421053 0.21352144 0.25627923 0.16743295 0.06959001 0.06959001 0.20618527
0.20618527
00000000: b935 d844 8cdb 3943 8fb8 3e45 ee4e a543
00000010: af60 b042 286b 1f45 0dc8 9f43 616c 9341
00000020: 1687 1545 c594 c043 240f 9b40 4fd8 0441
00000030: e2b3 8340 86ed 1a3f b98b b73f 1cd2 de3b
00000040: 24e4 573c 414f 2d3b bc03 bd3c 683b 0e3b
00000050: f73e 033c a8e0 773c c2df ed3b 2c44 943c
00000060: dd7f c13b a0f4 943c ef57 2b3d e02d 293c
00000070: e0ce c93c 9ada 563c 563c 363d 1021 6d3c
00000080: 00bc a73c 981b 0c3c 314d b23c 6d6b 673c
00000090: f357 1e3d 566e 5c3c 4b37 9f3c 87b1 203c
000000a0: 7e92 653c 2d1a a53c 9b19 043d e355 8d3c
000000b0: fd98 a13c 0b31 583d d114 f93c 89a5 923c
000000c0: 7546 183c c8a4 fc3c fa09 e63c 5493 063d
000000d0: 4df4 833c e17c 4a3c d9cb 333c cc75 6f3c
000000e0: 8553 c93b 25a6 d53c 1ca3 1b3c 9fd6 653c
000000f0: 55be 923c dded 303c 499d 123c 61be b43c
00000100: e232 023d 943c 423d 5da5 5a3e 0837 833e
00000110: 8b73 2b3e 3585 8e3d 3585 8e3d 3b22 533e
00000120: 3b22 533e

fc1.weight f4 [10, 73]
-0.026728408 -0.00073979225 -0.086961955 -0.078507446 -0.080798544 -0.009450026 -0.07383276 -0.010719013
-0.045380272 -0.007335389 -0.04757284 -0.040117025 -0.036791142 -0.03786229 -0.23050411 0.040025663
0.0005760203 -3.7121597e-05 0.08514464 -0.15818399 0.0021930775 -3.1161824e-05 0.0048896535 0.0059074988
0.00012959345 2.6234155e-05 0.0014948717 3.0488864e-06 0.00063048204 0.0007485119 -0.0015746197 0.0016659241
-0.050993297 0.0004520988 -0.0024366863 -0.00288478 -0.120373525 5.2200776e-05 -0.02269089 -0.00014004021
-0.13997902 -0.039894328 -0.02530108 5.1140264e-06 -0.025676988 0.031651378 -0.030245453 0.0026350052
8.80783e-05 -0.010550349 0.017255392 6.880488e-05 0.0036182583 0.00035718543 0.00025683347 -2.8244165e-05
-0.11405603 0.00029988436 -0.011085439 4.6208323e-05 0.090772085 -0.00045043844 6.548027e-05 0.14289007
-0.028812522 -0.00021687035 -0.11114601 0.0060309623 0.00038805892 0.16971348 -0.18678719 -0.052515287
0.05273956 0.030843109 -0.079453334 0.45815837 0.064738296 0.42560285 0.24106121 0.08060526
0.2731663 0.18426251 0.032062285 0.19240685 0.076917164 0.0816401 0.07325346 -0.07919088
-0.021252891 -0.00022011965 1.5365853e-05 -0.031084593 -0.0065126144 -0.0029335031 4.0969335e-05 -0.0025274353
-0.006526051 -0.00014759114 -3.6659694e-05 -0.00053268747 3.2001055e-05 -0.0010657236 -0.00077780365 -0.00064208446
4.006354e-05 0.023291431 -0.0007084135 0.0023742707 0.004876159 0.078329474 -0.0001378487 0.028339807
-0.00021234524 0.021239435 0.009080547 0.012419159 7.293439e-06 0.057628382 -0.03249907 0.027138678
-0.0043413793 0.0031948958 0.03416682 -0.01932705 3.0755185e-05 -0.0033852484 -0.00029247408 -0.0002724541
0.00010493897 -0.030014051 -0.00037166776 0.011425783 -0.00028367178 -0.093309365 0.0011993805 0.00020804179
-0.12295635 0.018204315 0.000106640335 0.09665246 -0.005302282 -0.0004419544 -0.0027930574 0.0030724779
0.26712653 -0.26825973 -0.0299917 0.004072918 -0.07675977 -0.0584743 -0.07132924 -0.0050291144
-0.072326645 -0.005699839 -0.036495112 -0.005887148 -0.038268294 -0.047083214 -0.020653043 -0.04438597
-0.22209339 0.036843758 0.0004901821 -2.2979397e-05 0.08278498 -0.16798158 0.0021354263 -1.974818e-05
0.0042468477 0.0054508275 0.000114232804 2.8309823e-05 0.0013828718 3.5759933e-06 0.0005006715 0.0006869474
-0.0014298549 0.001679889 -0.048327032 0.0004325278 -0.0026988427 -0.002576097 -0.117933154 6.455753e-05
-0.018440846 -0.00012926201 -0.13050066 -0.04356869 -0.022411231 8.359875e-06 -0.0253389 0.02669574
-0.02778003 0.0022687411 -8.483806e-05 -0.011152985 0.01785319 6.675311e-05 0.003112644 0.00029691178
0.00024401315 -2.5522739e-05 -0.09208353 0.00030929485 -0.015969532 5.128656e-05 0.08889386 -0.00037451737
7.5813485e-05 0.12538114 -0.02645142 -0.00021793752 -0.069371305 0.005005079 0.00016221458 0.1757237
-0.19340146 -0.06773196 0.06801861 -0.02822479 0.008573916 -0.08038533 -0.054930102 -0.074685216
-0.005055792 -0.065566584 -0.0057380362 -0.024901364 -0.011659349 -0.026153032 -0.02392346 -0.023216613
-0.022439253 -0.19272867 0.03638986 0.0005320413 -3.2323493e-05 0.079956815 -0.1575475 0.0018695277
-2.3073313e-05 0.0038340404 0.0055849697 0.0001240357 2.579897e-05 0.001415284 -3.7803645e-06 0.00054984353
0.0006714134 -0.0015051065 0.0016043251 -0.050787736 0.0004384231 -0.0026768812 -0.0018514331 -0.11890784
00000000: 89f5 dabc 9eee 41ba 1c19 b2bd 83c8 a0bd
00000010: b579 a5bd 48d4 1abc a135 97bd cd9e 2fbc
00000020: aae0 39bd b45d f0bb bddb 42bd c051 24bd
00000030: 4fb2 16bd 7d15 1bbd 4509 6cbe f3f1 233d
00000040: 1100 173a 03b3 1bb8 5060 ae3d fcfa 21be
00000050: bcb9 0f3b c1b3 02b8 6339 a03b b193 c13b
00000060: 7ae3 0739 6b11 dc37 92ef c33a 789b 4c36
00000070: ef46 253a c937 443a 7863 ceba 235b da3a
00000080: 59de 50bd ac07 ed39 d0b0 1fbb 940e 3dbb
00000090: 6586 f6bd 28f2 5a38 3fe2 b9bc c2d7 12b9
000000a0: a956 0fbe 3c68 23bd 3644 cfbc 2799 ab36
000000b0: 8c58 d2bc e0a4 013d 50c5 f7bc 0db0 2c3b
000000c0: adb6 b838 5fdb 2cbc 2e5b 8d3c 574b 9038
000000d0: 4d20 6d3b 9e44 bb39 9ba7 8639 e2ed ecb7
000000e0: 3596 e9bd cc39 9d39 b39f 35bc cfcf 4138
000000f0: b7e6 b93d d328 ecb9 7452 8938 c651 123e
00000100: 3d08 ecbc b167 63b9 85a0 e3bd 619f c53b
00000110: 6374 cb39 5fc9 2d3e 2445 3fbe 451a 57bd
00000120: 7005 583d b0aa fc3c 6eb8 a2bd bc93 ea3e
00000130: 8395 843d 9ee8 d93e c0d8 763e 5f14 a53d
00000140: 74dc 8b3e 50af 3c3e be53 033d 4d06 453e
00000150: bf86 9d3d ed32 a73d e905 963d d42e a2bd
00000160: 8b1a aebc ebcf 66b9 ebe5 8037 1ea5 febc
00000170: c567 d5bb 0440 40bb 7dd6 2b38 54a3 25bb
00000180: 7cd8 d5bb b2c2 1ab9 0cc3 19b8 0da4 0bba
00000190: df38 0638 c0af 8bba 85e5 4bba 8f51 28ba
000001a0: e609 2838 accd be3c d3b4 39ba a799 1b3b
000001b0: 30c8 9f3b 346b a03d 7b8b 10b9 e228 e83c
000001c0: fea8 5eb9 53fe ad3c 93c6 143c ba79 4b3c
000001d0: 2aba f436 bd0b 6c3d bf1d 05bd ef51 de3c
000001e0: 2142 8ebb 7561 513b 82f2 0b3d c353 9ebc
000001f0: 21ff 0038 0bdb 5dbb 3557 99b9 2cd8 8eb9
00000200: ae12 dc38 07e0 f5bc 67dc c2b9 3533 3b3c
00000210: c8b9 94b9 fb18 bfbd 8834 9d3a cb25 5a39
00000220: 8ad0 fbbd 3721 953c 18a4 df38 baf1 c53d
00000230: c4be adbb 1eb6 e7b9 ba0b 37bb a05b 493b
00000240: cfc4 883e 5759 89be 27b1 f5bc 1d76 853b
00000250: 3a34 9dbd bf82 6fbd 1115 92bd 45cb a4bb
00000260: fe1f 94bd b7c5 babb e67b 15bd fae8 c0bb
00000270: 37bf 1cbd 54da 40bd 9230 a9bc 10ce 35bd
00000280: 736c 63be 7be9 163d 907f 003a e1c3 c0b7
00000290: 2c8b a93d 5d03 2cbe 82f2 0b3b e5a8 a5b7
000002a0: 2429 8b3b db9c b23b 4590 ef38 e27a ed37
000002b0: 7a41 b53a 19fb 6f36 7f3f 033a 4214 343a
000002c0: f869 bbba b92f dc3a 91f2 45bd e6c4 e239
000002d0: 11df 30bb bcd3 28bb f086 f1bd 0f63 8738
000002e0: 4211 97bc 828a 07b9 f7a1 05be 1575 32bd
000002f0: c297 b7bc 6441 0c37 8693 cfbc 06b1 da3c
00000300: f292 e3bc 29af 143b 16eb b1b8 02bb 36bc
00000310: da40 923c cefd 8b38 80fd 4b3b d3aa 9b39
00000320: c8dd 7f39 aa19 d6b7 4a96 bcbd da28 a239
00000330: 89d2 82bc 861c 5738 fc0d b63d df5a c4b9
00000340: 0efe 9e38 ea63 003e a6b0 d8bc 2886 64b9
00000350: 8b12 8ebd a501 a43b 2518 2a39 eaf0 333e
00000360: 080b 46be 0eb7 8abd 574d 8b3d ad37 e7bc
00000370: 9c79 0c3c 10a1 a4bd 63fe 60bd 90f4 98bd
00000380: 0fab a5bb c647 86bd 2306 bcbb f2fd cbbc
00000390: db06 3fbc e23e d6bc 22fb c3bc c430 bebc
000003a0: 86d2 b7bc aa5a 45be 890d 153d b078 0b3a
000003b0: 1693 07b8 66c0 a33d 2254 21be f10a f53a
000003c0: 908d c1b7 8644 7b3b 1f02 b73b 940f 0239
000003d0: de6a d837 0d81 b93a 2bb2 7db6 6023 103a
000003e0: ca01 303a fe46 c5ba 3848 d23a cd06 50bd
000003f0: 27dc e539 9d6e 2fbb c9ab f2ba f485 f3bd

fc1.bias f4 [10]
0.10895329 -0.16056843 0.07893473 0.06977706 0.07886739 -0.013304129 0.099763125 0.06791862
0.061870966 -0.04179854
00000000: e722 df3d 0d6c 24be 88a8 a13d 46e7 8e3d
00000010: 3a85 a13d 90f9 59bc 9c50 cc3d eb18 8b3d
00000020: 696c 7d3d f234 2bbd

fc2.weight f4 [10, 778]
0.12794161 -0.22241181 0.12189054 0.1174658 0.1195025 -0.212658 0.12726496 0.11739889
0.11324453 -0.19905409 0.008235841 0.035666984 -0.04635395 -0.04591279 0.04601851 -0.011037404
-0.01709822 -0.01321102 -0.031831983 -0.05830647 0.044331986 0.0068918443 -0.023994306 0.0008104372
0.020028774 0.013090515 0.01543224 -0.013975195 -0.007864924 -0.018142767 0.020243589 0.016887862
0.028975083 -0.012291101 -0.040804878 -0.0021451984 -0.045388218 -0.015346187 -0.056856304 0.014715248
-0.013215199 -0.001744641 -0.018610056 0.022526734 -0.03136434 -0.05503515 0.06469056 0.061124697
0.043071795 -0.007554377 0.026663577 0.014531719 0.0030289046 -0.008110591 -0.015778424 -0.013840266
-0.051754218 0.011243259 0.01751773 0.03174376 -0.008858505 0.029328296 0.02952813 -0.018408142
-0.014505806 0.0032467078 0.02836275 -0.063140824 0.025891472 0.039276566 0.014192217 -0.0055177785
-0.0030654536 -0.023680517 -0.009707456 -0.035223983 0.0006989606 -0.01017164 0.01192155 0.006405763
-0.0065841633 0.023427047 0.02277118 -0.022396345 0.06770554 0.004570329 0.03412664 -0.0051081493
0.022011232 -0.005637989 -0.008662431 -0.031509023 0.03557327 -0.018251767 0.0072713615 -0.03835891
-0.075869836 -0.02401246 -0.006070445 0.005951364 -0.027258007 -0.010870622 -0.026428213 -0.017604304
0.008268156 0.009200058 -0.042066257 0.020038852 -0.014419778 0.015583168 0.012118066 0.044806357
-0.035577863 -0.0061044414 0.032523245 -0.0037213417 -0.07290146 -0.0117473155 -0.020564048 0.0011273689
0.0063501983 0.0115162395 -0.0051330007 0.020500617 -0.030618574 0.06521018 0.017322168 0.035410203
0.0025303804 0.017703803 0.0066877003 0.019626934 0.024891745 -0.013729365 -0.016342321 0.016576575
-0.009720056 0.04273478 -0.02361071 -0.047053646 -0.015214961 -0.021095766 -0.041534413 -0.012829248
-0.0016090411 -0.039286327 0.00054761546 -0.02403292 -0.029926881 0.045889825 -0.03468611 0.010190424
-0.00902499 0.013694279 -0.052800212 -0.016119692 -0.011532707 0.027080398 0.0489989 -0.03378138
-0.03820273 -0.0236165 -0.015955474 -0.0049767266 -0.024288094 -0.0016394448 0.013994796 0.0081781065
0.004583274 0.039442435 0.04345653 -0.027679862 -0.029946685 0.012716186 0.00141606 0.05459556
0.0014404774 -0.03126855 0.018021535 0.023350852 -0.008055843 -0.06189597 -0.03968436 5.3735046e-05
0.00013714061 0.0026915616 0.012965607 -0.0163891 -0.016987171 0.0056097293 0.017257938 0.03004486
-0.014754474 -0.013871089 0.044761483 -0.008547618 0.019763906 0.0019914166 -0.0052329735 0.054684643
-0.015954772 -0.015342681 0.008864766 -0.014300709 -0.018589173 0.006140776 0.007057011 0.07386859
-0.01296866 -0.0019543096 0.013758556 0.021771401 -0.04898524 -0.013824532 -0.01988843 -0.01915236
-0.028610164 -0.0014050258 0.007363028 -0.017482094 0.042813003 -0.035597205 0.03674409 -0.010892275
0.012006112 0.016456885 -0.017453343 -0.028064393 -0.006844476 -0.010642633 -0.01924854 -0.087695986
0.018989634 0.007024201 -0.024108265 -0.067351386 0.019694094 -0.05402636 -0.007016467 0.013779828
-0.057470016 -0.006354639 0.022601517 -0.00369222 0.007695883 -0.010284293 0.0016368596 0.01874082
-0.010270757 0.0025945208 0.008029361 0.088535085 -0.03527813 -0.0015056942 -0.017983181 0.005831394
00000000: 2003 033e ecbf 63be bfa1 f93d e991 f03d
00000010: babd f43d 05c3 59be bf51 023e d46e f03d
00000020: c0ec e73d d6d4 4bbe 9fef 063c 8b17 123d
00000030: a4dd 3dbd 0d0f 3cbd e87d 3c3d 3ad6 34bc
00000040: 9111 8cbc 0973 58bc 4162 02bd c4d2 6ebd
00000050: 7595 353d fbd4 e13b b58f c4bc 8573 543a
00000060: 6213 a43c 9979 563c 82d7 7c3c 37f8 64bc
00000070: e2db 00bc 24a0 94bc e2d5 a53c 6a58 8a3c
00000080: 275d ed3c 9d60 49bc 0423 27bd 7596 0cbb
00000090: ffe8 39bd 936e 7bbc 28e2 68bd 3918 713c
000000a0: 9084 58bc 70ac e4ba 1e74 98bc fc89 b83c
000000b0: e577 00bd 8a6c 61bd 7c7c 843d e45d 7a3d
000000c0: 0d6c 303d b58a f7bb 936d da3c 7216 6e3c
000000d0: 9680 463b 49e2 04bc c141 81bc 48c2 62bc
000000e0: 3bfc 53bd a535 383c 5881 8f3c bf05 023d
000000f0: 4323 11bc e541 f03c fae4 f13c accc 96bc
00000100: c3a9 6dbc b8c6 543b ff58 e83c fa4f 81bd
00000110: 5a1a d43c 77e0 203d 7986 683c 7bce b4bb
00000120: c7e5 48bb a5fd c1bc 060c 1fbc 0647 10bd
00000130: 743a 373a f3a6 26bc 9b52 433c 6fe7 d13b
00000140: f7bf d7bb 14ea bf3c a08a ba3c 8a78 b7bc
00000150: 34a9 8a3d b3c2 953b 60c8 0b3d 4362 a7bb
00000160: e650 b43c e1be b8bb deec 0dbc 9b0f 01bd
00000170: 47b5 113d bb84 95bc 9a44 ee3b 3b1e 1dbd
00000180: a561 9bbd c7b5 c4bc 95ea c6bb a903 c33b
00000190: 2f4c dfbc b11a 32bc fb7f d8bc e736 90bc
000001a0: 2977 073c d7bb 163c ab4d 2cbd 8528 a43c
000001b0: ef40 6cbc 8b50 7f3c da8a 463c df86 373d
000001c0: 18ba 11bd c407 c8bb 1837 053d c1e1 73bb
000001d0: 5c4d 95bd d077 40bc ef75 a8bc 39c4 933a
000001e0: 5315 d03b 9cae 3c3c bb32 a8bb e9f0 a73c
000001f0: ced3 fabc ea8c 853d 38e7 8d3c 4a0a 113d
00000200: bdd4 253b 9107 913c 7f24 db3b aac8 a03c
00000210: c6e9 cb3c 21f1 60bc 55e0 85bc 99cb 873c
00000220: df40 1fbc aa0a 2f3d 3f6b c1bc 53bb 40bd
00000230: 2c48 79bc 07d1 acbc fd1f 2abd c431 52bc
00000240: 76e6 d2ba b3ea 20bd da8d 0f3a b0e0 c4bc
00000250: 3829 f5bc f8f6 3b3d 0613 0ebd bcf5 263c
00000260: 8ddd 13bc f85d 603c 0945 58bd 720d 84bc
00000270: aef3 3cbc b6d7 dd3c 12b3 483d 585e 0abd
00000280: 777a 1cbd 6477 c1bc 0eb5 82bc cf13 a3bb
00000290: d3f7 c6bc a4e2 d6ba 6e4a 653c 77fd 053c
000002a0: 4a2f 963b 648e 213d 79ff 313d e1c0 e2bc
000002b0: c052 f5bc 8d57 503c 179b b93a 989f 5f3d
000002c0: 67ce bc3a 7313 00bd e6a1 933c 494a bf3c
000002d0: a8fc 03bc a186 7dbd 118c 22bd 9161 6138
000002e0: 67cd 0f39 e964 303b b36d 543c 6f42 86bc
000002f0: ae28 8bbc d2d1 b73b 8560 8d3c a320 f63c
00000300: c0bc 71bc 9043 63bc d157 373d 4f0b 0cbc
00000310: eae7 a13c 6d82 023b 5d79 abbb 01fd 5f3d
00000320: 95b3 82bc de5f 7bbc 863d 113c 854d 6abc
00000330: 5248 98bc 9038 c93b 803e e73b 6a48 973d
00000340: 817a 54bc e013 00bb 916b 613c f059 b23c
00000350: bfa4 48bd 4a80 62bc 10ed a2bc 69e5 9cbc
00000360: dd5f eabc d828 b8ba 8e45 f13b 9c36 8fbc
00000370: b05c 2f3d 60ce 11bd f980 163d 8375 32bc
00000380: 49b5 443c 97d0 863c 50fa 8ebc 4ce7 e5bc
00000390: a047 e0bb 705e 2ebc 1daf 9dbc f499 b3bd
000003a0: 2690 9b3c 452b e63b b27e c5bc 86ef 89bd
000003b0: 8255 a13c bf4a 5dbd 64ea e5bb cac4 613c
000003c0: ae65 6bbd 933a d0bb d126 b93c 2cf9 71bb
000003d0: bf2d fc3b 747f 28bc e58b d63a 5986 993c
000003e0: ad46 28bc d608 2a3b 958d 033c e251 b53d
000003f0: cd7f 10bd b75a c5ba 7751 93bc 4715 bf3b

fc2.bias f4 [10]
-0.0022459389 0.00071532483 -0.0033429815 0.0037214993 -0.0045932545 -0.0024979948 0.0030268522 -0.0023709827
0.00036118235 -0.0033426723
00000000: 9a30 13bb a384 3b3a ec15 5bbb 66e4 733b
00000010: 0383 96bb 66b5 23bb 275e 463b 7d62 1bbb
00000020: 135d bd39 bc10 5bbb

fc3.weight f4 [1, 10]
-0.27516615 0.08767433 -0.40958273 0.45601052 -0.56273925 -0.3060173 0.37090907 -0.2904766
0.044287264 -0.40953586
00000000: 94e2 8cbe 998e b33d d4b4 d1be 367a e93e
00000010: ae0f 10bf 4dae 9cbe cbe7 bd3e 59b9 94be
00000020: 9066 353d afae d1be
