model_sdadas/deepl/model.pth (torch, 38506 bytes, 9 tensors)

batch_norm.weight f4 [73]
00000000: a3f1 3d3e c8b4 803e 56a5 0e3f 8c53 0e3d
00000010: 6964 163f 7d93 d33e 5613 8c3e 78ee bb3e
00000020: 8893 783e fc37 2e3e fbdb 7c3e 9ae6 503e
00000030: 7fce c83e b448 3c3e d4d6 273f 74d4 d53c
00000040: 2d19 ac39 6111 4a38 7fc4 ba3b 19ce f23e
00000050: b13e 4f3a eced 6e3a d90c dd39 1a45 963c
00000060: 7593 ea3a 7ee1 8f3b 3962 703d 039e ed38
00000070: 0c69 153a 772e ac3b 6919 3e3b 15f2 ba38
00000080: 3b6e c739 1d69 5038 415d 263a 80f2 403e
00000090: f17d a53e 1fd9 943c 07aa 163a e672 a33b
000000a0: e8ff 273d 7652 b539 4740 483b 072f 343a
000000b0: 5d6d 053e 78cd 9d3c 4777 253e 942d 173d
000000c0: 0a50 c439 386c f33b d576 863c 5c27 b43b
000000d0: da66 e13c 194e bb39 37f3 113a 5417 fa3c
000000e0: 90f6 883e 098f 2a3e aaf1 c83e ce1c bc3a
000000f0: 842b a23d 728f d13b aa02 e53c b974 8e3e
00000100: acd4 e639 cfe7 b538 9dd2 403e 1a87 673e
00000110: 6084 223e 74d3 013f 88ab 003f a2db b63e
00000120: cdb9 a43e
0.18549208 0.25137925 0.5572103 0.034747645 0.58746964 0.41323462 0.27358502 0.36705375
0.24275029 0.17013544 0.24693291 0.20400468 0.39220044 0.18387109 0.65562177 0.026102282
0.00032825154 4.817674e-05 0.0056996937 0.47422865 0.0007905765 0.00091144326 0.00042161977 0.018343497
0.0017896729 0.0043908944 0.058687422 0.000113304726 0.0005699552 0.0052545625 0.0029006845 8.9142624e-05
0.00038038366 4.968896e-05 0.00063462934 0.18842506 0.32322648 0.018169938 0.0005747382 0.004988062
0.041015536 0.00034584448 0.003055589 0.00068734627 0.1303 0.019263014 0.16158782 0.0369087
0.00037443667 0.007428672 0.016414085 0.005497856 0.027514864 0.00035725607 0.0005567553 0.030528702
0.26750612 0.16656126 0.39246875 0.0014351846 0.07918456 0.006395274 0.027955372 0.27823427
0.0004402747 8.67393e-05 0.18830343 0.22610131 0.1587081 0.50713277 0.50261736 0.35714442
0.32173005

batch_norm.bias f4 [73]
00000000: 632b babc 657b dd3c 0bb5 90bd 17bf fbbb
00000010: 41a4 98bd 3e12 1bbd b6b8 cbbb c3d6 09bd
00000020: b968 4cbd 7ac1 133c 474f 4fbd aaad e5ba
00000030: 0f7f cebc 07d2 beba 0be1 acbd 7e0b 9d3b
00000040: 5983 9038 1eed 6cb6 6413 b13a 8ead 9cbd
00000050: ec37 cb37 9a56 4a39 c9b8 d7b8 a797 8e3b
00000060: 5fd3 06ba 0db5 ac3a 1a0e 223c 51b8 b2b7
00000070: aec5 3339 7d97 d53a ef6e 4c3a 553c 6c38
00000080: ebe3 b4b8 459b dbb7 08e3 9139 caa7 39bc
00000090: a6c5 66bd 45d1 9fbb 8465 3db9 36e7 2938
000000a0: c960 cabb ad6d d1b7 469e 38ba 3380 5fb9
000000b0: 7e64 a6bc 56f0 993b 0009 c2bc dfdb 033c
000000c0: 15b1 9e38 55da 153b 367d 63bb d8aa f338
000000d0: cc49 d33b ebb4 39b9 e579 9039 553c d8bb
000000e0: cb7b 36bd ee84 df3c cfec 4bbd 9c85 3639
000000f0: 04c2 6c3c 5bb3 c6ba cb8f a3bb 2f59 503d
00000100: e45e 55b9 6bf0 3738 8446 1cbd df3b 9a3c
00000110: 843e 773c 64e6 433d c927 42bd fff1 86bd
00000120: 7b1e 733d
-0.022725767 0.027036378 -0.07065781 -0.007682692 -0.07453204 -0.037859194 -0.0062170876 -0.03365208
-0.04990456 0.009018296 -0.050612714 -0.0017523069 -0.02520707 -0.0014558443 -0.08441361 0.0047926297
6.8909205e-05 -3.530476e-06 0.0013509807 -0.076502904 2.4225526e-05 0.00019296483 -0.00010286418 0.0043515745
-0.0005143191 0.0013176516 0.009891057 -2.1305083e-05 0.00017144412 0.0016295757 0.0007798513 5.6322973e-05
-8.625522e-05 -2.6179137e-05 0.00027825707 -0.011331508 -0.056340836 -0.004877242 -0.00018062262 4.0508072e-05
-0.0061760885 -2.4965813e-05 -0.00070426275 -0.00021314695 -0.02031159 0.0046978397 -0.023685932 0.008048027
7.567011e-05 0.0022865732 -0.0034712083 0.00011618965 0.0064480063 -0.00017710372 0.0002755664 -0.006598989
-0.044551652 0.027285066 -0.049786385 0.00017406646 0.014450554 -0.0015159653 -0.0049915067 0.050866302
-0.00020348612 4.3854507e-05 -0.038153186 0.018827377 0.0150905885 0.04782714 -0.047401223 -0.06589126
0.05935524

batch_norm.running_mean f4 [73]
00000000: c8f5 c142 1ec1 e340 0976 2d43 6642 c242
00000010: c6e9 eb41 f5d6 4843 dd21 c942 4693 8841
00000020: 5aed 4b43 4cb6 cc42 26d4 1241 00cd 2041
00000030: 1b29 8f40 8fb0 2d40 35fb c53f 1327 b53c
00000040: d429 183d ad67 3a3c c4e8 8b3c f9af 853a
00000050: 97cb df3c 4e0b 693c 5bc7 333c cd67 ca3c
00000060: a679 033d 4893 543b 8f7b a53c 3548 c53c
00000070: b613 073d 7e82 493c 318e ab3c 159e f83c
00000080: 5ca3 6d3c fc82 543c 5580 7c3c 7019 923c
00000090: 2570 693c e659 803c 9cb9 813c 2131 ba3c
000000a0: 9922 653c bd44 0d3c 160e a73c 17ce 433c
000000b0: 9f0e 473c 9604 6c3c 4fde 523c aa07 033d
000000c0: dcba 133d 7de4 a13c 7468 823c c1e1 423c
000000d0: 675c 533c 8cca be3c 99e5 113c a429 353c
000000e0: 933c da3c 141c 503c a11a 803c 7ca9 893b
000000f0: e022 9a3d d07c ae3c 591b 2c3c 1bec cc3c
00000100: 4de2 ec3c 2548 2d3d 5f10 6f3e a7d4 0a3f
00000110: 059d 653e ade3 6c3f 90e2 983d 96e6 3f3f
00000120: d532 803e
96.98004 7.117324 173.46107 97.129684 29.489147 200.83968 100.56614 17.07191
203.92715 102.35605 9.176794 10.050049 4.4737678 2.7139013 1.5467287 0.022113359
0.037149265 0.011377257 0.017078765 0.0010199539 0.027318759 0.014223887 0.010972823 0.0247077
0.032098435 0.003243642 0.020200519 0.024082283 0.032977782 0.012299178 0.020941826 0.030348817
0.01450428 0.012970682 0.015411456 0.017834395 0.014247929 0.015667867 0.015835576 0.022728505
0.0139852995 0.0086223455 0.020392459 0.011950991 0.012149482 0.01440539 0.012870385 0.03198973
0.036066875 0.019762272 0.015918948 0.011894644 0.012900448 0.023289941 0.008904838 0.011057291
0.026640212 0.012702007 0.015637698 0.0042011123 0.07526183 0.02129975 0.010504567 0.025014928
0.028916502 0.04230513 0.23346089 0.5423073 0.2242318 0.92534906 0.07465088 0.7496122
0.25038782

batch_norm.running_var f4 [73]
00000000: 60c2 cc44 b05e 1b43 8348 3545 667b c543
00000010: cfa7 a742 cb6f 1d45 08cd df43 5999 9141
00000020: 9002 0345 e52d b343 9edd 8740 365e 0a41
00000030: 27d2 b040 078e 213f 95af c33f cfc1 b33c
00000040: 9792 103d 4109 3a3c 4fa0 8b3c 22ff 813a
00000050: f343 df3c a72b 663c 3373 333c 7d14 ca3c
00000060: 0752 033d e892 503b 9947 963c 8b5c ba3c
00000070: 09de 063d c705 493c 4db0 a53c 2ea0 e83c
00000080: 5b3e 6a3c 0765 4d3c f8eb 7b3c f1ce 913c
00000090: b9cf 683c ccfc 723c bb31 813c fa82 b93c
000000a0: 976f 563c 6587 0c3c 5188 a13c 8a33 433c
000000b0: 7aaa 463c c7e4 6a3c b607 523c 8cd3 023d
000000c0: 3d4c 0f3d 5cd5 9d3c da3d 7f3c 6e32 423c
000000d0: 20bd 523c 8894 b23c 8121 0e3c 2985 343c
000000e0: 8c4a d53c 5d9f 4f3c bb48 773c aee7 873b
000000f0: 6dc0 383d ee7e aa3c b351 2b3c d19c c83c
00000100: 2d47 dc3c 97e8 2c3d 2e42 323e 0f9c 673e
00000110: 621d 2d3e cf92 903d cf92 903d 3ec6 353e
00000120: 3ec6 353e
1638.0742 155.36987 2900.532 394.96405 83.82775 2518.987 447.6018 18.199877
2096.1602 358.35855 4.245803 8.648001 5.5256534 0.6310734 1.5287958 0.021943001
0.03529605 0.011354745 0.017044215 0.0009917954 0.02725408 0.0140484935 0.010952759 0.024667973
0.03206065 0.0031825844 0.018344687 0.022749206 0.032926593 0.012269444 0.020225668 0.028396692
0.014297093 0.012536294 0.015376084 0.017798873 0.014209681 0.014830779 0.015770784 0.022645462
0.0130881285 0.008577202 0.019718321 0.011914143 0.012125606 0.014336771 0.012819221 0.031940028
0.034984816 0.019266777 0.015578711 0.011852844 0.012862474 0.02179934 0.00867498 0.011018076
0.026036523 0.0126722725 0.015093024 0.0041474914 0.045105387 0.020812478 0.01045649 0.024488838
0.026889408 0.042214002 0.17408058 0.22618125 0.1690574 0.070592515 0.070592515 0.17751405
0.17751405

fc1.weight f4 [10, 73]
00000000: b346 47bd de73 ed3d 4f72 46be 4359 a23b
00000010: c918 51be e601 01be 8773 11be ed3f e5bd
00000020: ed5b 103c b5e5 183d 03a6 153c 3147 b43d
00000030: ac1c 7bbe db79 a23d 2296 b43e c3db 5ebc
00000040: 8181 27b8 5d09 dc37 d5dc eaba ffc7 2f3e
00000050: 5d36 deb9 1ab0 0cba 4c57 e438 33e3 cfbb
00000060: 50b0 d1b8 bf17 83ba 5a8c cfbc a024 3fb8
00000070: 6b72 a438 15bf d2ba 0e63 ab39 c61c 41b6
00000080: 7add 2339 01ee aa36 ea52 2cb9 85f4 d23d
00000090: 9378 f73d 0e09 3338 5aa2 60b8 e7c9 0c3b
000000a0: 9b45 913c 01c2 ec38 8c49 9e3a 50e2 90b9
000000b0: a855 58bc 61d7 5cbb 401a 933d 0fcd 27bc
000000c0: bc93 d837 2c15 f2ba 23ee 6ebb 0346 a7ba
000000d0: cce0 f7bb d910 1639 36ae ba38 92d2 ee3b
000000e0: c598 083d dcb8 cfbc 7b50 423e e4d0 2d3a
000000f0: 6733 ddbc 59d6 dfba 3c60 9d39 600a 1dbd
00000100: 7132 4938 897c 4ab8 ad8b 143d 5180 13be
00000110: bae2 aa3d 4980 0fbe fe38 0e3e 405e 6cbd
00000120: e1ed 543d b022 8ebd b38c b53c 0e3f b6bd
00000130: f593 88bc 315f c0bd cec5 40bd 6fa8 a73c
00000140: aeea 2abd ece3 a8bd 16ca 0d3d 3611 acbd
00000150: 8b71 5abd d2e4 91bd 37d4 43bd e392 71be
00000160: 343e 0f3c 966a 1a39 4663 8335 499b 303b
00000170: 8ba0 47be 2e8c 1839 f555 8139 ce93 f2b8
00000180: 1f56 d13b 9d00 2eba 4956 df3a 4436 ba3c
00000190: 35e0 89b6 90a4 2f39 6036 093b df9d 5a3a
000001a0: b587 4038 0277 06b9 393b e1b7 3494 6339
000001b0: e67e 38bd ddfc f8bd 3b97 febb bcf8 bdb8
000001c0: 7788 80b9 db4d 8bbc 0263 39b8 d298 b0ba
000001d0: cd44 65b9 acbe 55bd 4457 053c f5c0 3cbd
000001e0: 8c1f 573c abe2 3539 cbc1 573b 14a3 91bb
000001f0: 7d4c 033a 6aa4 1f3c 9749 36b9 5d7d 8939
00000200: 93c3 50bc dfd5 e7bd f277 723d 8a10 d6bd
00000210: fdb8 3a39 ac48 f03c 86d5 d2ba 19e7 8dbb
00000220: d959 013e 20a8 73b9 807d b837 b4b1 8cbd
00000230: b84d 513d 8d4f 7d3c d0ea 2e3e d45b 2dbe
00000240: 557c dcbd fa9e c63d 4c06 5fbd 16f2 ee3c
00000250: a6c1 52bd b521 3cbc 139e 5ebd 2aef 05bd
00000260: ae2b 823c 3417 edbc e309 7fbd e1ca 213d
00000270: dd1b 82bd 11ca 32bd 8c02 7abd 86c7 1fbd
00000280: f9f0 62be 8518 063c a091 1239 be2b dfb6
00000290: 666f 2c3b e1af 4fbe 4db1 7b38 31e6 7639
000002a0: 4c8b 16b9 8673 db3b ea13 41ba 7bc6 e03a
000002b0: 91b7 be3c 8bd6 bf34 c2ad 2439 43de 0d3b
000002c0: 56ef 783a 1e04 5e38 7a16 13b9 ac04 dbb7
000002d0: 5a83 8439 5b44 29bd a8a8 e9bd e8fb cbbb
000002e0: 2d1b 1bb9 a32f 4bb8 8ee7 66bc 0175 b3b8
000002f0: 50db 89ba 18bf 67b9 e527 36bd 4038 f93b
00000300: 8fe5 30bd ec74 4e3c 4631 3239 6140 523b
00000310: eaee a8bb 46eb 523a 0f95 2e3c edf9 40b9
00000320: 2b14 8239 7f08 37bc aaaf 06be 5c18 5b3d
00000330: c609 c0bd b33f 3b39 86aa fa3c a3dd c1ba
00000340: bf75 e6bb ccc6 ff3d 0ee4 42b9 a84b cf37
00000350: 701d 8bbd 9ae2 473d 722e 693c eb42 3e3e
00000360: 2891 3cbe 7dec e4bd 1d39 ce3d 2864 973d
00000370: d4c2 22bd 775f 213e fc87 e93b 2f21 2a3e
00000380: e94a 423e 0859 c83d 599a 2c3e eafb 833d
00000390: bcfe da3d 6547 863d 8738 a93d 1fe0 193d
000003a0: 9dca 993d bdcc 25be 022c 9bbb f2fb f238
000003b0: d36b 9cb7 2aa0 6eb9 3c79 af3d 4e41 7839
000003c0: 7f72 0b39 7df8 91b9 13f4 9cbb 0e5e 323a
000003d0: 31ec 9cba ccee 0fbc f616 c337 74bc 6eb9
000003e0: 802f 02ba 0ef5 91ba c024 64b7 2d61 0639
000003f0: 5eab 86b7 a03d 04b9 0c38 de3c 24e5 ac3d
-0.04865141 0.115943655 -0.19379543 0.0049544885 -0.20419611 -0.1259838 -0.14204226 -0.111938335
0.008810979 0.03732844 0.009133819 0.08802641 -0.24522656 0.07933398 0.35270792 -0.0136022
-3.9936513e-05 2.6230404e-05 -0.0017918596 0.17166136 -0.00042383643 -0.00053668173 0.000108881475 -0.006344223
-9.9987374e-05 -0.0010001584 -0.02533548 -4.557206e-05 7.8414414e-05 -0.0016078675 0.00032689463 -2.877599e-06
0.00015627398 5.094102e-06 -0.00016434086 0.10300545 0.120835446 4.268536e-05 -5.3556963e-05 0.0021482648
0.017733386 0.00011289493 0.0012076362 -0.00027634436 -0.013204016 -0.0033697712 0.07182741 -0.010241761
2.5818e-05 -0.0018469444 -0.0036457859 -0.0012761954 -0.0075646397 0.00014311391 8.9016205e-05 0.0072882855
0.033348817 -0.025356703 0.18976013 0.00066305534 -0.02700205 -0.001707743 0.00030017074 -0.038339972
4.796911e-05 -4.8276535e-05 0.036266018 -0.14404418 0.08344026 -0.1401378 0.13888928 -0.05770707
0.05198467 -0.0694021 0.022161817 -0.088987455 -0.016672114 -0.09393156 -0.04706364 0.020466058
-0.041727714 -0.08246598 0.034616552 -0.0840172 -0.05333094 -0.07123722 -0.047809806 -0.23591189
0.008742858 0.00014726291 9.789153e-07 0.0026948026 -0.19494836 0.0001454807 0.0002466884 -0.0001156699
0.0063884403 -0.00066376646 0.0017039265 0.022730954 -4.1090193e-06 0.00016750605 0.002093695 0.00083395647
4.5902754e-05 -0.0001282357 -2.6849668e-05 0.00021703617 -0.045042895 -0.12157605 -0.007769493 -9.058553e-05
-0.00024515737 -0.017004898 -4.4199645e-05 -0.0013473278 -0.00021864772 -0.052183792 0.0081384815 -0.046082456
0.01313008 0.00017345946 0.0032921906 -0.0044444893 0.0005008651 0.009743789 -0.00017384287 0.0002622408
-0.012741941 -0.113200895 0.05919642 -0.10452373 0.00017807256 0.029331528 -0.0016085363 -0.0043305275
0.1263193 -0.00023236917 2.199295e-05 -0.06869832 0.05109951 0.015460861 0.17081761 -0.16929561
-0.10765902 0.09698291 -0.054449365 0.02916817 -0.05145421 -0.011482646 -0.05434997 -0.032698788
0.015889969 -0.028941728 -0.062265288 0.03950012 -0.06352971 -0.043649737 -0.061037585 -0.03900864
-0.22162236 0.008184557 0.00013977895 -6.65101e-06 0.0026311516 -0.20281936 6.0008188e-05 0.00023546141
-0.00014357007 0.006697121 -0.0007365333 0.0017148996 0.02328089 3.5732623e-07 0.00015704989 0.002164737
0.0009496113 5.293276e-05 -0.00014027386 -2.610901e-05 0.00025274866 -0.041324954 -0.11409122 -0.006225098
-0.00014792076 -4.8443337e-05 -0.014093293 -8.557179e-05 -0.0010517631 -0.00022101065 -0.04447164 0.0076055825
-0.043187674 0.012601119 0.00016993759 0.003208183 -0.005155434 0.0008045923 0.0106556555 -0.00018403651
0.00024810559 -0.011171459 -0.13152948 0.053490028 -0.09376864 0.0001785744 0.03059889 -0.0014790784
-0.0070330794 0.12489089 -0.00018586239 2.4711553e-05 -0.06792724 0.04880009 0.014232265 0.18580215
-0.18414748 -0.11177919 0.10069487 0.0739215 -0.039736584 0.15759073 0.0071268063 0.16614221
0.18973888 0.09782606 0.16855754 0.06444533 0.10693118 0.06556586 0.08262735 0.037567254
0.075093485 -0.16191383 -0.0047354707 0.00011586388 -1.8646859e-05 -0.00022757114 0.085680455 0.00023675451
0.00013298726 -0.00027841693 -0.004789838 0.00068041764 -0.0011972246 -0.008784961 2.3256503e-05 -0.00022767653
-0.00049661845 -0.0011135654 -1.35984155e-05 0.00012815437 -1.6053844e-05 -0.00012611458 0.027126335 0.084421426

fc1.bias f4 [10]
00000000: 71ad 44bd 000a a03d f492 e43d 19fe b93d
00000010: e89d 823d 258f 69bc 6ed9 08be 6024 f5bd
00000020: f1a6 b73d 23c6 61bc
-0.04801697 0.07814407 0.111608416 0.090816684 0.063777745 -0.01425532 -0.13364193 -0.119698286
0.089673884 -0.01378015

fc2.weight f4 [10, 778]
00000000: 09c7 acbe a6bf 803e 3bc5 7d3e b426 91be
00000010: 776e 783e 00c6 9abe 4802 98be ea61 9fbe
00000020: 2df3 6c3e f20b a8be 4f6f 123d 99e3 06bd
00000030: 9c08 08bd bda6 af3c de68 d0bd c911 643d
00000040: fb58 c53a 5d92 9bbc 2356 a63d 0414 bf39
00000050: 5e60 623c 84a0 88bb 53ff 24bd 42bd 79bd
00000060: 1278 403d d181 a8bc 2a1a 423c 8beb 9bbd
00000070: e018 543c c154 9c3d 92b0 68bc 208d ad3c
00000080: ba27 613d 620c 923d 8e6e 0dbd 96dc 7c3c
00000090: 834c 75bd b2d4 553d 0884 51bd 2153 63bd
000000a0: 8307 40bd dc2d ec3c 1665 103d 9d24 f93c
000000b0: b658 0dbc 5a9b 1b3c b54c 213d 22b8 403d
000000c0: 99bc 8b3d 67a5 55bd ba3c 223c 5043 323e
000000d0: c2d4 f03c 1dea 543a 3306 e5bc a2d9 48bc
000000e0: a555 c93c cee9 63bc afa2 a2bc 31e9 da3c
000000f0: d579 e4bc 68f5 c1bb 66b8 8fbd 8ff2 2d3b
00000100: 6a0a 8f3d a9ff 25bc d0ef 163d cd7d 523c
00000110: e770 9bbd 7ccd 9fba 4914 cebb e021 f43d
00000120: 3321 92bd f910 92bd d8b7 003d 02f0 9c3c
00000130: 1c4a 54bd 50ab 953d 3c08 e43b 36a5 63bd
00000140: 1e1c 9f3c 4c5a 95bd 15cb 4cbd 3125 bfbd
00000150: fc9c 3c3c b3bc 583c fe86 94bc b9d9 a5bd
00000160: 81f1 b2bd 1e5f 62bd 8f1b 503d fd91 99bd
00000170: f4a3 95bc fe06 14bc cdc0 9f3c 04d8 cbbb
00000180: 6632 403b 7fb8 6fbd 2fb9 b7bb b80a be3c
00000190: a1b9 53bd 5600 9dbc 4cf2 7cbc 7e69 293c
000001a0: 0526 3f3d d507 b63b 6734 8abb d7ef 9ebd
000001b0: b512 1e3d 8d85 273d 8486 dc3c b52e 2dbc
000001c0: 8ffc cfbd 3b8d 0abc 8572 503c c1d8 88bd
000001d0: 5105 c8bc 5ed6 bfbc ba9d b0bd 45dc 30bd
000001e0: 206f 74bd 1087 d33d 34e5 7dbd 40ae febc
000001f0: ac9a 13bd 5fa5 6dbc 8ef5 d73b 88e2 cbbb
00000200: 882d 3b3d 652f 483d 6c7f 3b3c 4479 e63b
00000210: 8bf5 88bd 88a4 063c 0b33 533c a250 bbbc
00000220: 6396 133c 28bb 1d3d 45e6 f2bc ff64 1fbd
00000230: a80e 71bc 3152 1abc 3105 543c 899a 95bc
00000240: 6789 b8bc c2f4 21bd 6326 243d d998 b8bb
00000250: 4030 b5bb 8c65 703c 72b2 9b3c b190 68bc
00000260: 4165 6b3c ce77 90bc 09e4 72bd 2b81 9abc
00000270: b5cf 60bd 5b3e 813d 59fc 02bd 9b6f acbd
00000280: 0a97 fabb 60b3 213c 9cc6 a3bc 4bbf c5bc
00000290: 1cef 1ebc a833 7e3c a219 81bb df0f dbbb
000002a0: e8c8 a03d 1703 9b3d e004 8abd 388d 533c
000002b0: abae e33c e80d 81bd 69d1 0c3d 8fde cdbc
000002c0: 26f8 883d aeea b2bc 15fc 033d 04ce 0f3d
000002d0: e480 173b 62da 35bc 96e2 7ebd 8326 2bbd
000002e0: ee38 14bc e455 8abd 9991 41bd 0257 263d
000002f0: d589 c83c ffae 5dbd 64b2 e63c f6a9 603a
00000300: f1bd a4bc 27b4 1bbb 4a6f 37bc ddcb 5abc
00000310: aeb3 763d 5b70 f2bb bc4a 323c 387c 70bd
00000320: e7ad 233d f57a f23b 9dbe 7a39 00ce fdb9
00000330: 0d4a 953c ee4d 903d f5c0 e93d 3d4c dcbc
00000340: 1140 b43d a1ae 22bd 9cfe 5d3d 68c3 4ebd
00000350: cb47 8b3b 040a 673d b3de 43bb 9147 bebd
00000360: 91c4 d9bb 4325 6e3d c21b 98bb a747 3e3c
00000370: 7092 683d d2e5 a9bc 1b32 d03c 0658 c03c
00000380: 49ff af3d 3778 e43b 69a4 ed3c b75c 3abd
00000390: 18ac 24bd 10e1 cebc 2409 ac3c c68a f8bc
000003a0: f8d9 8bbc 4358 be3d ce7f 033d e77d 62bc
000003b0: 768c c9bc 342c 87bd 11ec 303d 86b7 0dbd
000003c0: 6e5b 3cbd a9fd 81bd 96f0 5e3c ff31 32bd
000003d0: c554 f4bc c9bb cc3c 94db 0b3d 2c82 54bd
000003e0: 8902 03bd b4e0 6d3c b313 d3bc b7bc 0ebd
000003f0: e5f8 a23b e40f 0fbd 1401 9e3d 63db b5bc
-0.33745602 0.25146216 0.24782269 -0.2834984 0.24260889 -0.30229187 -0.2968924 -0.3112939
0.23139639 -0.32821614 0.035750683 -0.032931898 -0.033211336 0.021441812 -0.10176252 0.055681024
0.0015056425 -0.01899069 0.08121898 0.00036445272 0.013816921 -0.0041695256 -0.04028256 -0.060971506
0.046989508 -0.020569714 0.011847058 -0.07613286 0.012945384 0.07633353 -0.014202254 0.021185458
0.054969527 0.07131268 -0.03452926 0.015433451 -0.05988742 0.052204795 -0.051151305 -0.0554992
-0.046882164 0.028830461 0.035252653 0.030412966 -0.008627107 0.009497488 0.039379794 0.047050603
0.068230815 -0.052159693 0.009902174 0.1740849 0.029398326 0.0008122044 -0.027957058 -0.012258919
0.024576971 -0.013910724 -0.019852964 0.026722522 -0.027890125 -0.0059191473 -0.07017593 0.0026542281
0.06984408 -0.010131755 0.036849797 0.012847376 -0.07589894 -0.0012191976 -0.0062890393 0.11920524
-0.071352385 -0.071321435 0.031425327 0.019157413 -0.05182849 0.07308066 0.0069589894 -0.05557748
0.019422587 -0.072926134 -0.04999836 -0.093332656 0.011512037 0.013228583 -0.018130776 -0.08098168
-0.087374695 -0.055266492 0.050807532 -0.07498548 -0.018266656 -0.00903487 0.019501114 -0.0062208194
0.0029326915 -0.05852556 -0.0056067924 0.02319847 -0.0516907 -0.0191652 -0.015438627 0.010340093
0.046667118 0.005555133 -0.0042176726 -0.077605896 0.03859206 0.04089885 0.02691961 -0.010570218
-0.101555936 -0.0084565235 0.012722616 -0.066819675 -0.024416598 -0.023417648 -0.08623834 -0.043178815
-0.05967629 0.103284955 -0.061986163 -0.031088948 -0.03603618 -0.01450476 0.0065905517 -0.006222073
0.04569772 0.048873324 0.011443954 0.007033499 -0.066874586 0.008217938 0.012890588 -0.022865597
0.009008023 0.038508564 -0.029650817 -0.038914677 -0.014712967 -0.00941901 0.012940691 -0.018262165
-0.022526456 -0.03954006 0.04007567 -0.0056334552 -0.0055294335 0.014672648 0.019005988 -0.014194653
0.0143674025 -0.017635252 -0.059299503 -0.01886042 -0.054885585 0.063107215 -0.03197894 -0.084197246
-0.0076474 0.0098694265 -0.019992165 -0.024139067 -0.009700563 0.0155152455 -0.0039398232 -0.0066852416
0.0785082 0.07568949 -0.06739211 0.012912087 0.02779325 -0.063014805 0.034379397 -0.025130538
0.066879556 -0.02184042 0.032222826 0.03510858 0.0023117596 -0.01109943 -0.062227808 -0.041784775
-0.009046776 -0.067546636 -0.047257993 0.04061032 0.024479786 -0.054121967 0.028161235 0.0008570248
-0.020110102 -0.0023758502 -0.011195967 -0.013354269 0.06022995 -0.0073986477 0.010882076 -0.058712214
0.039960768 0.0073999115 0.00023912867 -0.00048409402 0.018223787 0.07046114 0.11413757 -0.026891822
0.08801282 -0.03971732 0.054197893 -0.050479323 0.0042505017 0.056406036 -0.0029887378 -0.09290994
-0.006645747 0.058141004 -0.004641981 0.011613763 0.05678028 -0.02073947 0.025414517 0.023479473
0.08593614 0.0069723385 0.029009061 -0.045498576 -0.040203184 -0.025253803 0.021000452 -0.03033961
-0.017071709 0.09294178 0.032104306 -0.013823963 -0.02460311 -0.06600228 0.04319388 -0.03459885
-0.04598563 -0.0634721 0.013607165 -0.04350471 -0.029825578 0.024991887 0.034144953 -0.051881954
-0.03198484 0.014518905 -0.02576623 -0.03484794 0.004973518 -0.034927264 0.077150494 -0.022199338

fc2.bias f4 [10]
00000000: 3ca5 2ebd 40a5 ba3c e12e 103d 1b84 e2bb
00000010: 3517 463c 1b4a ba3c b021 863b 040c 35bd
00000020: 5ac9 13bd a3a1 18bc
-0.04263805 0.022783875 0.035200957 -0.006912721 0.012090494 0.022740414 0.0040933713 -0.044200912
-0.036080696 -0.009315881

fc3.weight f4 [1, 10]
00000000: 0884 3dbf 9b8a ca3e 4176 1c3f 75d0 f5bd
00000010: 0df6 563e 6427 ca3e 5e8b 913d c576 44bf
00000020: dd5e 20bf b4a1 25be
-0.7402959 0.39558873 0.6111794 -0.12002651 0.20992298 0.39483178 0.0710666 -0.7674373
-0.6264475 -0.16174966
