model_cased/azure/model.pth (torch, 38506 bytes, 9 tensors)

batch_norm.weight f4 [73]
0.4119973 0.42230362 0.49961016 0.40799052 0.5093822 0.4227352 0.40666464 0.4178158
0.40839478 0.4099708 0.40850297 0.40995154 0.40998575 0.42231432 0.609232 0.4092099
0.4068201 0.4081884 0.40844795 0.41562125 0.41140047 0.40870366 0.40610325 0.40952232
0.40875873 0.41251546 0.41205204 0.4085696 0.40830553 0.40986785 0.40802148 0.40667057
0.41038656 0.4077159 0.40619066 0.40964884 0.41094688 0.41583094 0.4072771 0.4086508
0.4096788 0.40767977 0.4097078 0.41033018 0.4080682 0.4125003 0.4164938 0.40954033
0.4081702 0.4059827 0.40755132 0.4071316 0.40902722 0.40732554 0.4061863 0.40945983
0.41217312 0.40750876 0.42147043 0.40653265 0.407352 0.40681967 0.41280407 0.4127875
0.40733975 0.40782335 0.41610804 0.41069275 0.40797055 0.519923 0.47119114 0.42448515
0.42498213
00000000: 4ff1 d23e 2e38 d83e e7cc ff3e 22e4 d03e
00000010: df66 023f c070 d83e 5936 d03e f4eb d53e
00000020: 1f19 d13e b1e7 d13e 4d27 d13e 2be5 d13e
00000030: a7e9 d13e 9539 d83e a1f6 1b3f f683 d13e
00000040: b94a d03e 12fe d03e 1720 d13e 4fcc d43e
00000050: 15a3 d23e 9b41 d13e c4ec cf3e e9ac d13e
00000060: d348 d13e 3a35 d33e 7cf8 d23e 0930 d13e
00000070: 6c0d d13e 33da d13e 31e8 d03e 2037 d03e
00000080: 301e d23e 23c0 d03e 39f8 cf3e 7ebd d13e
00000090: a167 d23e cbe7 d43e a086 d03e ad3a d13e
000000a0: 6bc1 d13e 67bb d03e 39c5 d13e cc16 d23e
000000b0: 51ee d03e 3d33 d33e ad3e d53e 45af d13e
000000c0: affb d03e f7dc cf3e 91aa d03e 8e73 d03e
000000d0: 046c d13e f98c d03e a7f7 cf3e b8a4 d13e
000000e0: 5b08 d33e fda4 d03e f9ca d73e 0c25 d03e
000000f0: 7190 d03e ab4a d03e 0e5b d33e e258 d33e
00000100: d68e d03e 39ce d03e 1d0c d53e 5246 d23e
00000110: 84e1 d03e ac19 053f f73f f13e 1e56 d93e
00000120: 4297 d93e

batch_norm.bias f4 [73]
-0.0006295899 -0.007204777 0.014465828 0.011044305 0.025762398 0.017028557 0.008385963 0.015964882
0.0010157117 0.01393647 -0.00048154034 -0.01317457 -0.018366583 0.009266321 0.012892023 0.016237097
0.003885124 0.012019073 -0.009370536 -0.0036284914 -0.0070619024 -0.013263615 0.0073993956 -0.01105649
-0.009437068 -0.014230384 -0.023273686 -0.004674032 0.0021437795 -0.0012866965 0.01636584 -0.0005879468
-0.0035647114 0.016735889 0.0073504825 -0.0076918267 0.014185148 0.00056635955 -0.004105042 -0.0071524815
-0.0019664778 0.0085983025 -0.003140149 0.012354113 -0.0008293535 -0.0047400156 0.017879948 0.004443632
-0.010632164 -0.004544956 0.007532786 0.0031605335 0.0053402847 -0.01147699 0.004812992 -0.017197002
-0.02520816 0.005446177 -0.004130811 0.010930584 -0.0031192247 0.012547065 -0.0074234614 0.0130821215
-0.0016301444 0.006083055 0.0015445461 0.0036234134 0.007899564 -0.013787986 0.0017819218 0.007806999
0.00742739
00000000: 100b 25ba 0d16 ecbb 1502 6d3c 2cf3 343c
00000010: aa0b d33c 797f 8b3c 4765 093c c9c8 823c
00000020: a121 853a cb55 643c 4077 fcb9 27da 57bc
00000030: 8475 96bc c4d1 173c 1039 533c a903 853c
00000040: 919d 7e3b a5eb 443c e086 19bc fccb 6dbb
00000050: 8867 e7bb a24f 59bc a176 f23b 4826 35bc
00000060: ef9d 1abc 8e26 69bc 75a8 bebc 9f28 99bb
00000070: a77e 0c3b 5fa6 a8ba a711 863c 7120 1aba
00000080: ef9d 69bb b419 893c 51dc f03b b80b fcbb
00000090: d368 683c bf77 143a 9783 86bb 5d5f eabb
000000a0: 06e0 00bb e5df 0c3c f5ca 4dbb e868 4a3c
000000b0: f968 59ba 2252 9bbb f878 923c e39b 913b
000000c0: 8732 2ebc dbed 94bb 97d5 f63b f420 4f3b
000000d0: 8efd ae3b fc09 3cbc 4eb6 9d3b bae0 8cbc
000000e0: 5881 cebc d875 b23b c15b 87bb 3116 333c
000000f0: e86b 4cbb 3492 4d3c 8240 f3bb 6556 563c
00000100: 92aa d5ba 5d54 c73b 5e72 ca3a ca76 6d3b
00000110: 2c6d 013c 01e7 61bc 608f e93a dbd1 ff3b
00000120: 7761 f33b

batch_norm.running_mean f4 [73]
100.86077 7.014163 180.41095 100.65528 30.670473 201.55923 99.829445 17.132763
198.2302 96.7547 8.920344 10.3249235 4.337437 2.7881727 1.4933906 0.008538484
0.04269725 0.017439552 0.014139828 0.011249973 0.0118123405 0.05971676 0.012418285 0.002675508
0.01497834 0.01862029 0.00810328 0.028145531 0.046729326 0.012288138 0.019517615 0.028509412
0.008214972 0.03207068 0.01083433 0.02192271 0.012339153 0.026495678 0.03774601 0.010979158
0.019289348 0.011933395 0.024255488 0.017852249 0.031944793 0.025004739 0.012076758 0.023052882
0.019872725 0.01324789 0.0051380224 0.012023341 0.019097352 0.018427823 0.015435498 0.016873894
0.025079036 0.024274748 0.004443538 0.006431091 0.032933228 0.00941051 0.012768131 0.044145957
0.021631964 0.015173002 0.23668861 0.45137408 0.31193733 0.8899801 0.11001993 0.7357151
0.26428494
00000000: b7b8 c942 0674 e040 3469 3443 814f c942
00000010: 215d f541 2a8f 4943 ada8 c742 e60f 8941
00000020: ee3a 4643 6882 c142 bbb9 0e41 e332 2541
00000030: 49cc 8a40 6c71 3240 6c27 bf3f ffe4 0b3c
00000040: 50e3 2e3d 64dd 8e3c bdaa 673c cf51 383c
00000050: 8c88 413c 9099 743d 1076 4b3c 9357 2f3b
00000060: b667 753c 9489 983c 9fc3 043c 7591 e63c
00000070: 4067 3f3d 3054 493c 68e3 9f3c 928c e93c
00000080: 1798 063c 8c5c 033d 7982 313c 4197 b33c
00000090: 292a 4a3c 770d d93c 8f9b 1a3d ede1 333c
000000a0: b204 9e3c 4984 433c 72b3 c63c e13e 923c
000000b0: 8bd8 023d bdd6 cc3c 98dd 453c 66d9 bc3c
000000c0: 20cc a23c ae0d 593c db5c a83b 8cfd 443c
000000d0: 0d72 9c3c f2f5 963c 2ce5 7c3c 1f3b 8a3c
000000e0: 8d72 cd3c d6db c63c 199b 913b e7bb d23b
000000f0: fee4 063d 8a2e 1a3c 6c31 513c 64d2 343d
00000100: 8435 b13c 2f98 783c 805e 723e 811a e73e
00000110: 40b6 9f3e bcd5 633f 2152 e13d d357 3c3f
00000120: 5b50 873e

batch_norm.running_var f4 [73]
1524.7618 158.24503 2908.0854 446.2027 84.04283 2574.652 375.96344 18.602526
2173.1453 420.24774 4.401176 8.193461 5.238835 0.5968737 1.8165396 0.008519825
0.041956022 0.0173396 0.014111503 0.0112451585 0.011719233 0.05783637 0.012379765 0.002647225
0.014943788 0.01824009 0.008049244 0.02812302 0.046669338 0.012251785 0.01914134 0.0277629
0.008181988 0.03202561 0.010801424 0.021881068 0.01220408 0.024636274 0.035508983 0.010555052
0.019247023 0.011891648 0.022885064 0.017799819 0.031787362 0.024976492 0.012023472 0.023024641
0.019821342 0.012485418 0.0050926255 0.01166307 0.018545846 0.017917624 0.015390181 0.016833156
0.023834612 0.02412463 0.004379508 0.0063789543 0.03247604 0.009375847 0.012725993 0.04400342
0.020980058 0.015109071 0.17936201 0.25793698 0.21374677 0.09312935 0.09312935 0.20159489
0.20159489
00000000: 6198 be44 ba3e 1e43 5ec1 3545 f219 df43
00000010: ee15 a842 6fea 2045 52fb bb43 f9d1 9441
00000020: 53d2 0745 b61f d243 6fd6 8c40 6b18 0341
00000030: 89a4 a740 b7cc 183f 5f84 e83f bc96 0b3c
00000040: 14da 2b3d c70b 8e3c ef33 673c 9d3d 383c
00000050: 0702 403c d4e5 6c3d 7fd4 4a3c 117d 2d3b
00000060: cad6 743c 3e6c 953c fae0 033c 3f62 e63c
00000070: 5928 3f3d b6bb 483c 4dce 9c3c 056f e33c
00000080: bf0d 063c 492d 033d 75f8 303c ed3f b33c
00000090: 9ff3 473c 03d2 c93c de71 113d 19ef 2c3c
000000a0: efab 9d3c 30d5 423c 7579 bb3c edd0 913c
000000b0: 7733 023d 809b cc3c 19fe 443c 2c9e bc3c
000000c0: 5e60 a23c a38f 4c3c 0ae0 a63b 7616 3f3c
000000d0: 75ed 973c fbc7 923c 1927 7c3c b0e5 893c
000000e0: ce40 c33c 04a1 c53c fa81 8f3b 8c06 d13b
000000f0: 9905 053d 279d 193c af80 503c ee3c 343d
00000100: 5fde ab3c 098c 773c adaa 373e 5110 843e
00000110: 6fe0 5a3e 9aba be3d 9aba be3d e46e 4e3e
00000120: e46e 4e3e

fc1.weight f4 [10, 73]
0.0017421215 -0.049591277 0.009518528 -0.024415983 0.042804945 0.03653697 0.014480151 -0.025890958
0.025099715 -0.03486159 0.044684272 0.012778203 0.020443484 -0.018860461 0.08130525 -0.043836035
0.0009569282 0.04388655 -0.042307943 0.062924795 -0.011007313 -0.03314171 0.019010283 -0.02596521
0.014475803 -0.015525079 -0.0448192 0.003640552 0.033423822 -0.041291505 0.04145591 0.004936893
0.03548044 -0.025895137 0.023942867 0.023652459 -0.023717344 -0.019879447 -0.012867545 -0.0008346876
0.013142492 -0.029710311 -0.021198854 0.021965208 -0.031898107 -0.015600338 0.039418966 -0.041156676
-0.01285312 -0.015602452 -0.042459257 -0.00053959555 -0.044414684 -0.023932047 -0.026412608 0.04709208
0.03599036 0.031251047 0.028537864 -0.035096724 -0.007798089 0.013869016 -0.03339719 -0.000195203
-0.044059593 0.033724718 0.046233386 0.025275651 0.007873842 -0.0128443055 0.009742691 0.033717096
-0.019620625 0.014263521 -0.052249007 0.14927682 -0.028535046 0.11429522 0.037522975 -0.011190389
0.037374895 0.01366764 0.0118828295 0.055150338 0.00864497 -0.04262607 0.01840221 0.21150076
-0.021994347 -0.025147622 -0.046371505 -0.02753171 0.062642686 -0.014318831 -0.016029611 0.03469483
-0.03418917 0.042663023 -0.05205834 -0.046035077 -0.04548738 -0.040807564 -0.041118693 0.051176514
0.036347937 0.0014253369 0.0028777362 0.0045242696 0.012534055 0.043633644 0.03329582 0.025683576
0.0026988 -0.016621605 0.013381954 -0.013952687 -0.024424715 0.0014927984 -0.027616903 0.045401484
-0.043256275 -0.034997735 0.006806203 0.0021745705 0.015823377 0.017859332 -0.028293632 -0.03474231
0.022353655 -0.040092804 0.0037707372 -0.016471159 0.0038014438 0.020745626 0.02725143 0.056776606
0.02347951 -0.034460697 -0.0020794375 0.06607958 -0.0048751393 -0.052665338 -0.04827705 0.05148773
0.07847003 0.0013828893 0.05418274 -0.08425754 0.18600467 0.022773117 0.19956727 0.08484529
-0.027659707 0.09208816 0.018257063 0.015429924 0.016537262 0.05215515 0.010751997 0.04239757
0.013348904 0.012129779 0.005381403 -0.030600447 -0.026348107 -0.007518302 -0.042789932 0.046636328
-0.02466272 0.014045953 -0.01893526 -0.043969017 0.014762118 0.0030472493 -0.050716303 -0.00028205113
-0.013684701 0.027038945 0.005953839 -0.025163837 -0.018946223 -0.03196983 0.014924931 0.05795271
0.03642244 -0.042813666 0.021539908 0.014526977 0.001631132 0.009868857 -0.01363458 -0.04387207
0.03234657 0.04007939 0.029196046 0.042184882 0.005276686 -0.033295933 0.031243047 -0.021414442
0.035524033 -0.015792863 0.031438373 -0.03224682 0.06692529 -0.030878065 -0.009561198 -0.008196371
0.02473202 -0.06246617 -0.013145481 0.0012247162 0.06065182 -0.006519134 -0.011041072 -0.18094994
0.10879184 0.00021708666 -0.06736971 -0.004685177 -0.004354344 -0.016005937 -0.022274772 -0.009866436
-0.069534294 -0.021528961 0.018789941 0.010039133 0.011993887 -0.0021167893 0.037504207 -0.04741426
0.015352667 0.19548276 0.0140149025 -0.0357956 0.026031895 0.02529839 0.030082323 -0.03030735
-0.012411542 0.011739968 -0.020908356 0.007567263 0.032097753 0.009129696 -0.044827536 0.025433533
-0.022535587 0.036264215 -0.047163315 -0.022989724 -0.012470736 0.019468213 0.020389767 -0.016202932
00000000: e657 e43a 3920 4bbd 9af3 1b3c 0704 c8bc
00000010: 3d54 2f3d caa7 153d 283e 6d3c 4619 d4bc
00000020: eb9d cd3c 07cb 0ebd db06 373d ab5b 513c
00000030: 1879 a73c 4181 9abc 5e83 a63d 6a8d 33bd
00000040: 5dda 7a3a 62c2 333d 184b 2dbd b7de 803d
00000050: 0458 34bc 9abf 07bd 74bb 9b3c feb4 d4bc
00000060: eb2b 6d3c e75c 7ebc 5694 37bd 5496 6e3b
00000070: 6be7 083d 4821 29bd accd 293d a9c5 a13b
00000080: f053 113d 0a22 d4bc d523 c43c cdc2 c13c
00000090: e04a c2bc 39da a2bc 65d2 52bc f0ce 5aba
000000a0: 9b53 573c 0a63 f3bc 38a9 adbc 61f0 b33c
000000b0: 97a7 02bd 8f98 7fbc c875 213d e793 28bd
000000c0: e595 52bc 6da1 7fbc c2e9 2dbd a573 0dba
000000d0: 2cec 35bd 240d c4bc 415f d8bc a0e3 403d
000000e0: a16a 133d 1901 003d 3dc8 e93c 95c1 0fbd
000000f0: 1d87 ffbb df3a 633c 7ecb 08bd 68af 4cb9
00000100: d577 34bd ee22 0a3d 385f 3d3d e20e cf3c
00000110: 4901 013c ec70 52bc cf9f 1f3c f01a 0a3d
00000120: 6fbb a0bc 8bb1 693c 0e03 56bd 06dc 183e
00000130: 54c2 e9bc 9d13 ea3d b1b1 193d e557 37bc
00000140: 6b16 193d 3dee 5f3c 33b0 423c 52e5 613d
00000150: a2a3 0d3c ad98 2ebd 3bc0 963c a893 583e
00000160: 7d2d b4bc 6302 cebc 0cf0 3dbd 2e8a e1bc
00000170: cf4a 803d 8899 6abc 8850 83bc 2b1c 0e3d
00000180: f109 0cbd 6cbf 2e3d 203b 55bd 478f 3cbd
00000190: fa50 3abd d525 27bd 136c 28bd 779e 513d
000001a0: 93e1 143d 5fd2 ba3a 6798 3c3b 5340 943b
000001b0: a35b 4d3c 31b9 323d 3361 083d 5d66 d23c
000001c0: 5ade 303b 082a 88bc fc3f 5b3c d099 64bc
000001d0: 5716 c8bc 01aa c33a d83c e2bc e8f6 393d
000001e0: 7e2d 31bd c959 0fbd 9206 df3b 3d83 0e3b
000001f0: 07a0 813c bc4d 923c 0cc8 e7bc f44d 0ebd
00000200: 031f b73c 5a38 24bd 791e 773b 86ee 86bc
00000210: a521 793b bbf2 a93c 643e df3c 968e 683d
00000220: 1a58 c03c a926 0dbd 2c47 08bb bb54 873d
00000230: a2bf 9fbb 9cb7 57bd 28be 45bd cce4 523d
00000240: e5b4 a03d 1142 b53a b9ee 5d3d 388f acbd
00000250: 0278 3e3e b08e ba3c 5d5b 4c3e 5ec3 ad3d
00000260: 9c96 e2bc b898 bc3d d68f 953c cbcd 7c3c
00000270: 2779 873c a3a0 553d 2529 303c 13a9 2d3d
00000280: 5db5 5a3c fbbb 463c 7b56 b03b caad fabc
00000290: fcd7 d7bc 175c f6bb 7f44 2fbd bc05 3f3d
000002a0: 7909 cabc ff20 663c 1e1e 9bbc db18 34bd
000002b0: d0dc 713c 5cb4 473b e6bb 4fbd 43e0 93b9
000002c0: cc35 60bc c780 dd3c 6c18 c33b 6424 cebc
000002d0: 1c35 9bbc ccf2 02bd b387 743c d25f 6d3d
000002e0: b22f 153d 625d 2fbd 7674 b03c 8f02 6e3c
000002f0: b5cb d53a fdb0 213c 9363 5fbc 33b3 33bd
00000300: d67d 043d 492a 243d 8c2c ef3c 0eca 2c3d
00000310: 0de8 ac3b 5161 08bd 6bf1 ff3c 576d afbc
00000320: a681 113d 0960 81bc 86c5 003d 3e15 04bd
00000330: 2010 893d fff3 fcbc 92a6 1cbc 124a 06bc
00000340: ce9a ca3c 87dc 7fbd 2560 57bc a886 a03a
00000350: 0b6e 783d 769e d5bb 9de5 34bc f14a 39be
00000360: 42ce de3d c2a1 6339 21f9 89bd 1d86 99bb
00000370: e3ae 8ebb e21e 83bc 9579 b6bc d5a6 21bc
00000380: ff67 8ebd 815d b0bc 5ded 993c 2d7b 243c
00000390: 0282 443c d5b9 0abb 039e 193d 7535 42bd
000003a0: c189 7b3c a22c 483e c39e 653c 689e 12bd
000003b0: d740 d53c 923e cf3c 346f f63c 1f47 f8bc
000003c0: c859 4bbc ff58 403c 0048 abbc cef6 f73b
000003d0: ef78 033d b894 153c 149d 37bd fc59 d03c
000003e0: 8d9c b8bc c989 143d 522e 41bd f254 bcbc
000003f0: 0f52 4cbc cd7b 9f3c 7108 a73c 03bc 84bc

fc1.bias f4 [10]
0.06436667 0.08628785 0.018587865 0.049467 0.09570097 0.2024493 0.13689518 -0.030705899
0.006015794 0.009186399
00000000: acd2 833d afb7 b03d 9445 983c e99d 4a3d
00000010: dffe c33d df4e 4f3e 402e 0c3e f08a fbbc
00000020: 2320 c53b 8d82 163c

fc2.weight f4 [10, 778]
0.073355325 0.16420762 0.18000989 0.12456362 0.2323436 -0.17824635 -0.101198636 -0.0015265853
0.07542253 -0.029601451 -0.010478385 -0.047965642 0.01943323 0.039482124 -0.0008540521 0.048643306
0.016393049 0.04710531 0.037091948 0.07033688 -0.026608422 -0.0033840048 0.05355832 0.0014061305
0.009127311 -0.0049937046 -0.008717392 -0.013085025 0.0056489375 0.029591944 -0.07286416 0.002765626
-0.01990601 0.035586435 0.05593263 -0.02228526 0.044276148 0.04441898 0.02184387 -0.016851215
0.021758696 -0.016721673 -0.00976356 -0.0032227219 0.029727593 0.07188348 -0.057005454 -0.035819184
-0.046934564 -0.02680865 -0.028375918 0.012522084 -0.020636017 0.020480778 0.043531556 0.0020191679
0.049188018 -0.015015495 -0.011888263 -0.038479947 -0.0011444512 -0.056869797 -0.031037992 0.042625558
0.030293241 0.0007957872 -0.019366467 0.07094199 -0.0064217076 -0.03627003 -0.021890966 0.01017154
0.031072827 -0.0032508583 0.030203208 0.030322373 -0.015937861 -0.0056757866 -0.024735916 -0.0058716782
0.009451058 -0.032228485 -0.037251566 0.033575628 -0.091065876 -0.04295276 -0.012510095 -0.003208539
-0.0018159016 -0.007485225 -0.028289942 -0.010524671 -0.058331892 -0.039286204 0.037046112 0.018831955
0.074445985 0.053004187 0.013458187 -0.03963134 -0.00074031897 0.011111003 -0.024186902 0.0047826897
-0.010810569 -0.026620524 0.050000995 -0.035476122 0.013119127 -0.013292279 0.0006328537 -0.0070136297
0.025333894 0.012640958 -0.018819429 0.021196447 0.041912843 0.0066548954 -0.0024465502 0.03043021
0.0017874247 -0.03367973 0.0011228573 -0.0028187672 0.0048706867 -0.06890562 0.002724655 -0.03674908
-0.00874261 0.012271185 -0.007937775 0.007977645 -0.03026728 -0.019895392 0.019237444 -0.015607116
0.04631999 -0.003452714 0.0009915684 0.07051822 0.043826878 0.011411064 0.022433657 -0.0064705643
-0.028804665 0.031441536 -0.021028128 0.014829045 0.029070426 -0.062807344 0.031203648 0.04159745
0.020808138 -0.0044212397 0.04388958 -0.00064081885 -0.006681009 -0.03723535 -0.033851217 -0.0035517986
0.040625628 0.053486302 0.03748516 0.008992811 0.0014288517 -0.0014253876 -0.016555004 0.030805023
0.00797276 -0.0089428 -0.027850954 0.07815982 0.06362894 -0.034503333 -0.00071249664 -0.033738945
0.00707566 0.03775401 -0.04878663 -0.098136544 0.0046424107 0.045425057 0.079225205 -0.014560788
-0.008443004 -0.032808416 -0.02767398 0.00683567 0.0017292596 -0.02107541 -0.018543728 -0.063596256
0.02301274 -0.008026457 -0.07945544 0.015322202 0.01627252 0.0054092477 0.00600904 -0.04963348
0.012084348 -0.018367002 -0.012568333 0.025469039 -0.008655201 0.029225865 3.222269e-06 -0.036334716
-0.0009958718 0.0020912446 -0.0018067348 -0.0018006242 0.03310862 0.0017144419 0.032824073 0.012570425
0.008875851 -0.0041797427 -0.010977269 -0.0057457527 -0.007393621 0.012678912 0.019591667 0.011732805
-0.00953468 -0.003181583 0.032256115 0.012999246 -0.011801124 0.007450855 0.016256178 0.08015387
-0.03314628 0.014258524 0.0056890966 0.0022053446 -0.018828789 0.080463946 -0.01721756 -0.014908166
0.050455432 -0.009658662 -0.02535708 0.00493673 0.0019857478 -0.0073684324 -0.030643405 -0.016486036
0.0051379115 0.015743896 -0.019490112 -0.055771746 0.034153916 0.04599867 0.028817957 -0.031607192
00000000: 513b 963d 0b26 283e 8354 383e 361b ff3d
00000010: 7beb 6d3e 3686 36be 3b41 cfbd b417 c8ba
00000020: 2177 9a3d be7e f2bc 88ad 2bbc 9f77 44bd
00000030: 7032 9f3c 02b8 213d 77e2 5fba 343e 473d
00000040: b74a 863c 7ff1 403d baed 173d c80c 903d
00000050: e8f9 d9bc 2ec6 5dbb f85f 5b3d e94d b83a
00000060: b88a 153c 3ba2 a3bb 64d3 0ebc 9362 56bc
00000070: b91a b93b ce6a f23c ce39 95bd 813f 353b
00000080: ee11 a3bc 15c3 113d 9d19 653d 948f b6bc
00000090: e85a 353d adf0 353d eaf1 b23c 8f0b 8abc
000000a0: 4b3f b23c e4fb 88bc 57f7 1fbc 4d34 53bb
000000b0: 4887 f33c a537 933d 8d7e 69bd 23b7 12bd
000000c0: 753e 40bd d09d dbbc 9d74 e8bc 6d29 4d3c
000000d0: dd0c a9bc 4ec7 a73c 254e 323d 0454 043b
000000e0: 6079 493d 8d03 76bc fdc6 42bc 269d 1dbd
000000f0: 6901 96ba 4ef0 68bd 6343 febc 2398 2e3d
00000100: 8829 f83c 609c 503a 6da6 9ebc 094a 913d
00000110: 306d d2bb e28f 14bd af54 b3bc 88a6 263c
00000120: 718c fe3c 5a0c 55bb b86c f73c a066 f83c
00000130: 1e90 82bc f3fb b9bb faa2 cabc 3567 c0bb
00000140: 9cd8 1a3c 0402 04bd 1995 18bd 9986 093d
00000150: bf80 babd 3cef 2fbd 24f7 4cbc 5a46 52bb
00000160: 8c03 eeba 9e46 f5bb 4fc0 e7bc ab6f 2cbc
00000170: 6ced 6ebd 92ea 20bd aabd 173d 7945 9a3c
00000180: 2377 983d eb1a 593d ba7f 5c3c 7954 22bd
00000190: f711 42ba ed0a 363c 9c23 c6bc 1cb8 9c3b
000001a0: d01e 31bc 4913 dabc d8cd 4c3d 694f 11bd
000001b0: 9bf1 563c dcc7 59bc 18e6 253a 97d2 e5bb
000001c0: 0789 cf3c 051c 4f3c 342b 9abc 2ca4 ad3c
000001d0: cdac 2b3d 4f11 da3b 4d56 20bb c748 f93c
000001e0: 0548 ea3a c2f3 09bd d72c 933a 11bb 38bb
000001f0: 489a 9f3b 641e 8dbd 2090 323b 3486 16bd
00000200: 2a3d 0fbc 150d 493c 710d 02bc abb4 023c
00000210: 16f3 f7bc a9fb a2bc d897 9d3c fdb4 7fbc
00000220: 08ba 3d3d ee46 62bb 84f7 813a db6b 903d
00000230: d083 333d 79f5 3a3c cac6 b73c 0707 d4bb
00000240: c3f7 ebbc d7c8 003d 2e43 acbc 86f5 723c
00000250: 1a25 ee3c 23a1 80bd cb9e ff3c 1662 2a3d
00000260: d475 aa3c 0ce0 90bb 8fc5 333d a0fc 27ba
00000270: 5eec dabb 1884 18bd 93a7 0abd 4bc5 68bb
00000280: 0f67 263d 7414 5b3d 0a8a 193d 9556 133c
00000290: 4f48 bb3a 12d4 baba 5c9e 87bc d15a fc3c
000002a0: 2ea0 023c d284 12bc af27 e4bc 4112 a03d
000002b0: e44f 823d 5e53 0dbd d7c6 3aba d931 0abd
000002c0: f0da e73b f3a3 1a3d 7dd4 47bd d0fb c8bd
000002d0: 5d1f 983b a00f 3a3d d340 a23d 5f90 6ebc
000002e0: 8754 0abc 1e62 06bd 8bb4 e2bc c2fd df3b
000002f0: 53a8 e23a 57a6 acbc 04e9 97bc c13e 82bd
00000300: 3785 bc3c 6781 03bc 89b9 a2bd f909 7b3c
00000310: f34d 853c 0f40 b13b 7be7 c43b 7a4c 4bbd
00000320: 6efd 453c 6576 96bc 69eb 4dbc 72a4 d03c
00000330: 8bce 0dbc 156b ef3c 293e 5836 b6d3 14bd
00000340: ea87 82ba 430d 093b f6cf ecba ec02 ecba
00000350: e89c 073d 20b7 e03a 8972 063d 2ff4 4d3c
00000360: 046c 113c 39f6 88bb 01da 33bc de46 bcbb
00000370: 3046 f2bb 36bb 4f3c b47e a03c f33a 403c
00000380: 5937 1cbc 1b82 50bb fd1e 043d cafa 543c
00000390: 8059 41bc 4d26 f43b ad2b 853c b627 a43d
000003a0: 65c4 07bd 969c 693c 9a6b ba3b 8b87 103b
000003b0: d53e 9abc 48ca a43d d70b 8dbc 6141 74bc
000003c0: 5baa 4e3d 5d3f 1ebc a7b9 cfbc 4bc4 a13b
000003d0: 5223 023b e472 f1bb e107 fbbc b90d 87bc
000003e0: ed5b a83b 58f9 803c baa9 9fbc ea70 64bd
000003f0: fae4 0b3d 1a69 3c3d a313 ec3c 8b76 01bd

fc2.bias f4 [10]
0.0037698434 0.00084637763 0.008877616 -0.017185802 0.013577183 0.00812655 0.007313441 -0.00096709386
-0.015805762 0.005055101
00000000: 7a0f 773b 71df 5d3a 6c73 113c 3dc9 8cbc
00000010: d572 5e3c 3925 053c 97a5 ef3b 9284 7dba
00000020: 167b 81bc 43a5 a53b

fc3.weight f4 [1, 10]
0.93670666 0.77587515 0.21236795 0.67632025 -1.0237393 0.41875395 0.58006 0.24688746
0.27225658 0.13246709
00000000: 02cc 6f3f c19f 463f fc76 593e 5323 2d3f
00000010: e409 83bf eb66 d63e d07e 143f 11d0 7c3e
00000020: 3765 8b3e 74a5 073e
