model_sdadas/all_translate/model.pth (torch, 38506 bytes, 9 tensors)

batch_norm.weight f4 [73]
0	0x3ee8a182	0.4543572
1	0x3ed73ff7	0.4204099
2	0x3f163689	0.58676964
3	0x3ebd1d8d	0.36936608
4	0x3f1eb0cb	0.61988515
5	0x3f013716	0.5047468
6	0x3ed6eb1e	0.41976255
7	0x3ee539e5	0.44770733
8	0x3ecb3630	0.3968978
9	0x3ef9c4eb	0.4878305
10	0x3ed3c992	0.41364723
11	0x3eb450c8	0.3521788
12	0x3ed54b0a	0.41658813
13	0x3e9ac039	0.3022478
14	0x3f30e216	0.6909498
15	0x3ef861af	0.48512027
16	0x3ecd7f62	0.40136248
17	0x3ea82788	0.3284266
18	0x3eb9e74e	0.36309284
19	0x3f4462a1	0.76712996
20	0x3ebe99b2	0.37226635
21	0x3e263157	0.16229759
22	0x3f03316f	0.51247305
23	0x3eb08ae4	0.34480965
24	0x3f06a70f	0.5259866
25	0x3e3cd7ff	0.18441771
26	0x3eb40acb	0.35164484
27	0x3e878bf2	0.26473957
28	0x3e98cee9	0.2984536
29	0x3ec5e093	0.386479
30	0x3ec7d045	0.39026085
31	0x3d43509a	0.04768429
32	0x3ecb0331	0.39650872
33	0x3e5c138a	0.21491829
34	0x3de64a36	0.11244623
35	0x3ec65afe	0.38741297
36	0x3f1d4d8b	0.61446446
37	0x3ebe578d	0.3717617
38	0x3eb1d34d	0.34731522
39	0x3eb6cc6d	0.3570284
40	0x3ebc367d	0.3676032
41	0x3e03043a	0.12794581
42	0x3ed807c7	0.42193434
43	0x3a935e8c	0.0011243387
44	0x3ee38d14	0.44443572
45	0x3ecc6e9b	0.39928135
46	0x3ee78aba	0.45223027
47	0x3ec54236	0.38527077
48	0x3e6eb8ce	0.23312685
49	0x3e608d95	0.2192901
50	0x3f0f46b2	0.5596725
51	0x3ee79237	0.4522874
52	0x3edb6ea1	0.4285784
53	0x3ee54657	0.44780228
54	0x3e88aed9	0.26695898
55	0x3ea338db	0.31879315
56	0x3f1d433f	0.61430734
57	0x3eb2955c	0.34879577
58	0x3edbd42c	0.42935312
59	0x3ee9ce63	0.45665273
60	0x3edddd75	0.4333302
61	0x3e036c7d	0.12834354
62	0x3eb3b434	0.35098422
63	0x3edfd159	0.43714407
64	0x3e71276e	0.23550197
65	0x3c23ba22	0.009993108
66	0x3ea0163d	0.31266966
67	0x3e8be404	0.273224
68	0x3ebf26e9	0.37334374
69	0x3efe3a30	0.4965377
70	0x3ef14e68	0.47130132
71	0x3ed7770c	0.42083013
72	0x3ec4d101	0.38440707

batch_norm.bias f4 [73]
0	0x3d135826	0.035972737
1	0x3ca9cf76	0.020728808
2	0xbddff909	-0.109361716
3	0xbd604cbc	-0.05476068
4	0xbdecc26c	-0.115605205
5	0xbd600a99	-0.054697607
6	0xbcf7c334	-0.030244447
7	0xbd47557d	-0.048665512
8	0xbd7769be	-0.060403578
9	0xbcac2b1b	-0.021016648
10	0xbd80f411	-0.06296552
11	0x3c330350	0.010926083
12	0x3cd4d407	0.025980009
13	0x3c0b484e	0.0085011255
14	0xbdfd2633	-0.123608015
15	0x3ccdf661	0.025141897
16	0xbcb4c962	-0.022068683
17	0xbce15f55	-0.027511278
18	0xbcf41fb7	-0.029800279
19	0xbe1f6051	-0.15564086
20	0x3cd77996	0.026303094
21	0x3c58b4d6	0.013226708
22	0x3d432421	0.047641877
23	0x3d460db3	0.04835291
24	0xbc42571f	-0.011861592
25	0x3d268cc2	0.04066158
26	0x3c820b71	0.015874596
27	0xbca62020	-0.02027899
28	0xbc00025c	-0.0078130625
29	0x3d0c9608	0.03432277
30	0x3d5e55e9	0.05428115
31	0x38b7ee5a	8.7705164e-05
32	0xbc6fb4e0	-0.014630526
33	0x3d2c7466	0.042103194
34	0x3ca13ba8	0.019681767
35	0xbd3ffc34	-0.04687138
36	0xbc8c24b9	-0.017107354
37	0xbaa95974	-0.0012920336
38	0xbd67f4ae	-0.05662983
39	0xbc758845	-0.0149861025
40	0xbc6e6d3d	-0.014552412
41	0x3b019478	0.0019772332
42	0x3d693d08	0.05694297
43	0xb8ba60b9	-8.887187e-05
44	0xbd02d2f5	-0.031939466
45	0x3d64a5c4	0.05582215
46	0xbd65479c	-0.055976495
47	0x3d381f30	0.044951618
48	0xbd09124f	-0.033464726
49	0xbb064c6a	-0.0020492324
50	0x3ba6fb65	0.0050958865
51	0x3b458f31	0.0030145163
52	0x3d0c085f	0.03418767
53	0xbd1e86f6	-0.038702928
54	0x3c493a2b	0.012281935
55	0xbd30a115	-0.04312237
56	0xbd0bbc79	-0.03411529
57	0x3cda6beb	0.026662787
58	0xbcbed2d6	-0.023293894
59	0xbbd40acf	-0.006471015
60	0x3d439c1b	0.047756296
61	0xbba6e85d	-0.005093618
62	0xbd3ea683	-0.046545517
63	0x3c275896	0.010213992
64	0xbcf6da60	-0.030133426
65	0x3b8aa70b	0.004231339
66	0xbd04171d	-0.032248605
67	0x3ce4ffd9	0.027954029
68	0x3c978eb2	0.01850066
69	0xbc6c540b	-0.014424334
70	0x3c5fbd7a	0.013656015
71	0xbdb3cb57	-0.08779018
72	0x3da431e4	0.080173284

batch_norm.running_mean f4 [73]
0	0x42c078ff	96.23632
1	0x40e9c42a	7.305196
2	0x43341448	180.07922
3	0x42c49822	98.297134
4	0x41f4e970	30.613983
5	0x43472b72	199.16971
6	0x42cb6880	101.7041
7	0x418770a2	16.929996
8	0x434ae59e	202.89694
9	0x42c464e4	98.19705
10	0x4112163e	9.13043
11	0x4124bab5	10.295583
12	0x408e2365	4.4418206
13	0x4031f1a3	2.7803733
14	0x3fd169f3	1.6360458
15	0x3cb1b330	0.021691889
16	0x3c800bba	0.015630592
17	0x3c95fa03	0.018307691
18	0x3c2eaf42	0.010661902
19	0x3c39ef36	0.011348536
20	0x3ce04f4e	0.027381565
21	0x3caf0a6a	0.02136727
22	0x3c410cbe	0.011782823
23	0x3c8f22fc	0.017472737
24	0x3cafae49	0.02144541
25	0x3c1aa140	0.009437859
26	0x3bdda82c	0.0067644324
27	0x3cc0b9a2	0.023526017
28	0x3ca28df8	0.019843087
29	0x3c2ec564	0.010667179
30	0x3ccb8570	0.024843901
31	0x3ca5e34b	0.020249983
32	0x3c2d5239	0.010578685
33	0x3cbad46b	0.022806367
34	0x3ca104c6	0.019655596
35	0x3d711d36	0.05886575
36	0x3cc9c322	0.02462918
37	0x3cbb0cc3	0.022833234
38	0x3c8ad7b7	0.016948564
39	0x3c5997ea	0.013280848
40	0x3cce68aa	0.025196392
41	0x3c36c11d	0.01115444
42	0x3c931984	0.017956503
43	0x3d185783	0.037192833
44	0x3c7ce401	0.01543522
45	0x3b95e3c4	0.004574271
46	0x3cccc664	0.024996944
47	0x3bb1b6a8	0.0054233856
48	0x3c345af2	0.011008011
49	0x3cd194b8	0.02558361
50	0x3c969751	0.0183827
51	0x3ceac514	0.028658427
52	0x3cb5676b	0.02214404
53	0x3b81e9ba	0.00396463
54	0x3cc931b4	0.024559833
55	0x3c280eae	0.010257406
56	0x3c30d1e9	0.010792234
57	0x3d302d3a	0.04301188
58	0x3c9bea51	0.01903263
59	0x3cb0fa19	0.02160363
60	0x3c81dac4	0.015851386
61	0x3cdb177c	0.026744597
62	0x3d151880	0.03640032
63	0x3cc0e412	0.023546252
64	0x3c5a4c13	0.013323802
65	0x3cad8919	0.021183537
66	0x3e8b391b	0.27192006
67	0x3ee4e21b	0.44703755
68	0x3e8fe4ca	0.2810424
69	0x3f6b3e69	0.91892105
70	0x3da60cb8	0.08107895
71	0x3f3edae2	0.7455274
72	0x3e824a3c	0.2544726

batch_norm.running_var f4 [73]
0	0x44a7ac7b	1341.39
1	0x432909f7	169.03893
2	0x4531ecfd	2846.8118
3	0x43d0214c	416.26013
4	0x42a48bf0	82.273315
5	0x452f8bea	2808.7446
6	0x43c5765a	394.92462
7	0x41a2588b	20.293234
8	0x4504587e	2117.5308
9	0x43b0be36	353.48602
10	0x40893a3a	4.2883577
11	0x40ef1f7c	7.4725933
12	0x40d2e074	6.589899
13	0x3f0b648f	0.54450315
14	0x3ff25a7b	1.8933862
15	0x3cad5000	0.021156311
16	0x3c757eb7	0.014983824
17	0x3c95cb02	0.018285278
18	0x3c2e1429	0.010624924
19	0x3c39cd11	0.011340396
20	0x3cdff539	0.027338611
21	0x3cae9d03	0.021315103
22	0x3c3eddc0	0.011649549
23	0x3c8ed23f	0.017434238
24	0x3caf5fa1	0.021407904
25	0x3c1a4452	0.009415703
26	0x3bdbe3ef	0.0067105214
27	0x3cc08db9	0.023505079
28	0x3ca22ab0	0.019795746
29	0x3c2e5502	0.010640385
30	0x3ccb30eb	0.0248036
31	0x3ca529dd	0.020161564
32	0x3c2cc52f	0.010545059
33	0x3cb67676	0.022273283
34	0x3c9e3725	0.019313404
35	0x3d6541d7	0.055970993
36	0x3cc96651	0.024584921
37	0x3cacfd8f	0.021117
38	0x3c8a494b	0.016880652
39	0x3c56dc8d	0.013114107
40	0x3ccaa587	0.024737133
41	0x3c362729	0.011117735
42	0x3c8c6409	0.017137544
43	0x3d182eac	0.037153885
44	0x3c7b6442	0.015343728
45	0x3b94a83c	0.0045366567
46	0x3cc24924	0.023716517
47	0x3bb04912	0.0053798044
48	0x3c334611	0.010941998
49	0x3ccb6c22	0.024831835
50	0x3c96388f	0.018337516
51	0x3ce48baa	0.027898628
52	0x3cb446ba	0.022006381
53	0x3b81022f	0.003937028
54	0x3cc8bf80	0.024505377
55	0x3c24aca2	0.0100509245
56	0x3c2f1960	0.010687202
57	0x3d2f998e	0.04287105
58	0x3c9b94b6	0.01899181
59	0x3ca8bf91	0.020599158
60	0x3c7bc70e	0.015367283
61	0x3ccc123f	0.024911044
62	0x3d145ead	0.036223102
63	0x3cbf2fd9	0.023338245
64	0x3c53a4d8	0.01291772
65	0x3cad2a7c	0.021138422
66	0x3e454f2d	0.19268484
67	0x3e7c7993	0.24655752
68	0x3e55ae16	0.2086719
69	0x3d9b28c8	0.07576138
70	0x3d9b28c8	0.07576138
71	0x3e438ad6	0.1909593
72	0x3e438ad6	0.1909593

fc1.weight f4 [10, 73]
0	0xbec896cd	-0.39177552
1	0xbc4dd7d8	-0.012563668
2	0xbda643ed	-0.081184246
3	0x3de1440b	0.10999306
4	0xbdafd498	-0.08585471
5	0x3d1a8d64	0.037732497
6	0xbcd87769	-0.026424127
7	0x3d09b828	0.03362289
8	0xbd449462	-0.04799307
9	0x3dbc8dc4	0.09206727
10	0xbd5170d3	-0.05113299
11	0xbc9aeb74	-0.0189111
12	0xbd3c86ee	-0.046027116
13	0xbc7780a1	-0.015106351
14	0xbe8e1dae	-0.2775702
15	0x3e32a4df	0.17445706
16	0x3dce246c	0.10065541
17	0xbe348245	-0.17627819
18	0x3e0da2da	0.13831654
19	0xbe759b89	-0.23985113
20	0xbdd41a4c	-0.10356578
21	0xbd10d4a2	-0.035359032
22	0xbe974b6d	-0.29549733
23	0x3e346a25	0.17618616
24	0x3df18d84	0.1179457
25	0x3da48d57	0.08034771
26	0x3df6ba03	0.12047198
27	0x3d4ec53e	0.050481074
28	0xbd66b00c	-0.056320235
29	0x3e206df1	0.1566694
30	0xbe23e2d7	-0.16004501
31	0x3cd1a25a	0.02559011
32	0xbdb95791	-0.09049905
33	0xbdb5d702	-0.088789
34	0x3cc0a915	0.023518125
35	0x3e03f68f	0.12887023
36	0xbe906f98	-0.2821014
37	0xbe0264b1	-0.12733723
38	0xbe24e72e	-0.16103813
39	0x3dab24f6	0.08356659
40	0xbde4085d	-0.11134408
41	0xbd6b2f82	-0.057418354
42	0xbe9cfe85	-0.30662933
43	0xb70e2aaf	-8.473798e-06
44	0xbc220492	-0.009888785
45	0x3dcb9f01	0.09942437
46	0xbe5408ac	-0.20706433
47	0x3e59da36	0.21274647
48	0x3d87475e	0.06605409
49	0x3d29fa6a	0.04149858
50	0xbbc706e4	-0.0060738195
51	0x3e3e90f5	0.18609984
52	0x3d8d3e2e	0.068966255
53	0xbe1ed905	-0.15512474
54	0x3d39c52f	0.045354065
55	0xbdcb35c3	-0.099223636
56	0xbe12640d	-0.14295979
57	0x3df2b669	0.11851198
58	0xbdace319	-0.08441753
59	0xbd4fdb68	-0.05074635
60	0x3db0f66d	0.08640752
61	0xbb9f919e	-0.004869654
62	0x3d95f24b	0.07321604
63	0x3e43dadf	0.19126461
64	0x3d6d059a	0.05786667
65	0x3a85f773	0.001022084
66	0x3ded011a	0.11572476
67	0x3d2441e2	0.040101893
68	0xbe400ca1	-0.18754818
69	0x3e8b4549	0.27201298
70	0xbe8430ef	-0.25818583
71	0xbde99c54	-0.1140677
72	0x3dd566cf	0.1042
73	0x3dca96a4	0.09892014
74	0x3d58e4f4	0.05295272
75	0x3e423695	0.18966134
76	0xbd0b7f03	-0.034056675
77	0x3e4d31a8	0.20038474
78	0x3e5775ad	0.21040983
79	0x3e39a9ef	0.18131231
80	0x3e3f3d6e	0.18675777
81	0x3cb40cd7	0.021978779
82	0x3e81c454	0.253451
83	0x3cbec59b	0.023287585
84	0x3e83162e	0.2560286
85	0x3de43a33	0.11143913
86	0x3e6326a5	0.2218271
87	0xbda4dae6	-0.08049564
88	0xbd3125f8	-0.0432491
89	0x3e1b6f9f	0.15179299
90	0xbde4f3e4	-0.11179331
91	0x3b49acbf	0.003077313
92	0xbc8c018f	-0.017090587
93	0x3ddd83c2	0.108161464
94	0x3c9a535b	0.018838575
95	0xbe4b213a	-0.19836894
96	0xbdec92d6	-0.11551444
97	0x3e84f492	0.25967842
98	0xbcdefa6b	-0.027219018
99	0xbc5896a8	-0.013219513
100	0xb9490b05	-0.00019172959
101	0xbe1f181a	-0.15536538
102	0xbd159562	-0.036519416
103	0xbdf7e7fe	-0.12104796
104	0x3baefc0b	0.0053401045
105	0x3d048eee	0.03236287
106	0xbc56d87e	-0.013113139
107	0xbcf1d8a0	-0.02952224
108	0x3e020f13	0.12701063
109	0x3d713f89	0.058898482
110	0x3d28703c	0.04112266
111	0x3e387b70	0.18015838
112	0xbdb90dd3	-0.0903584
113	0xbe29a005	-0.16564949
114	0xbcdcf71f	-0.026973305
115	0x3d5b260d	0.053503085
116	0x383a3285	4.4392906e-05
117	0x3dbabcfc	0.09118077
118	0xbd00fb77	-0.031489816
119	0x3e2e7ef5	0.17040618
120	0xbd0e6a8f	-0.03476959
121	0x3d794a09	0.06086162
122	0x3e0d839c	0.13819736
123	0xbe7e99f5	-0.24863417
124	0x3e6ce682	0.23134807
125	0xbc3e5b24	-0.011618409
126	0xbe6faa62	-0.2340484
127	0xbc3c2948	-0.011484452
128	0x3dc733b3	0.09726658
129	0xbe3a13f3	-0.18171673
130	0xbdf451a8	-0.11929637
131	0x3dbb9bb1	0.09160555
132	0xbdd08d3d	-0.10183189
133	0xbdd87184	-0.105685264
134	0xbbd93a52	-0.006629267
135	0x3e2f87e1	0.17141677
136	0xbe0a7e5c	-0.13524765
137	0x3dbb0621	0.09132028
138	0xbb538fc6	-0.003228174
139	0xbd3851e6	-0.04499998
140	0xbd47a263	-0.04873885
141	0x3dae5b69	0.08513529
142	0xbe8562fe	-0.26052088
143	0x3e7d3873	0.24728565
144	0x3d939381	0.072058685
145	0xbd86cf82	-0.06582548
146	0x3b037462	0.0020058383
147	0x3e610464	0.21974331
148	0xbe229e76	-0.1588076
149	0x3e58605b	0.21130507
150	0xbe2babca	-0.16764751
151	0xbd6c1be3	-0.057643782
152	0xbe9cd625	-0.3063213
153	0xbd501735	-0.050803382
154	0xbb016b61	-0.001974784
155	0x3e27bb43	0.16380028
156	0xbaae4edc	-0.0013298648
157	0x3c5204e9	0.0128185535
158	0xbeedcf87	-0.46447393
159	0x3c215859	0.009847724
160	0x3e9c6495	0.30545488
161	0xbda3f4af	-0.08005654
162	0xbda41241	-0.08011294
163	0x3dcde6a1	0.100537546
164	0x3be104bf	0.006867021
165	0x3f070459	0.5274101
166	0xbe3f4405	-0.18678291
167	0xbd7349f7	-0.05939671
168	0xbe665345	-0.22492702
169	0xbcc04998	-0.023472592
170	0x3e31307e	0.17303655
171	0xbd1f3bf9	-0.038875554
172	0xbdd68338	-0.10474247
173	0xbd76feb6	-0.060301505
174	0x3e0bc075	0.13647635
175	0xbcf74642	-0.030184869
176	0xbe09837c	-0.13429064
177	0xbc8c4355	-0.01712195
178	0x3dc11b6a	0.09429057
179	0xbcfb36e8	-0.03066583
180	0xbcf4fc9b	-0.029905608
181	0x3e96690b	0.29377016
182	0x3e9154ad	0.28384915
183	0x3a899834	0.001049763
184	0x3d95a5d2	0.07307018
185	0x3e174607	0.14772807
186	0x3cdf0b1b	0.027226975
187	0x3d1cb9ee	0.038263254
188	0x3d728505	0.05920889
189	0xb9930b93	-0.00028046648
190	0xbdba4d4e	-0.09096776
191	0xbd4d5160	-0.050126433
192	0x3dfea120	0.12433076
193	0x3d91ec2e	0.07125126
194	0x3de6fa5a	0.112782195
195	0xbd8efb04	-0.06981471
196	0xbe0dc740	-0.13845539
197	0xbe713116	-0.23553881
198	0xbd2e64df	-0.042576667
199	0x3df8444f	0.12122404
200	0x3d0e932f	0.034808334
201	0xbb4bb41a	-0.003108269
202	0x3d1db3ac	0.038501427
203	0xbd46be83	-0.04852153
204	0x3e82ad0d	0.25522652
205	0xbdf3b1a2	-0.11899115
206	0xbe10494a	-0.14090458
207	0xbd850939	-0.064959
208	0xbd36f62e	-0.04466837
209	0x3dccaf3f	0.09994363
210	0xbb442197	-0.0029927248
211	0xbbd3b247	-0.0064604613
212	0xbd535b95	-0.05160101
213	0xbe6ac415	-0.22926362
214	0x3e8a829d	0.27052775
215	0xbe422824	-0.18960625
216	0x3e384f48	0.17998993
217	0xbc2bc060	-0.0104828775
218	0x3c1d08ee	0.009584649
219	0xbe2b1da1	-0.16710521
220	0xbe2365e1	-0.15956832
221	0xbd58732f	-0.052844223
222	0x3dbe0374	0.092780024
223	0xbd6446d3	-0.055731606
224	0xbdd3b9bb	-0.1033816
225	0x3c2da8d7	0.010599337
226	0xbdbc414e	-0.091921434
227	0xbe73cb34	-0.23807985
228	0x3dbce82a	0.09223969
229	0xbe7ea6c1	-0.24868299
230	0xbe321207	-0.1738969
231	0x3dddd31f	0.10831284
232	0xbe177ff9	-0.14794911
233	0xbe5a4a9f	-0.21317528
234	0x3e67aba7	0.22624074
235	0x3c7c1663	0.015386197
236	0xbcb8e117	-0.022568269
237	0x3e22a838	0.15884483
238	0xbe7751dd	-0.24152322
239	0x3d6e58f8	0.058190316
240	0xbd3836fe	-0.04497432
241	0xbe34694c	-0.17618293
242	0x3de89b40	0.113577366
243	0x3e29d35b	0.16584532
244	0x3d8ea612	0.06965269
245	0x3e5ac976	0.21365914
246	0x3be72028	0.007053394
247	0xbd52f110	-0.051499426
248	0x3e027a66	0.12742004
249	0xbd9429fd	-0.07234571
250	0x3a940827	0.0011293933
251	0xbe4bb7a3	-0.1989427
252	0x3cfbe449	0.030748503
253	0x3d49badd	0.049250472
254	0xbcad6e5b	-0.021170786
255	0xbe4f35a3	-0.20235305

fc1.bias f4 [10]
0	0xbd6d0a96	-0.057871424
1	0xbdab0be9	-0.08351881
2	0xbe3cfdb8	-0.18456161
3	0xbce1c6e0	-0.027560651
4	0xbd4f60e3	-0.050629508
5	0x3c86783c	0.016414754
6	0xbd303a19	-0.043024156
7	0xbe8b3c20	-0.2719431
8	0xbe9c5e22	-0.30540568
9	0xbe822af1	-0.25423387

fc2.weight f4 [10, 778]
0	0x3ebeae8c	0.37242544
1	0xbeb9d799	-0.362973
2	0xbedd19fe	-0.43183893
3	0x3eaf3fde	0.34228414
4	0x3eab933f	0.33510777
5	0x3eb99883	0.3624917
6	0x3ebfe247	0.37477323
7	0xbec0f80a	-0.3768924
8	0xbedc53b6	-0.43032616
9	0xbebbdaec	-0.36690462
10	0x3d14efb3	0.036361407
11	0xbd8a3dd1	-0.06750072
12	0xbce93655	-0.02846829
13	0x3bbe8292	0.005813905
14	0xbde56ba0	-0.112021685
15	0x3d6ba131	0.05752677
16	0x39ffd098	0.00048792805
17	0xbc0d6ffd	-0.008632657
18	0x3d6340e6	0.055481814
19	0xba018f28	-0.00049422914
20	0xbcad9490	-0.021189004
21	0xbc2a615c	-0.010399189
22	0xbb535425	-0.00322462
23	0xbd34dcd8	-0.044155926
24	0x3ccc1f15	0.024917165
25	0x3ceb0a4b	0.028691432
26	0x3cb0b1bc	0.021569125
27	0xbd9c8dd5	-0.0764424
28	0xbbf5e706	-0.007504347
29	0x3d90bcee	0.070672855
30	0xbd196b76	-0.037456
31	0xbce014a5	-0.027353594
32	0x3d60e319	0.054904077
33	0x3dbce2bc	0.09222934
34	0xbacda639	-0.0015689797
35	0x3c9d847c	0.019228213
36	0xbd931348	-0.07181412
37	0x3da81632	0.082073584
38	0xbd1a5217	-0.037675943
39	0xbd1942cb	-0.037417214
40	0xbc9ffb1d	-0.01952892
41	0xbcc05a30	-0.023480505
42	0x3d62d36a	0.0553774
43	0x3a70ff94	0.00091933575
44	0xbbacb42a	-0.0052705007
45	0x3d0b7b2f	0.034053024
46	0x3d7f15a8	0.062276512
47	0x3d38f364	0.04515399
48	0x3c3be5c3	0.011468354
49	0xbd7c5e88	-0.06161359
50	0xbac76015	-0.001521113
51	0x3e3f4d1c	0.18681759
52	0x3da6dc9c	0.08147547
53	0xbcd45c34	-0.025922872
54	0xbd4352d6	-0.04768642
55	0x3cae41a7	0.02127154
56	0xbc325b3c	-0.01088601
57	0x3bfc7804	0.0077047367
58	0xbc6c4b90	-0.014422312
59	0x3cc3c7da	0.023899008
60	0xbd41bd65	-0.04729976
61	0x3c9726bf	0.018451093
62	0xbd4b8457	-0.049686756
63	0xbd1877d2	-0.037223645
64	0x3dc794e6	0.09745197
65	0x3bb4f19a	0.005521965
66	0x3d4d8810	0.050178587
67	0xbb5056af	-0.0031789949
68	0xbd503d5b	-0.050839763
69	0xbca386f4	-0.019961812
70	0x3cef9acd	0.02924862
71	0x3e1ee9ef	0.15518926
72	0xbd24b6ac	-0.040213272
73	0xbd398c18	-0.04529962
74	0x3c576282	0.013146045
75	0x3cbe5bf4	0.023237206
76	0xbd980add	-0.07423947
77	0x3d8403c0	0.06446028
78	0xbb36b71b	-0.0027880135
79	0xbdb08861	-0.08619762
80	0xbbb508b3	-0.0055247187
81	0xbd1d38e8	-0.03838435
82	0xbd6da02a	-0.058014072
83	0xbd3635dc	-0.044484958
84	0x3b802bee	0.003911487
85	0x3cf31e2f	0.029677479
86	0xbd2764cf	-0.040867623
87	0xbd082096	-0.0332342
88	0xbde555b2	-0.11197986
89	0xbd0ec516	-0.034855925
90	0x3ca13b28	0.019681528
91	0xbd79060d	-0.060796786
92	0xbccd2db6	-0.02504621
93	0x3cc0d62f	0.02353963
94	0x3c9bee91	0.019034656
95	0xbc982c02	-0.018575672
96	0x3bd4f055	0.0064983764
97	0xbd495429	-0.049152527
98	0xbc6aa7fd	-0.014322278
99	0x3c08ec95	0.008357187
100	0xbd25544f	-0.040363606
101	0x39f502b6	0.0004673206
102	0x3c1d6d63	0.009608599
103	0x3c311c79	0.010810011
104	0x3c6771ed	0.014126283
105	0xbc1c7207	-0.009548671
106	0xbcbd8bda	-0.023137975
107	0xbd047a63	-0.03234328
108	0x3d55f921	0.05223954
109	0x3db091f7	0.086215906
110	0x3ba4f4df	0.0050340737
111	0x3c78008e	0.015136851
112	0xbda29bdf	-0.07939886
113	0xbca5ef91	-0.020255836
114	0x3cf9e340	0.030503869
115	0xbccf19f8	-0.025280938
116	0xbbc50c41	-0.0060134237
117	0xbc881b9d	-0.01661473
118	0xbdb2c9a6	-0.08729868
119	0xbda4816e	-0.08032499
120	0xbd963769	-0.073347874
121	0x3e1ffd59	0.15623988
122	0xbd8b8b29	-0.06813652
123	0xbc4273d9	-0.011868441
124	0xbc5fc8c1	-0.013658703
125	0x3c254b4d	0.010088754
126	0x3c5feb8e	0.013667
127	0xbaaa00d4	-0.0012970218
128	0x3cd48e55	0.025946775
129	0x3c8a267f	0.01686406
130	0x3d0928d2	0.033486195
131	0x3cf34c36	0.029699426
132	0xbdec0984	-0.115252525
133	0x3bd36e71	0.0064523746
134	0x3cc09083	0.023506409
135	0xbb65bec9	-0.0035056344
136	0x3d1074f6	0.035267793
137	0x3cc43b47	0.023954047
138	0xbb896ac7	-0.004193637
139	0xbdc99f38	-0.09844822
140	0xbc4b8b4f	-0.0124233505
141	0x3a644abb	0.00087086455
142	0x3c8dc843	0.017307406
143	0xbc49ff88	-0.01232899
144	0xbd2383c2	-0.039920576
145	0xbd15b3f2	-0.036548562
146	0x3ba564eb	0.0050474307
147	0x3b6a4935	0.0035749201
148	0x3bb45dba	0.005504337
149	0xbc2093f7	-0.009800903
150	0x3ac11746	0.0014731667
151	0xbcdcbcca	-0.02694549
152	0x3bf404d2	0.0074468637
153	0x3d1ab69c	0.037771806
154	0xbd2e07ff	-0.042488094
155	0x3c959f25	0.018264363
156	0xbd590865	-0.05298652
157	0x3d64e55f	0.055882808
158	0xbce56989	-0.028004425
159	0xbd41fb03	-0.047358524
160	0xbcb23468	-0.021753505
161	0x3b78ce45	0.0037964743
162	0xbd5cecc7	-0.053936746
163	0x3c8d0a7a	0.01721691
164	0xbd110c45	-0.03541209
165	0x3d5bb3f4	0.053638414
166	0xbbe167e2	-0.006878839
167	0xbbc0eebf	-0.0058878358
168	0x3d6966df	0.05698287
169	0x3dc4e04d	0.096130945
170	0xbd9af68f	-0.075665586
171	0x3d3c5bfc	0.04598616
172	0x3d9ee6e4	0.07758883
173	0xbd5c8b43	-0.053843748
174	0x3b9f7892	0.004866668
175	0xbd0904fe	-0.033452027
176	0x3db512c3	0.08841469
177	0xbca72509	-0.020403402
178	0x3d06abe3	0.032878768
179	0x3cf3f2d8	0.029778883
180	0x3c956fe6	0.018241834
181	0xbcb51b85	-0.022107849
182	0xbd01090b	-0.031502765
183	0xbc538814	-0.0129108615
184	0xbd3d59a0	-0.04622805
185	0xbd244c37	-0.040111747
186	0xbd9ca47c	-0.076485604
187	0x3b99f61f	0.0046985294
188	0x3d21f313	0.039538454
189	0xbc868bcd	-0.016424084
190	0x3cd3c88c	0.025852464
191	0xbcd60c46	-0.0261289
192	0xbd27cd3c	-0.04096721
193	0x3d23f0ea	0.040024675
194	0xbcb215a5	-0.021738837
195	0xbbde5c75	-0.006785924
196	0x3db1ed87	0.08687883
197	0x3c701319	0.014652991
198	0xbc7b2c55	-0.015330394
199	0xbd377c1b	-0.04479609
200	0x3b67c542	0.0035365378
201	0x3cf9b471	0.030481549
202	0x3bebba8c	0.007193869
203	0x3cbb522f	0.022866337
204	0x3cb7d3fd	0.022439951
205	0x3d7472e2	0.059679873
206	0x3e024577	0.12721811
207	0xbd09a626	-0.033605717
208	0x3d9e1b05	0.07719997
209	0xbcee4a30	-0.02908811
210	0x3d69f876	0.057121716
211	0xbd1bc5ae	-0.03803032
212	0xbd15ea6c	-0.036600515
213	0x3d9b386e	0.075791225
214	0xb8b3a1d7	-8.56553e-05
215	0xbd85ee72	-0.065396205
216	0x3aa9089d	0.0012896244
217	0x3d8a3efa	0.06750293
218	0x3c6f9df1	0.0146250585
219	0x3b7326cf	0.003710199
220	0x3d9d08dd	0.07667706
221	0xbcd0ccb2	-0.025488231
222	0xbcd099fd	-0.025464052
223	0x3d174d13	0.036938738
224	0x3d816eb7	0.06319945
225	0x3c404df8	0.011737339
226	0x3d503ad4	0.050837353
227	0xbd5726ee	-0.05252736
228	0xbcbe4cd6	-0.023229998
229	0xbcec2e7e	-0.028830763
230	0xbb3ecfbb	-0.0029115516
231	0xbd043652	-0.032278366
232	0xba47e95e	-0.0007626022
233	0x3da98680	0.08277607
234	0x3931ffea	0.00016975371
235	0x3c0d11cc	0.0086102
236	0xbd14b87e	-0.036308758
237	0xbdac8443	-0.084236644
238	0x3cee972c	0.029124819
239	0xbd0f63b3	-0.03500719
240	0xbd3dd4ec	-0.046345636
241	0xbd641633	-0.055685233
242	0x3b4edcfa	0.0031564818
243	0xbd1c6422	-0.03818143
244	0xbd4d13b3	-0.050067615
245	0xb9c320b7	-0.00037217673
246	0x3cb473a9	0.022027807
247	0xbca7de0c	-0.020491622
248	0xbbd5cda2	-0.0065247575
249	0x3a9bd264	0.0011888263
250	0xbba4e6e3	-0.0050324067
251	0xbd3fae8e	-0.046797328
252	0xbc1bbe53	-0.009505826
253	0x3b4cd750	0.0031256266
254	0x3dbb8940	0.09157038
255	0x3d2add99	0.04171524

fc2.bias f4 [10]
0	0xbd325b28	-0.043543965
1	0x3d353266	0.044237517
2	0x3cef0976	0.029179316
3	0x3d4d4fd9	0.050124977
4	0x3c8b850e	0.017031219
5	0x3cf7f580	0.03026843
6	0xbcdb3325	-0.026757786
7	0x3c66b271	0.01408063
8	0xbd41cf20	-0.04731667
9	0x3d30ef10	0.043196738

fc3.weight f4 [1, 10]
0	0xbf1f8b19	-0.6232162
1	0x3f2213c7	0.6331143
2	0x3ed5d2c7	0.41762373
3	0x3f37a657	0.7173819
4	0x3e7996ab	0.24373882
5	0x3eddcd30	0.43320608
6	0xbec412bf	-0.38295552
7	0x3e4e5fef	0.20153783
8	0xbf2d5d8b	-0.6772086
9	0x3f1e4494	0.6182339
