model_uncased/all_translate/model.pth (torch, 38506 bytes, 9 tensors)

batch_norm.weight f4 [73]
0	0x3e203115	0.15643723
1	0x3eba5771	0.36394837
2	0x3f2bbcf9	0.67085224
3	0x39f59ccd	0.00046846867
4	0x3f348094	0.70508695
5	0x3efb9b09	0.4914172
6	0x3e8308d8	0.25592685
7	0x3efb4588	0.49076486
8	0x3e9470df	0.28992364
9	0x3e48527b	0.19562714
10	0x3e9179ab	0.28413138
11	0x3eaf1bb4	0.34200823
12	0x3ecd5fd0	0.40112162
13	0x3eb28403	0.34866342
14	0x3f479b5a	0.7797142
15	0x3ebed601	0.37272647
16	0x3e9b0823	0.30279645
17	0x39aca796	0.00032931258
18	0x3e8f3977	0.2797353
19	0x3f34c4e9	0.7061296
20	0x3e0d7d50	0.13817334
21	0x3e3bbbc8	0.18333352
22	0x3d34dc7a	0.044155575
23	0x3ea561fa	0.32301313
24	0x3a256360	0.00063090585
25	0x37cff525	2.4790477e-05
26	0x3e22c728	0.15896285
27	0x392e52df	0.00016624805
28	0x394de375	0.00019635058
29	0x3c1beb95	0.009516616
30	0x3ae21524	0.0017248732
31	0x3b9b13a3	0.0047325655
32	0x3960cc4f	0.00021438416
33	0x38f8e5a1	0.00011868333
34	0x36313925	2.6408318e-06
35	0x3ed110d2	0.40833145
36	0x3f106e12	0.56417954
37	0x38314f65	4.227403e-05
38	0x3e864a0c	0.26228368
39	0x3c1fedf5	0.009761323
40	0x3e87c63f	0.26518437
41	0x3d23c5f4	0.039983705
42	0x3e0f65fa	0.14003745
43	0x3acf0a38	0.0015795892
44	0x395efccc	0.00021265744
45	0x3e933ce1	0.28757384
46	0x3df2f627	0.11863356
47	0x3e7416c4	0.2383681
48	0x3a61c3b0	0.00086122286
49	0x3dcc2bcb	0.0996929
50	0x3e81c01e	0.25341886
51	0x3c5808d3	0.013185698
52	0x3ddd7f0e	0.108152494
53	0x3e73e070	0.23816085
54	0x3b716b4b	0.0036837633
55	0x3de9bf7b	0.11413475
56	0x3edc2e5e	0.43004125
57	0x3cea9519	0.028635548
58	0x3ed77246	0.4207937
59	0x3a9a347f	0.0011764913
60	0x3e98556a	0.29752666
61	0x39a285e8	0.00030998816
62	0x3a28fe35	0.0006446571
63	0x3eb9d765	0.36297145
64	0x37f6cbef	2.942045e-05
65	0x38c5b8e0	9.428128e-05
66	0x3e71954d	0.2359211
67	0x3ea8a80e	0.32940716
68	0x3e57d184	0.21076018
69	0x3f15b0b0	0.5847273
70	0x3f107a25	0.5643638
71	0x3ef707a1	0.48248008
72	0x3ed8d694	0.4235121

batch_norm.bias f4 [73]
0	0xbd09e040	-0.033661127
1	0x3d269728	0.040671498
2	0xbdf2ca4d	-0.11854992
3	0xb6a6e3e4	-4.9737155e-06
4	0xbdff4c35	-0.12465707
5	0xbd84a462	-0.06476666
6	0xbbcf63cf	-0.006329037
7	0xbd848c77	-0.06472104
8	0xbd943979	-0.072375245
9	0xbbd9e433	-0.006649518
10	0xbd914c59	-0.0709464
11	0x3cd77043	0.026298648
12	0x3d75aedc	0.059981212
13	0x3cdd13b1	0.026986929
14	0xbe0de5eb	-0.13857238
15	0x3d5fff41	0.05468679
16	0x3d576855	0.052589733
17	0x38b8ab22	8.80568e-05
18	0x3d6a243b	0.05716346
19	0xbdad5937	-0.08464282
20	0xbcf3c2ac	-0.029755913
21	0xbc64ec64	-0.013972376
22	0x3a8354f8	0.001001983
23	0x3d860dfa	0.065456346
24	0xb7f94819	-2.9716686e-05
25	0xb753adbf	-1.26170335e-05
26	0x3cd497c6	0.025951277
27	0xb6ff00fc	-7.599707e-06
28	0x37bbaa05	2.2371309e-05
29	0x3b2cf9de	0.002639405
30	0x397f155d	0.00024326654
31	0x3a11cd8e	0.0005561941
32	0x387bfec0	6.0080318e-05
33	0xb7624bca	-1.3488296e-05
34	0xb5e1b2e9	-1.6815876e-06
35	0xbd0c60e4	-0.03427209
36	0xbd9b825b	-0.07593223
37	0xb5b1d861	-1.3250502e-06
38	0xbd7bcf6d	-0.061477114
39	0x3a917405	0.0011097199
40	0xbd4b178d	-0.049583007
41	0xbbcbcb0e	-0.0062192744
42	0xbc3b8df0	-0.011447415
43	0xb83c0296	-4.48251e-05
44	0xb71009da	-8.585363e-06
45	0x3d5de9f3	0.05417819
46	0xbc7f733d	-0.01559144
47	0x3d65049f	0.05591261
48	0x3840644b	4.5869772e-05
49	0xbcb9f845	-0.022701392
50	0xbca6995c	-0.0203368
51	0x3ad5ee60	0.0016321652
52	0xbcc2b120	-0.0237661
53	0xbd02104f	-0.031753834
54	0x3a02d309	0.0004990553
55	0xbc936d1f	-0.017996369
56	0xbd23da40	-0.04000306
57	0x3bd0a980	0.006367862
58	0xbd889002	-0.06668092
59	0x39bbe50b	0.0003583807
60	0x3d5ddf65	0.054168124
61	0x384b60c4	4.848909e-05
62	0xb90cad4c	-0.00013415999
63	0x3d80ee09	0.062954016
64	0xb74d6487	-1.2242358e-05
65	0x3791285a	1.7304137e-05
66	0xbd11cd0a	-0.03559593
67	0x3cb9585b	0.022625139
68	0x3c9d620c	0.019211791
69	0x3d1f7f9b	0.038940053
70	0xbd19f1dd	-0.037584174
71	0xbdf15818	-0.11784381
72	0x3dd3d910	0.10344136

batch_norm.running_mean f4 [73]
0	0x42bd7654	94.73111
1	0x4117bff9	9.484368
2	0x4330f73b	176.96574
3	0x42caf886	101.4854
4	0x41f0acf6	30.084454
5	0x43445dee	196.36691
6	0x42c671ef	99.22253
7	0x4185885b	16.69158
8	0x434a6f49	202.43471
9	0x42c6859a	99.26094
10	0x4111c132	9.109667
11	0x41254a30	10.330612
12	0x408da6df	4.42662
13	0x40328ab4	2.7897158
14	0x3fd5b541	1.6695939
15	0x3ce9a169	0.02851935
16	0x3ca03174	0.019554831
17	0x3ccc6c42	0.024953965
18	0x3d0511c1	0.032487635
19	0x3c63a6c3	0.01389474
20	0x3c17daca	0.009268472
21	0x3d025004	0.03181459
22	0x3c91c381	0.017793419
23	0x3caa63c6	0.020799529
24	0x3c2bbe08	0.010482319
25	0x3c39d6cc	0.0113427155
26	0x3cad6eb0	0.021170944
27	0x3c49226c	0.012276273
28	0x3c1a9bf4	0.009436596
29	0x3cb4eda0	0.022085965
30	0x3bdec2b6	0.0067981137
31	0x3c8e1589	0.017344253
32	0x3c09e856	0.00841721
33	0x3d0eabad	0.03483169
34	0x3bf36ceb	0.0074287555
35	0x3c3e0c1f	0.01159957
36	0x3cbebd78	0.023283705
37	0x3ce133ce	0.027490523
38	0x3cd5cef3	0.026099658
39	0x3cd6d06f	0.026222436
40	0x3c15029e	0.009094862
41	0x3c7baf66	0.015361642
42	0x3c2ee50d	0.010674727
43	0x3c87e65f	0.016589342
44	0x3cb56595	0.022143165
45	0x3cd447f7	0.025913222
46	0x3cf7056e	0.030153956
47	0x3c6de3a1	0.014519603
48	0x3ce6684c	0.028125905
49	0x3cf73cdb	0.030180385
50	0x3ca31c5d	0.019910986
51	0x3c8e673d	0.017383212
52	0x3c551b52	0.013007002
53	0x3bc58f71	0.0060290624
54	0x3cd07c19	0.0254498
55	0x3c07441d	0.008255986
56	0x3d055457	0.032551136
57	0x3bcc931d	0.006243123
58	0x3cc8abca	0.024495978
59	0x3d153ce9	0.03643504
60	0x3cc09e92	0.023513112
61	0x3c315744	0.010824028
62	0x3ca79d1b	0.020460656
63	0x3c2a9f8b	0.010414015
64	0x3d359c51	0.044338528
65	0x3cb899c6	0.022534262
66	0x3e9fc1d1	0.31202558
67	0x3ee78b35	0.45223394
68	0x3e7165f2	0.23574045
69	0x3f62fc07	0.88665813
70	0x3de81fbd	0.113341786
71	0x3f315bd2	0.6928073
72	0x3e9d485b	0.30719265

batch_norm.running_var f4 [73]
0	0x44bffa05	1535.8131
1	0x4369dcb1	233.86208
2	0x455180c1	3352.047
3	0x43edbca2	475.4737
4	0x42c1bf03	96.87307
5	0x450adb5e	2221.7104
6	0x43ceafc2	413.3731
7	0x41806549	16.049456
8	0x45218513	2584.3171
9	0x43a63377	332.40207
10	0x40a77a0a	5.2336473
11	0x40f6cba4	7.7123585
12	0x40cda674	6.426569
13	0x3f0fc2ac	0.5615642
14	0x3fe36b13	1.7767051
15	0x3ce97448	0.02849783
16	0x3c969e9c	0.018386178
17	0x3ccc355b	0.024927786
18	0x3cf48886	0.029850256
19	0x3c638ccb	0.013888548
20	0x3c172cb3	0.009226966
21	0x3d0142c9	0.031557832
22	0x3c88cb5b	0.01669853
23	0x3caa13a8	0.020761326
24	0x3c1e5b87	0.0096653765
25	0x3c39702f	0.011318251
26	0x3cacf52c	0.021113
27	0x3c480755	0.012208779
28	0x3c16ea5c	0.009211149
29	0x3cb4b3b0	0.022058338
30	0x3bdd66ae	0.006756625
31	0x3c8912f3	0.016732669
32	0x3c097617	0.008389971
33	0x3d0b0caa	0.033947624
34	0x3beac32c	0.0071643796
35	0x3c3a32fc	0.011364695
36	0x3cbe6bab	0.0232447
37	0x3cde684b	0.02714934
38	0x3cd5577a	0.026042689
39	0x3cd67e99	0.026183413
40	0x3c07b861	0.008283705
41	0x3c7add1f	0.015311508
42	0x3c2c986c	0.010534387
43	0x3c87a6e0	0.016559064
44	0x3cb4a8b0	0.022053093
45	0x3cd3d73d	0.02585947
46	0x3cece1c5	0.028916249
47	0x3c5d8d65	0.013522481
48	0x3ce3624f	0.027756838
49	0x3cf6b8a9	0.03011735
50	0x3ca2a12b	0.019852242
51	0x3c8e201f	0.0173493
52	0x3c545ee0	0.012962073
53	0x3bc4f333	0.006010437
54	0x3cc551a6	0.024086785
55	0x3c06c9e2	0.008226844
56	0x3cfb9914	0.030712642
57	0x3bc7b828	0.006094951
58	0x3cc6abe5	0.024251888
59	0x3d07f123	0.03318895
60	0x3cc02586	0.023455393
61	0x3c30ad82	0.010783555
62	0x3ca7539a	0.020425607
63	0x3c29cb7d	0.010363457
64	0x3d2cfce0	0.042233348
65	0x3cb6eb4f	0.022329
66	0x3e54493c	0.20731062
67	0x3e7e20d7	0.24817215
68	0x3e33e779	0.17568769
69	0x3dd082cc	0.101811975
70	0x3dd082cc	0.101811975
71	0x3e63be12	0.22240475
72	0x3e63be12	0.22240475

fc1.weight f4 [10, 73]
0	0xbd5ca2e4	-0.053866282
1	0xbc8db19b	-0.017296603
2	0xbda1e92a	-0.07905801
3	0x390a60fd	0.00013196837
4	0xbdaa5133	-0.08316269
5	0xbc4f7de3	-0.012664291
6	0xbdbec401	-0.093147285
7	0xbc4cef0c	-0.012508165
8	0xbc31a46a	-0.010842422
9	0x3d003251	0.031297985
10	0xbc341fbe	-0.010993896
11	0x3c28d0ce	0.010303689
12	0xbd46ca5d	-0.048532832
13	0x3c3f6796	0.011682412
14	0xbe7ee0e8	-0.24890482
15	0x3e17bcad	0.14818068
16	0x3e07249e	0.13197562
17	0x38f0b0d8	0.000114770315
18	0x3dc0fc9f	0.09423184
19	0xbe5a5b8e	-0.21323988
20	0xbcef6b6e	-0.029226031
21	0xbc7db765	-0.015485619
22	0xbbca7b18	-0.0061792247
23	0x3de69723	0.11259296
24	0xb9488528	-0.00019123091
25	0xb68f5841	-4.272006e-06
26	0x3d88f36b	0.06687053
27	0x37c2b5d1	2.3211267e-05
28	0x37219cfa	9.632897e-06
29	0x3b61ecf9	0.0034473522
30	0xb990b899	-0.00027603356
31	0x3ae05623	0.0017115514
32	0xb88a8a09	-6.606064e-05
33	0xb879d345	-5.9562986e-05
34	0xb4fffe2c	-4.7682386e-07
35	0xbd20b9d8	-0.039239734
36	0xbe617017	-0.22015415
37	0x365dbb83	3.3040712e-06
38	0xbd8e3d87	-0.06945329
39	0x39b905af	0.00035290184
40	0xbd8b2ba8	-0.06795436
41	0xbc9f471c	-0.019443087
42	0xbc1bd770	-0.0095118135
43	0xb9f19e97	-0.0004608526
44	0xb6ae96d1	-5.2031614e-06
45	0x3de6634f	0.1124941
46	0xbcf62c95	-0.030050555
47	0x3d5fbfed	0.054626394
48	0x39b85160	0.00035155844
49	0xbc2251b0	-0.009907171
50	0x3afad429	0.0019136715
51	0x3b8be77c	0.0042695384
52	0x3a95970c	0.0011412813
53	0xbdab0091	-0.083497174
54	0x3a83ecce	0.001006508
55	0xbd25436f	-0.040347513
56	0xbe527583	-0.2055264
57	0x3c29558d	0.010335338
58	0xbde4ee41	-0.11178256
59	0x391b0ffc	0.00014787907
60	0x3db7ba5c	0.08971092
61	0x380ec7e0	3.4041586e-05
62	0x3948a96a	0.00019136598
63	0x3e03c38e	0.12867567
64	0xb74d78a1	-1.2247038e-05
65	0xb756625c	-1.2778295e-05
66	0xbdd0d7a0	-0.10197377
67	0x3cbd538b	0.023111125
68	0x3da0c7f6	0.078506395
69	0x3e65e63e	0.22451112
70	0xbe5de50a	-0.21669403
71	0xbe0bde64	-0.13659054
72	0x3df58c76	0.119896814
73	0xbd913722	-0.07090594
74	0xbd8215bf	-0.06351804
75	0xbd8b7864	-0.06810072
76	0x38a10ed7	7.6798424e-05
77	0xbd92baa7	-0.07164507
78	0xbd5e7313	-0.054308962
79	0xbd8bb84d	-0.06822262
80	0xbd5e09f9	-0.05420873
81	0xbd8a5d7e	-0.067561135
82	0x3d570029	0.052490387
83	0xbd8838de	-0.066514716
84	0xbd83732e	-0.06418453
85	0xbd075b83	-0.033046257
86	0xbd84519a	-0.06460877
87	0xbe996f8f	-0.29967925
88	0x3e24f1a0	0.16107798
89	0x3e04a513	0.12953596
90	0x3906a374	0.00012840127
91	0x3dd3c1ce	0.103397
92	0xbe81d7dd	-0.25360003
93	0xbd28b79f	-0.04119074
94	0xbd1060f7	-0.035248723
95	0xbba40bc2	-0.0050062845
96	0x3de80ae1	0.113302
97	0xb96a3443	-0.00022335448
98	0xb6992cb6	-4.5649604e-06
99	0x3d8165d4	0.0631825
100	0x37c669c1	2.3652685e-05
101	0x3617ef8c	2.2640188e-06
102	0x3b7c07fd	0.003845691
103	0xb99fa65e	-0.00030450796
104	0x3abe1c3e	0.0014504266
105	0xb88a5ad8	-6.597274e-05
106	0xb86778e7	-5.518729e-05
107	0xb50c5849	-5.2282536e-07
108	0xbcaddb25	-0.02122266
109	0xbde81957	-0.11332958
110	0x3683aab8	3.9239785e-06
111	0xbddd2c5a	-0.10799475
112	0x39877ec8	0.00025843666
113	0xbda41413	-0.08011641
114	0xbc9317ac	-0.017955624
115	0xbb52cc69	-0.0032165295
116	0xb9c6b964	-0.0003790363
117	0xb7337af6	-1.06978605e-05
118	0x3decbd4f	0.11559545
119	0xbd218df0	-0.039442003
120	0x3d994a1f	0.074848406
121	0x39a2b25a	0.0003103193
122	0xbca2e9b3	-0.019886827
123	0x3b86a85b	0.004109425
124	0x3b1e50f2	0.0024157134
125	0x3b6efa1b	0.0036464992
126	0xbd8f49c1	-0.06996489
127	0x3a7f6da9	0.00097438187
128	0xbd32671e	-0.04355537
129	0xbe49d24c	-0.19709128
130	0x3c2e5d48	0.010642357
131	0xbdf5b24f	-0.119969
132	0x39705d88	0.00022923027
133	0x3ddad0ad	0.10684333
134	0x3873c2e0	5.8117206e-05
135	0x395ec65d	0.00021245466
136	0x3e235afd	0.15952678
137	0xb74429ae	-1.1692215e-05
138	0xb79f10a1	-1.896202e-05
139	0xbdaa3ec1	-0.083127506
140	0x3c65ca67	0.014025307
141	0x3d9ffa47	0.078114085
142	0x3e7792af	0.24177049
143	0xbe6ef3b2	-0.2333515
144	0xbd891aea	-0.066945866
145	0x3d70b241	0.058763746
146	0xbbc8f4d4	-0.0061327014
147	0x3e082442	0.13295081
148	0xbe0e17c4	-0.13876253
149	0xb9129cec	-0.00013982103
150	0xbe15608f	-0.14587615
151	0xbdf8648b	-0.12128552
152	0xbd0d5408	-0.034503967
153	0xbdf8060d	-0.12110529
154	0xbd4ad0fc	-0.04951571
155	0x3d900754	0.07032648
156	0xbd45139a	-0.048114397
157	0x3e0ff829	0.1405951
158	0xbe1789d2	-0.14798668
159	0x3e11e5a6	0.1424776
160	0x3e7e27b5	0.24819835
161	0xbdc918d1	-0.098191865
162	0x3c9a9128	0.018868044
163	0xb88adac0	-6.621098e-05
164	0xbd20f784	-0.03929855
165	0x3e8ca64a	0.27470618
166	0xbc7896ac	-0.015172642
167	0x3c1b725c	0.009487715
168	0xbc8fa22f	-0.01753339
169	0xbdb148da	-0.086564735
170	0x386be61f	5.6242683e-05
171	0x36ec3968	7.040031e-06
172	0xbd5c3160	-0.053758025
173	0xb88712df	-6.440817e-05
174	0xb85ac4de	-5.2158597e-05
175	0xbaa95fc1	-0.0012922214
176	0x39ae403a	0.0003323572
177	0xbaa71e4a	-0.0012750116
178	0x37b81299	2.194317e-05
179	0xb67bbd9f	-3.7512289e-06
180	0x3570398e	8.949072e-07
181	0x3e5a52fd	0.2132072
182	0x3e2e15e8	0.17000544
183	0x37b9def4	2.215754e-05
184	0x3bd6e435	0.006557966
185	0x3b06baa1	0.0020558017
186	0x3dba29f4	0.09090033
187	0x3be4d3ae	0.006983242
188	0x3d3ecbc3	0.04658104
189	0xba7db3a0	-0.00096779503
190	0xb8ec2964	-0.000112610665
191	0xbce43843	-0.027858859
192	0x3ce00514	0.027346171
193	0xbce33148	-0.02773346
194	0xb9820388	-0.00024798163
195	0x3cab7c45	0.02093328
196	0xbdd5f9f5	-0.10448066
197	0x3a07a82e	0.0005174902
198	0xbcac4fa6	-0.021034073
199	0x3d88111e	0.0664389
200	0x3a10bb92	0.0005521114
201	0x3d01c639	0.03168318
202	0x3d7c1dc7	0.061551835
203	0xbbdfd906	-0.006831291
204	0x3e159d8e	0.14610884
205	0x391ccd30	0.00014953758
206	0xbd96b5c5	-0.073588885
207	0xb92b7d2e	-0.00016354464
208	0x36892455	4.0871478e-06
209	0x3c4fd496	0.012684962
210	0x35849fd1	9.881279e-07
211	0xb85a43d0	-5.2038406e-05
212	0x3d0c3dfb	0.034238797
213	0xbe08299c	-0.13297123
214	0x3d91d560	0.07120776
215	0xbe3350bd	-0.17511268
216	0x3e2d1238	0.16901481
217	0xbd322b1e	-0.04349815
218	0x3d1c64ee	0.03818219
219	0x3d553b92	0.052058764
220	0xbe556afe	-0.20841596
221	0x3ec7533b	0.38930687
222	0x393dea4f	0.00018111731
223	0x3ed1837f	0.40920636
224	0x3e8782b8	0.26466918
225	0x3db36332	0.087591544
226	0x3e874f38	0.26427627
227	0x3e4ac625	0.19802149
228	0x3cc58c92	0.02411488
229	0x3e46ad7b	0.19402115
230	0xbd9a5600	-0.075359344
231	0x3c8d7665	0.017268369
232	0xbd9b4bf2	-0.07582845
233	0xbdae73f1	-0.08518208
234	0xbd103d3e	-0.035214655
235	0xbcbb9ac7	-0.022900952
236	0xb89e0cd9	-7.53642e-05
237	0xbdcff852	-0.10154785
238	0xbd46a48c	-0.048496768
239	0x3d935062	0.07193066
240	0x3d8c7998	0.0685913
241	0xbc640966	-0.013918256
242	0xbdcb9a5d	-0.09941552
243	0x38ec0ad1	0.00011255372
244	0x3786d596	1.6073504e-05
245	0xbc99cbeb	-0.018773993
246	0x388acb20	6.618188e-05
247	0xb86d090f	-5.651364e-05
248	0xbb78687a	-0.003790407
249	0xba696697	-0.00089035317
250	0x3a3d9adc	0.00072328537
251	0xb9146160	-0.00014150655
252	0x36b60a3b	5.4252137e-06
253	0x35fb34dc	1.8716341e-06
254	0x3c2262d0	0.009911254
255	0xbc5ec651	-0.013597087

fc1.bias f4 [10]
0	0x3cfe9160	0.03107518
1	0x3dcdd11d	0.10049651
2	0xbcc64c6d	-0.024206365
3	0xbe53bc64	-0.20677334
4	0x3c344c16	0.011004468
5	0x3c3ee5e3	0.011651489
6	0xbe4cda3d	-0.20005126
7	0xbe2b5520	-0.16731691
8	0x3d6cbfd1	0.057800118
9	0x3c9c98cb	0.019115826

fc2.weight f4 [10, 778]
0	0xbbef66fb	-0.0073059774
1	0xbbfdf74d	-0.007750428
2	0x3bf75b71	0.0075487425
3	0x3c300abe	0.010744749
4	0x3c16d430	0.009205863
5	0x3c107d80	0.008818984
6	0x3c2b8c37	0.010470442
7	0x3c3664dc	0.011132445
8	0xbbf5699f	-0.0074893977
9	0xbbf0554c	-0.007334387
10	0x3a891c8e	0.001046078
11	0x3a7a7dcc	0.00095554884
12	0xba31ee4b	-0.00067875226
13	0xba3ce2cf	-0.0007205428
14	0x39b6c882	0.00034863135
15	0xbaa3ac49	-0.0012487258
16	0x37963233	1.790477e-05
17	0xb9a6e2f1	-0.00031831072
18	0x3adfdd21	0.0017079451
19	0x3ac2205e	0.0014810672
20	0xb977532a	-0.00023586737
21	0x3a9d8ba8	0.001201977
22	0x3a98a1f7	0.0011644949
23	0x3af6527d	0.0018792894
24	0x3adf5ef8	0.0017041853
25	0x3a91c278	0.0011120578
26	0x3a8d6018	0.0010786084
27	0x3acde63c	0.0015708874
28	0x3a8b38e4	0.0010621813
29	0x399725cb	0.00028829122
30	0xbaca4765	-0.0015432654
31	0xb9a28788	-0.00031000027
32	0xba87acc5	-0.0010351172
33	0xbaa7961d	-0.0012785826
34	0x39e989cc	0.0004454389
35	0xbadbd76d	-0.0016772576
36	0xbabf0bd0	-0.0014575664
37	0xb9bc6b98	-0.00035938318
38	0x3a0d457c	0.0005389077
39	0x3a46288f	0.0007559144
40	0x3aa6b3d1	0.0012718384
41	0x3b467977	0.00302848
42	0x3acaf371	0.0015483928
43	0x3a6dade2	0.0009066743
44	0xbad335aa	-0.0016114016
45	0x39bbe5d7	0.00035838663
46	0x3aa6d0fa	0.0012727075
47	0x398d9f08	0.00027012103
48	0xbabb2977	-0.0014279325
49	0x3b43a8dd	0.002985529
50	0xbac67647	-0.001514145
51	0xb9f0ada2	-0.00045905734
52	0xb9ff3e65	-0.00048683878
53	0x3b381514	0.0028088735
54	0xbb07d533	-0.0020726442
55	0xb9c1f4c1	-0.00036994184
56	0xb9dc2760	-0.00041991007
57	0xb92b3b7e	-0.00016329993
58	0xbac7ee35	-0.0015253486
59	0x39c9e50e	0.00038508367
60	0x3ac90a43	0.0015338141
61	0x3a7cea97	0.0009647994
62	0xb9fdec65	-0.00048432048
63	0xba468b09	-0.00075738184
64	0x3aaffc8c	0.0013426705
65	0x3baa0fe7	0.005189884
66	0xb9eed922	-0.00045556674
67	0xbaf879ce	-0.0018957199
68	0xb9e73623	-0.00044100088
69	0x3b049e64	0.002023601
70	0xba12779c	-0.0005587281
71	0xbaa344d7	-0.0012456429
72	0xbab4db1f	-0.0013798213
73	0xba9f7c37	-0.0012167756
74	0xbba56eb0	-0.0050485954
75	0x380b52c3	3.321726e-05
76	0xb7534235	-1.2591995e-05
77	0xbaf58efa	-0.0018734627
78	0x39910176	0.00027657644
79	0x37e06441	2.6749565e-05
80	0xba9e18f7	-0.0012061883
81	0x3a8dc598	0.0010816334
82	0x3aab08c5	0.0013048878
83	0x3b0a8e0b	0.0021141793
84	0xb90d8780	-0.00013497286
85	0x39d15b83	0.00039931768
86	0xbaf53746	-0.0018708489
87	0x394962da	0.00019205679
88	0xbaf11b1b	-0.0018394919
89	0xba99eb73	-0.0011743143
90	0xb924a044	-0.00015699962
91	0xbac7d885	-0.0015247023
92	0xb970d5e0	-0.00022967858
93	0xbad03572	-0.0015885069
94	0x3b880abd	0.0041516707
95	0x3a4d200a	0.00078249036
96	0xbaa95f4a	-0.0012922075
97	0xba2feb55	-0.00067107874
98	0x3afc76ae	0.0019261444
99	0xb87e2820	-6.059569e-05
100	0xb9ac8369	-0.00032904305
101	0xbb432080	-0.002977401
102	0xbab85355	-0.0014062921
103	0x3a99d4a9	0.0011736351
104	0x3a24eef7	0.0006291712
105	0x3a2a1492	0.00064880506
106	0xbad55293	-0.0016275219
107	0xb9896426	-0.00026205293
108	0xba5ff09f	-0.000854263
109	0xba2c728d	-0.00065783487
110	0xb9a044a4	-0.0003056872
111	0x3aa84365	0.0012837468
112	0x3a69948d	0.00089103804
113	0xbaf91183	-0.0019002411
114	0x3a467c67	0.0007571638
115	0xba054c78	-0.0005084942
116	0x3b3dcb43	0.0028960265
117	0xbb14587e	-0.0022635753
118	0xbb0e025d	-0.002166889
119	0x3a33acec	0.00068540755
120	0x39a0c6d2	0.0003066571
121	0xb9ef9367	-0.00045695456
122	0x3a3b790e	0.00071515224
123	0xb935eff4	-0.00017350895
124	0xba485ba1	-0.00076430483
125	0xb92dfe9e	-0.00016593418
126	0xbad3a0b5	-0.0016145917
127	0xb939e950	-0.0001772989
128	0xbaf3f640	-0.0018612817
129	0x3b89361c	0.0041873585
130	0xb8a6b995	-7.950064e-05
131	0x3a43ffb6	0.00074767636
132	0x3a5d111d	0.0008433031
133	0xba2497d2	-0.00062787265
134	0x3a4e8502	0.0007878096
135	0x3b330b7a	0.0027320073
136	0xb9e03249	-0.00042762075
137	0x3a4f06d4	0.0007897441
138	0x3a27480c	0.000638128
139	0x3adc66e2	0.001681533
140	0xb9eb38fd	-0.00044865152
141	0xbb8fac35	-0.0043845423
142	0xbaa6a21f	-0.0012713111
143	0x3a0af5f2	0.0005300931
144	0x3b1d48b5	0.0023999636
145	0x3a94c3b1	0.0011349824
146	0x3aea571d	0.0017878745
147	0xba7fd8af	-0.00097597664
148	0xbad24118	-0.0016041128
149	0xbb9581e5	-0.004562604
150	0xb9d4c7d7	-0.00040584683
151	0x3a721782	0.00092350703
152	0xb9637eda	-0.00021695663
153	0x39b4370a	0.00034373283
154	0x3b3d6cdc	0.0028903997
155	0xba52f158	-0.0008046827
156	0xbb4ac5e4	-0.0030940706
157	0xb9e744af	-0.00044110927
158	0x3a5b3e55	0.0008363475
159	0x3b494130	0.003070902
160	0x393aff5a	0.00017833468
161	0x3a7684bf	0.0009403936
162	0xb9b8326d	-0.00035132785
163	0x3afba0c8	0.0019197697
164	0xbb204bf2	-0.002445933
165	0x3adddbf9	0.0016926519
166	0xbafc606e	-0.0019254813
167	0xb9d7a57e	-0.00041131297
168	0xba87a8e6	-0.0010350018
169	0xbb23b5e3	-0.002498024
170	0x3a7e10c1	0.00096918276
171	0x3b829839	0.0039854315
172	0x3920889a	0.00015309677
173	0xbb011157	-0.0019694173
174	0xba55f36a	-0.00081615767
175	0xb9bd9add	-0.0003616427
176	0xba1dae31	-0.0006015031
177	0x39cc7c42	0.0003900249
178	0xbb115867	-0.0022177936
179	0x3ac1796c	0.0014760918
180	0xba267d4a	-0.0006351067
181	0xbaa43878	-0.0012529036
182	0xbab50217	-0.0013809827
183	0xbb232950	-0.002489645
184	0x3ae65808	0.0017573843
185	0x3a942455	0.0011302332
186	0xb9e0f609	-0.0004290792
187	0x36cb6384	6.0614566e-06
188	0x3b218885	0.0024648022
189	0x3a72e71e	0.00092660065
190	0xb9a0fe48	-0.00030707032
191	0x3a89d22f	0.001051491
192	0x3b037e55	0.0020064313
193	0xba6b737c	-0.0008981747
194	0xba117535	-0.0005548776
195	0x39ed6787	0.00045281296
196	0xbb4f80da	-0.0031662495
197	0xbb7cfa5e	-0.003860138
198	0x3b2f0b41	0.0026709589
199	0x3a3ab9bf	0.0007123015
200	0xbae5966d	-0.0017516144
201	0x3b1560bf	0.002279326
202	0x3ac1f522	0.0014797787
203	0xba65023f	-0.00087359914
204	0xbb40c109	-0.0029411933
205	0x3985e59f	0.00025538818
206	0xb8ab1a5d	-8.158826e-05
207	0xbab835ac	-0.0014054081
208	0xb8ff408a	-0.00012171369
209	0x3ad50292	0.0016251376
210	0x3aaccfa8	0.0013184445
211	0xb9cc3cd2	-0.00038955227
212	0xbb68d403	-0.003552676
213	0xbb11ec21	-0.0022265988
214	0x3a07d02f	0.0005180863
215	0xba0399c4	-0.0005020166
216	0xb990e6f7	-0.00027637903
217	0x3ae3c125	0.0017376287
218	0xbacc0810	-0.0015566368
219	0xbb40fb06	-0.0029446497
220	0x3af6c678	0.0018827459
221	0x38363d6a	4.3449378e-05
222	0x39458305	0.00018836193
223	0xbb1a08bb	-0.002350374
224	0x3976d55f	0.00023539875
225	0xb9e9f607	-0.00044624528
226	0xba303268	-0.00067213783
227	0xba8f7a63	-0.0010946508
228	0x3a5cefe1	0.0008428079
229	0xb9d8a3af	-0.00041320684
230	0x3afa1c22	0.001908187
231	0x3b5eef2a	0.0034017065
232	0xba983d60	-0.0011614971
233	0x3a77259f	0.0009427908
234	0x3a326420	0.0006805081
235	0x3a305dae	0.00067278265
236	0xbac137bb	-0.001474134
237	0x3b09ae24	0.0021008337
238	0x39f9b6b4	0.00047629105
239	0xba30d980	-0.0006746277
240	0xbb12dc47	-0.0022409128
241	0xba8a1664	-0.0010535237
242	0xba3f73f9	-0.0007303353
243	0xbb2fdac2	-0.002683327
244	0xbb246d40	-0.0025089532
245	0xbb84d41e	-0.0040536067
246	0x390881ee	0.00013018373
247	0x3ab3a6cb	0.0013706324
248	0xbb207c4a	-0.0024488145
249	0x3ab4d3ff	0.001379609
250	0x3af06b23	0.0018342476
251	0xba387d5f	-0.0007037725
252	0x3b32f361	0.002730571
253	0xbb002656	-0.00195541
254	0xbab9ab1f	-0.0014165378
255	0xbb0ddacd	-0.0021645308

fc2.bias f4 [10]
0	0xba248932	-0.0006276547
1	0xbc49a971	-0.012308464
2	0xbabe33a0	-0.0014511235
3	0x3ae04711	0.0017111023
4	0xbc4cf875	-0.012510409
5	0xbc9d1483	-0.01917482
6	0x3d022f7d	0.03178357
7	0x3ca2f21a	0.019890834
8	0x3cb945c8	0.022616282
9	0x3cb68875	0.022281865

fc3.weight f4 [1, 10]
0	0x3c7293f0	0.014805779
1	0x3e94a82f	0.29034564
2	0x3d0c3590	0.03423077
3	0xbd255430	-0.04036349
4	0x3e971891	0.2951093
5	0x3ee79623	0.45231733
6	0xbf3fef4e	-0.74974525
7	0xbef03bf7	-0.4692075
8	0xbf089367	-0.5334992
9	0xbf068e63	-0.52561015
