model_cased/all_translate/model.pth (torch, 38506 bytes, 9 tensors)

batch_norm.weight f4 [73]
00000000: 6940 3b3e 361d aa3c ee28 273f cf2a d73d
00000010: 6124 443f 106f f03e b544 fc3d 42bf e33e
00000020: 3725 853e cd0b 8a3c 1811 883e 1411 883e
00000030: 2dcb 2f3e 4952 823e 1c49 3b3f bc29 ef37
00000040: b06b c633 7acc 5a2d 075b a937 c64a 193f
00000050: 54e3 d330 5cdc f72f 13a0 9931 b5ae 6035
00000060: e35c 9e2d 8d0a 8a2d b481 3637 93e6 782c
00000070: 2bb7 b630 53b7 0634 b1f2 2137 6193 0b33
00000080: 7fd0 4037 9cbd d72f bf02 102c 9f38 3d39
00000090: a19c 0b3e f660 4c36 b4c6 2e2f 8ab4 a030
000000a0: 50e6 a83c 1e13 af33 f3f0 e033 c51a 152d
000000b0: 4f2f 743c 2196 ef39 c1f5 ab35 bc5a 9431
000000c0: 66f1 a730 6cdd 2333 9bb2 9d35 6e9a e92d
000000d0: a23c 4433 15a4 002d b416 582e d9b8 4e35
000000e0: f86c c139 253e 3731 3633 b23e 3bb1 2230
000000f0: 296a ae3c ab2d 812f 492b 2433 4be3 6f3e
00000100: f5e0 b331 d4e3 3d2e 047e 223e e308 193e
00000110: b79b ca3b ecd1 123f 9e28 193f 3c91 e33e
00000120: 8af4 e13e
0.1828629 0.020765882 0.6529683 0.10506212 0.7661801 0.46959734 0.12317792 0.44481856
0.26004955 0.01685133 0.26575541 0.2657553 0.17167349 0.25453404 0.7315843 2.8510454e-05
9.239682e-08 1.2437268e-11 2.0188758e-05 0.5987972 1.5416881e-09 4.5085613e-10 4.4710844e-09 8.3700735e-07
1.800377e-11 1.5693469e-11 1.0878244e-05 3.5370914e-12 1.3294302e-09 1.2546415e-07 9.652854e-06 3.24975e-08
1.1492636e-05 3.9242998e-10 2.0465155e-12 0.00018045538 0.13633968 3.0454808e-06 1.5895801e-10 1.1692844e-09
0.020617634 8.15255e-08 1.0474641e-07 8.4756134e-12 0.014903857 0.00045697487 1.2812017e-06 4.317682e-09
1.2219459e-09 3.8152777e-08 1.1749393e-06 2.6557614e-11 4.568995e-08 7.312391e-12 4.913288e-11 7.700997e-07
0.00036893017 2.666533e-09 0.34804696 5.9187116e-10 0.021290855 2.3497412e-10 3.8223593e-08 0.23426549
5.2351603e-09 4.3175977e-11 0.15868384 0.14944796 0.0061831134 0.57351565 0.598276 0.44446743
0.4413188

batch_norm.bias f4 [73]
00000000: 65a9 77bd 0890 7a3b 969f febd 31e6 29bd
00000010: 7066 15be 06d5 91bd 9981 37bd 4d35 8abd
00000020: 79fb 59bd 24c4 a63a 29ef 5ebd 03a1 75bc
00000030: 6f8a c7bc f138 6bbc 7c38 1ebe 2b55 3237
00000040: ee76 5333 2154 d12d 5300 1a37 5d57 05be
00000050: 6d7c b230 3f46 83af 7b17 2031 8cd4 f534
00000060: 7c18 01ae c334 032e 7463 8a36 735c f0ac
00000070: 2f65 8530 f2de 9833 c09f 10b6 c780 a032
00000080: 236e bab6 e9ff d52f cc52 02ad f0e4 1fb8
00000090: 6e64 2abd 03b8 a1b5 b9e4 47af fa72 1e30
000000a0: bf81 d5bb 84f9 40b3 a1e6 69b3 abd5 42ad
000000b0: bc17 95bb 0e23 3639 1aa6 13b5 d22f 6131
000000c0: ed06 44ae 7fdc 98b2 c1af e534 63b8 432d
000000d0: fc42 ca32 01ad 5d2d 2398 9b2e b242 d3b4
000000e0: 8443 d3b8 d120 1631 ee26 8abd 1dc3 3e2f
000000f0: 2ab9 cf3b e9d2 39af cc47 4ab2 c098 9a3d
00000100: 6c6d 9fb1 58d0 7f2d 64ae 4dbd 870f 8f3c
00000110: 68a3 9c3a 8261 f93d b012 02be 021b f6bd
00000120: a25c f43d
-0.06046428 0.0038232822 -0.12432782 -0.041479293 -0.14589858 -0.07120709 -0.04480133 -0.067484476
-0.05321834 0.0012723249 -0.0544273 -0.0149920015 -0.024358002 -0.014356838 -0.15451235 1.06294565e-05
4.923543e-08 2.379791e-11 9.179191e-06 -0.13021608 1.2986568e-09 -2.3878674e-10 2.3296411e-09 4.5789454e-07
-2.935295e-11 2.9832813e-11 4.1242984e-06 -6.831474e-12 9.705782e-10 7.118605e-08 -2.1550659e-06 1.8685013e-08
-5.5560536e-06 3.892631e-10 -7.408029e-12 -3.812177e-05 -0.041599683 -1.2048989e-06 -1.8180203e-10 5.7643457e-10
-0.006515711 -4.4930417e-08 -5.4459296e-08 -1.1075067e-11 -0.0045499485 0.00017369931 -5.5003477e-07 3.2768992e-09
-4.457139e-11 -1.7795399e-08 4.2782452e-07 1.1125409e-11 2.3546356e-08 1.260081e-11 7.075609e-11 -3.935034e-07
-0.0001007384 2.1846527e-09 -0.067457065 1.7349717e-10 0.006339212 -1.6900582e-10 -1.1774272e-08 0.07548666
-4.639949e-09 1.4541333e-11 -0.05021514 0.017463459 0.0011950554 0.12176801 -0.12702441 -0.1201687
0.11931731

batch_norm.running_mean f4 [73]
00000000: 43af c742 cc4b f640 9863 3343 8600 c642
00000010: 18f9 f341 6af7 4b43 22ea c942 64b2 8a41
00000020: cb80 4b43 9283 c842 5287 1241 53cc 2641
00000030: 2392 9240 6f2a 3440 88ba b83f d308 a83c
00000040: 1e3a 9f3c 4c15 9c3c f48c 463c 8a75 1a3c
00000050: 75e0 423c b9c5 ce3c e392 743b d995 933c
00000060: 68a4 a13c cc64 1a3c b8eb 3a3c 6927 173c
00000070: bf8c 103d 504b e93b c6e5 893c 25fe 8c3c
00000080: e436 a53c 2957 6c3c 6685 c83c e851 ff3c
00000090: 1cd1 083d dbb8 a43c e8f4 fa3c ceae 133c
000000a0: 46fb 7b3c 7b69 c53c c2e7 0c3d 6c92 933c
000000b0: 47be d63c f6a3 083d 61f5 833c 538a f93c
000000c0: c49c 143c 0a07 f73b 73e1 d63c a790 b03c
000000d0: f4ac 9c3c 6438 373c 14d8 a93c 71db 983c
000000e0: 31ee fd3c d41d 023d b9a4 9f3c 54a8 1e3c
000000f0: 8d2d 613c 50f0 c83b 0cae d43c f2bc 953c
00000100: b4cf 433d 82d1 743c 0421 843e 9d89 023f
00000110: 8297 6d3e 75f6 603f 604c f83d 87ad 403f
00000120: ea49 7d3e
99.84231 7.6967525 179.38904 99.00102 30.496628 203.96646 100.95729 17.337105
203.5031 100.25697 9.158037 10.424884 4.580339 2.81509 1.4431925 0.02051202
0.019436892 0.019053124 0.012118567 0.009427438 0.011894335 0.025240766 0.0037318997 0.018015789
0.019731715 0.009423446 0.011408739 0.009225705 0.035290476 0.0071195737 0.016833197 0.01721103
0.020167775 0.0144250775 0.024477672 0.031166986 0.033402547 0.020107677 0.030634359 0.009013845
0.0153797325 0.024098149 0.03440071 0.018014155 0.026213778 0.03335949 0.016108217 0.030461466
0.009070579 0.007538681 0.02623055 0.02155335 0.01912544 0.011182878 0.020732917 0.018659325
0.030997368 0.031766728 0.019487726 0.009683687 0.01374377 0.006132163 0.025961898 0.018278573
0.047805503 0.014942529 0.2580644 0.5099123 0.23202327 0.87876064 0.121239424 0.7526478
0.24735227

batch_norm.running_var f4 [73]
00000000: 0d34 c444 932f 5143 a23b 3845 13a8 9d43
00000010: 0e61 aa42 dc5c 1f45 fc7f c543 4660 9341
00000020: 69dd 1b45 8e65 c243 049f a140 8a8d ed40
00000030: 1f41 e840 a980 0a3f de9c d93f 0add a73c
00000040: 1a26 993c 32f2 9b3c efd1 453c bd5a 1a3c
00000050: c44c 423c 896b ce3c a638 6e3b 8850 933c
00000060: df93 9e3c 7d85 173c ea6c 3a3c 26c6 153c
00000070: 22f6 0b3d 0ff6 e33b 7150 893c 34d5 8b3c
00000080: 9d42 a23c 2d56 613c 76d2 c13c 19f0 f23c
00000090: 29be 043d c41a a43c cd73 fa3c 64ff 123c
000000a0: 07c5 683c dd15 c53c 380c 053d c857 933c
000000b0: dc56 d23c e385 fc3c e55f 833c 38d7 f83c
000000c0: 0fa7 123c 0d86 f53b 4281 d63c 7b46 b03c
000000d0: ac07 8b3c 86d7 363c 8e8a a93c 0a9c 983c
000000e0: 17a3 fd3c 10f9 fb3c 7fcf 9e3c f5ea 1d3c
000000f0: 3d2a 603c 93bc c73b 9f63 d33c d22c 953c
00000100: 6803 3c3d b5dd 733c bfa8 413e 43de 813e
00000110: f101 3b3e bb86 da3d bb86 da3d 664d 413e
00000120: 664d 413e
1569.6266 209.18584 2947.727 315.31308 85.18956 2549.8037 394.99988 18.422009
2493.8381 388.7934 5.050661 7.4235277 7.2579494 0.5410257 1.7000997 0.020491142
0.018694926 0.019036386 0.012073978 0.009421048 0.011859123 0.025197761 0.0036349683 0.017982736
0.01935762 0.009248135 0.011378506 0.009141481 0.034170277 0.0069568227 0.01676199 0.017069437
0.019807154 0.013753456 0.023659926 0.029655503 0.032407913 0.020032294 0.030572796 0.008972023
0.014207131 0.024058277 0.032482356 0.017986193 0.025676183 0.03082556 0.016036937 0.030376062
0.008950963 0.0074927867 0.026184682 0.021517983 0.016971432 0.011159783 0.02069595 0.018629093
0.030961556 0.03075841 0.019386051 0.009638538 0.013681945 0.006095478 0.025804339 0.018209849
0.045901686 0.014884402 0.18912028 0.25364885 0.1826246 0.10670229 0.10670229 0.18877181
0.18877181

fc1.weight f4 [10, 73]
00000000: 0273 9abd 3fac 403b 005f 88bd a4e0 51bd
00000010: 831a a0bd b437 ecbc d4f9 50bd f49a dfbc
00000020: 31e8 1ebd 8ebc 7e3b 72bd 22bd 1769 b0bc
00000030: 6f4a eabc e584 a7bc ccd9 81be c4d2 2d37
00000040: f797 4633 ba6b 3d2d ab8d 2e37 ee6e 42be
00000050: f23f 3130 2c1b ecae aec0 dd30 b4c8 cb34
00000060: 08c9 65ad fd29 782d 498c 9436 93e2 32ac
00000070: 50d8 0930 6aa7 7133 555c 55b6 8ea1 8532
00000080: 933f c9b6 1ecc 542f 254a 58ac e099 01b8
00000090: 7218 4bbd af73 a9b5 b389 c4ae 5c40 942f
000000a0: 97a5 1bbc c3db 2fb3 74a6 5fb3 7cb2 60ac
000000b0: 0b11 8cbb fddd 3739 5135 10b5 454e fd30
000000c0: 78fb 382f d4ab 11b2 8cb1 cb34 3a02 162d
000000d0: 808d b332 bf44 bf2c 4360 1a2e 6389 afb4
000000e0: a557 24b9 61aa b630 01f1 a8bd 5f71 992e
000000f0: 3bb6 033c 4b13 b3ae 5b10 962f a407 c93d
00000100: 579d 48b1 d3b7 c22b f850 78bd 3b49 e43c
00000110: e755 8b3a 265a 4e3e a742 57be b149 06be
00000120: f655 053e e6f0 443d ea3b 95bb e804 813e
00000130: 339d b33b 1261 973e 7aa5 393e 91a9 633c
00000140: 22d0 2f3e bb98 d13d f15c 1a3c 1a4c d63d
00000150: 095a 273e 61e5 4a3d b4a4 203e c19f d0bd
00000160: 9854 61b6 be46 7031 c2eb 05aa 9864 d0b5
00000170: dbe9 733d 9353 dcaf faa8 512f ba38 a7b0
00000180: 6bfc beb3 5079 602b 52d2 362c 2a4a c0b5
00000190: 3a4d da2a 605d 24b0 e996 72b2 17b2 1bb6
000001a0: f188 1831 df14 2036 9574 b6ae 7228 a6aa
000001b0: f41c 3038 18a7 ea3c 4725 0235 198b 172d
000001c0: 469b 05b0 08f7 f6ba 5da7 d430 2f69 8932
000001d0: 3598 2f2a fc87 953b b4a0 15b9 a4c0 b834
000001e0: abd1 52b0 4751 f92f 6d1b 9832 7318 bcb4
000001f0: cc0f 862d 1024 b031 6a8b e0ab 3742 5b2c
00000200: efca 1d34 380a e6b8 943f d4af 8afd ea3d
00000210: eac5 6aaf 2842 a9bb 8649 552e 021b 6332
00000220: 1989 84bd eb01 c2af c4db e7ac 63a3 223d
00000230: 080d 23bc 40da 98ba f2e5 71be 6157 7c3e
00000240: 1fda ee3d cc28 edbd 11dc 623c 3b5a aebb
00000250: 847a 893e 1974 dd3c cf4d a13e b882 1e3e
00000260: 1533 f13c 6027 163e 8078 be3d ffa2 0f3c
00000270: f8b3 c23d e236 093e 732a 8b3d b3bd 033e
00000280: 909f a8bd 348c 87b6 4018 bab1 0d66 ccab
00000290: 9fc3 27b6 c3dc 263d e34f 21b0 eba7 802f
000002a0: b8e7 b1b0 2a23 0fb4 d95f 53aa 566f 8e2b
000002b0: e303 cab5 3877 622b c05f 3db0 8e1c bbb2
000002c0: c676 18b6 2bc0 8bb0 3cc3 1936 6e1b d1ae
000002d0: 22d0 8629 3d7d 2338 01a4 313d cc0a 2335
000002e0: 6927 a62d 2c2b 01b0 430e 76ba 254b bf31
000002f0: 0246 4532 7c2b 8b2a 4145 a23b 62a6 26b9
00000300: 658a 0035 653d a4b0 c4b4 2430 89f5 9232
00000310: 11e3 9ab4 1ee9 8e2d 897e 6131 64c0 28ac
00000320: be76 85ac 4d62 4334 06c9 b9b8 c63a 27b0
00000330: 231b e23d 4236 7aaf 14e8 a8bb d560 192e
00000340: 47d8 9232 4a27 83bd 8829 56ae 9ac4 e9ac
00000350: c5c6 083d ba19 b8bc 69bb bcb9 a1f5 17be
00000360: d784 1e3e d936 fa3d db70 f8bd b0c5 743d
00000370: 7a40 30bc 8382 af3e 206b 1f3d 9fed cd3e
00000380: cb7e 7a3e 766a 4c3d d641 6d3e 76ac 193e
00000390: c81d ac3b 9dff 1c3e b09b 173d 2580 203d
000003a0: dc1f 133d 2fb2 39bd 5bf0 acb6 4052 1cb2
000003b0: 9b3d 36ad fc78 69b6 f279 0e3d b56e 5db0
000003c0: b135 5a2f 6c1b b5b0 87b2 b9b4 105e 6a2d
000003d0: 328f 6fad 506b e0b5 badb 912c 0354 38b0
000003e0: 761e 2cb3 ec77 d9b5 0171 ceb0 444d 0a36
000003f0: 08dd 72af 6f5c 5e2c c8c9 bb37 afa0 f73c
-0.07541467 0.0029399542 -0.06658745 -0.051239625 -0.07817557 -0.028835155 -0.051019505 -0.027295567
-0.038795654 0.0038869712 -0.03973145 -0.021534486 -0.028599946 -0.020449111 -0.25361478 1.0360676e-05
4.623868e-08 1.0767326e-11 1.0404193e-05 -0.18987629 6.4483097e-10 -1.0736864e-10 1.6134629e-09 3.7957727e-07
-1.3061781e-11 1.4106491e-11 4.427075e-06 -2.5421095e-12 5.014771e-10 5.6264447e-08 -3.1793218e-06 1.5556704e-08
-5.997668e-06 1.9353805e-10 -3.0736605e-12 -3.0899304e-05 -0.04958386 -1.262515e-06 -8.9375084e-11 2.6966773e-10
-0.009499929 -4.0945235e-08 -5.207262e-08 -3.1931393e-12 -0.0042744926 0.00017534937 -5.3721766e-07 1.8430418e-09
1.6824042e-10 -8.47918e-09 3.794088e-07 8.527007e-12 2.090269e-08 5.436179e-12 3.5101044e-11 -3.2696252e-07
-0.00015672909 1.3290667e-09 -0.08249093 6.977773e-11 0.008039053 -8.143405e-11 2.7296462e-10 0.098159105
-2.9193268e-09 1.3835551e-12 -0.060624093 0.02786695 0.0010630459 0.20151576 -0.2102152 -0.13114049
0.13021073 0.0480813 -0.0045542615 0.25199056 0.005481386 0.29566246 0.1812953 0.013895408
0.1716924 0.10234209 0.009421573 0.10463734 0.1634294 0.04953516 0.1568783 -0.10186721
-3.3576853e-06 3.4964809e-09 -1.1894568e-13 -1.5526484e-06 0.059549194 -4.007715e-10 1.9068472e-10 -1.2166972e-09
-8.893479e-08 7.974914e-13 2.5980507e-12 -1.4326699e-06 3.8778166e-13 -5.9795546e-10 -1.4120567e-08 -2.3200462e-06
2.2196753e-09 2.3854006e-06 -8.297111e-11 -2.9515588e-13 4.1988635e-05 0.02864413 4.848302e-07 8.614242e-12
-4.8605775e-10 -0.0018841932 1.5472598e-09 1.5996731e-08 1.559593e-13 0.0045633297 -0.00014269614 3.4412835e-07
-7.669551e-10 4.5350587e-10 1.77076e-08 -3.5035518e-07 1.5241051e-11 5.126374e-09 -1.5954852e-12 3.1158528e-12
1.4695591e-07 -0.00010969158 -3.860775e-10 0.1147414 -2.1352489e-10 -0.005165357 4.8495895e-11 1.321928e-08
-0.06471462 -3.5289757e-10 -6.5898138e-12 0.0397066 -0.009951837 -0.0011661723 -0.23622873 0.24642707
0.11662697 -0.11580047 0.013846413 -0.005320815 0.26851285 0.027032899 0.31504676 0.15479553
0.029443303 0.14663458 0.09300327 0.008766889 0.095069826 0.13399842 0.06795206 0.12865333
-0.08233559 -4.0396353e-06 -5.4160694e-09 -1.4523397e-12 -2.4998806e-06 0.04073788 -5.8684985e-10 2.3402377e-10
-1.2944303e-09 -1.3330705e-07 -1.8773818e-13 1.0120609e-12 -1.5051304e-06 8.045678e-13 -6.889387e-10 -2.178265e-08
-2.27189e-06 -1.0168199e-09 2.2912418e-06 -9.509092e-11 5.986901e-14 3.8978866e-05 0.043369297 6.0737943e-07
1.8889517e-11 -4.699128e-10 -0.00093862804 5.5673746e-09 1.1482827e-08 2.4721533e-13 0.0049521034 -0.00015892976
4.7885106e-07 -1.195002e-09 5.9919736e-10 1.7108293e-08 -2.8849948e-07 1.6247056e-11 3.2813736e-09 -2.3981034e-12
-3.7932704e-12 1.8196552e-07 -8.858931e-05 -6.083777e-10 0.11040332 -2.2756644e-10 -0.005154619 3.4874176e-11
1.7094989e-08 -0.06403978 -4.8694854e-11 -6.6440855e-12 0.033392686 -0.022473205 -0.00035997786 -0.14839794
0.15480362 0.122174926 -0.121309005 0.059758842 -0.01075756 0.3427926 0.03892052 0.40220353
0.2446243 0.049906217 0.23169646 0.15007195 0.0052525736 0.15331884 0.03701371 0.03918471
0.035919055 -0.045335945 -5.1539805e-06 -9.099097e-09 -1.0359181e-11 -3.4790128e-06 0.034784265 -8.0556656e-10
1.984606e-10 -1.3177277e-09 -3.458883e-07 1.3322246e-11 -1.3617373e-11 -1.6720533e-06 4.1455424e-12 -6.70582e-10
-4.0074575e-08 -1.6202662e-06 -1.502059e-09 2.0608577e-06 -2.2088298e-10 3.1599408e-12 2.2386099e-05 0.030227987

fc1.bias f4 [10]
00000000: 0fa3 f23d abce 413d 1d46 ccbc f185 09be
00000010: 811a 113e 688b d8bc eb2f 1b3e 7a02 19be
00000020: 21dc 83bc 4c1d 3d3e
0.11847507 0.047316235 -0.024935776 -0.13430001 0.14170267 -0.026433662 0.15154998 -0.14942351
-0.016096177 0.18468207

fc2.weight f4 [10, 778]
00000000: a94a 6cbe 5f4f 9b3e 6c57 8b3e 4078 ad3e
00000010: 9f7f 77be 9d6f ac3e 9ef2 78be 4820 ab3e
00000020: 19df a73e ece1 80be cc00 c5bc f4d4 82bd
00000030: 53db 723d 478b 923d cfaf 7bbd 6e4f 273d
00000040: 36e5 fc3c b064 883d 627b 5f3d 6624 ee3d
00000050: 58d6 6bbd 614f 1ebc 7ce5 963d 1e3f 9c3c
00000060: 8a5c 2a3d 4998 c2bc f84b 7a3b 4da3 933c
00000070: 1f94 5d3c 373d 203d 0eba 52bd 7ac7 65bb
00000080: 320d e7bc 704b 053d 95bb a23d 8c91 dcbc
00000090: ddeb a23d 1bda 2f3d 37a2 983d a3c6 0dbd
000000a0: fe5b 053d 5fe0 2dbb 8a25 9cbc 5839 15bc
000000b0: 994b 603d 822c 013e 928b c2bd 763b 97bd
000000c0: 14b7 d1bd c460 0bba ef78 1fbd 969a 46bc
000000d0: fe10 0ebd 7a64 903c bd74 1a3d 164b 4b3c
000000e0: 4460 b73d 4fed e0bc a437 35bc e195 a6bd
000000f0: b44e 083c ec58 b8bd d9ea 69bd e8a9 363d
00000100: fcf0 993c c4a5 b63a 6f12 fbbc a4ae fe3d
00000110: 4748 bdbb 3036 a0bd bd4d 2dbd dc74 9b3c
00000120: 042b 903b 3d20 3e3c 2ca1 ef3c 2822 983d
00000130: 1092 9abb c416 8a3c 189a a3bb 08b4 9a3c
00000140: b7b3 a13b a904 c7bc 5fb5 4fbd 2871 7e3d
00000150: f7fb f8bd 660f dcbc 9d01 21bd 654c 22bc
00000160: 7718 bdbc 7252 8a3c 7f4b 41bc e28b 8c3c
00000170: 88cc e6bd 91b4 ae3a 49a3 b63b d915 113d
00000180: 24f5 123e bc4e 963d aba0 913a 8e5f 0dbd
00000190: bf75 f23c b482 e53c 1cf8 76bc b7aa d13b
000001a0: 0658 1abd 7fa5 dcbb a64a b13d 9696 fdbc
000001b0: 68fa 533d 99cd 83bc c8d6 e9bb 4c63 21bd
000001c0: 2b23 523d 5c6a 973c a3a0 5ebd fd35 4f3d
000001d0: 936e ac3d c246 713c 80ae 0c3d ca1a e73b
000001e0: d6aa 2fba c67c 20bd 9807 6fbc 4c85 f0bc
000001f0: 2cc0 953d ba8e e1bd 060b 483c 4366 82bd
00000200: 053f eebc 0c2e f53c f553 69bb 89c2 f13c
00000210: 7cd7 45bd 3ead 27bd cef6 9a3c 255e 27bd
00000220: df08 5a3d 536e cebc d19f ea3c b302 de3d
00000230: eab8 f33c 8cb8 e43c 56ac 723d 2922 c1bb
00000240: 4efa dd3a ec06 a83d 9bbe 0fbd 7c2b 1c3c
00000250: 41b4 6b3d 6a5e adbd c4a1 333d 362f b83c
00000260: 2ec5 aebc 796d 143d 9cf5 c93d 1aa5 043c
00000270: d667 123d 3633 d2bc a53f 37bd 98b1 403c
00000280: 2de6 483d 4254 6e3d dec4 643d a610 b6bc
00000290: 473b de3c 8742 dc3c 0df0 57bd dffc cd3c
000002a0: 597e 183d 4fd5 2ebd 9ced 32bd 1bf8 a33d
000002b0: 6032 963d dccf dabc 24d3 513c 5a0a c6bd
000002c0: f448 c43c 05d8 a33d c3db 25bd 53ec b6bd
000002d0: f5da d0bb 55e0 b43d 6881 e83d 1725 07bd
000002e0: 9434 b1bc 4709 19bd 2118 dfbc 403c 143d
000002f0: 13f2 203b b3f9 f13b 3c93 cebc 2238 94bd
00000300: 9cc5 623c a939 b93c fd35 d5bd c589 753c
00000310: 76b9 87bb 2245 e8bb c115 143d 7844 f3bd
00000320: 395b 84bc 7876 25bd 0395 39bd e395 973c
00000330: 1787 183d 6398 6f3c aff8 d7bc c17d efbd
00000340: 726e c53c 10e6 ab3c 767f b63c f5b1 a2bb
00000350: d25a 803d 57cb bb3c 0079 113d ebe5 f93c
00000360: aaae c43c 9aeb 713d f2cf cebc 36f6 133b
00000370: 1aa4 3abd 80cf 373d 7f70 a4bc ab31 f13c
00000380: 5ff6 f2bc 0b82 3abb 9d3b a93c 9fa2 743d
00000390: c2e5 b03c c6de 783c 7dc0 323d 4a95 183e
000003a0: 4430 90bd 271b bfba 0a61 0d3d f490 163d
000003b0: 4a74 96bc bbe1 e73d fb8b 6b3c 4ebe 6ebb
000003c0: 2b49 b43d 4336 1d3d baf4 c0bc 3710 013c
000003d0: 8f07 78bc 0826 e13b 657d 8dbd f66c 15bc
000003e0: 8043 443d fd58 00bb d687 8ebc 93cd 0dbe
000003f0: 2d33 623d 6129 bc3c 3a1f 77bb 587e babb
-0.23075356 0.30333993 0.27215135 0.33880806 -0.24169777 0.33678904 -0.24311301 0.33423066
0.32787398 -0.25172365 -0.024048232 -0.06388274 0.059291195 0.07155471 -0.06144696 0.040847234
0.030871015 0.066598296 0.054561026 0.11628036 -0.05757746 -0.00966248 0.073679894 0.019073065
0.04159216 -0.023754256 0.0038192254 0.018022204 0.013524084 0.03912088 -0.051446967 -0.0035061524
-0.028204534 0.032542646 0.07945935 -0.02692487 0.079551436 0.04293261 0.07452815 -0.034613263
0.032558434 -0.002653144 -0.019060869 -0.00910791 0.054759596 0.12614635 -0.09499277 -0.07384388
-0.102399975 -0.00053168484 -0.03893369 -0.012121817 -0.034684174 0.017626036 0.037708987 0.012408039
0.08953908 -0.027456908 -0.011060629 -0.08134056 0.008319546 -0.090013355 -0.057108734 0.04459563
0.018791668 0.00139349 -0.030648438 0.12435654 -0.0057764384 -0.078228354 -0.042310465 0.018976621
0.004399659 0.011604366 0.029251657 0.0742839 -0.004717119 0.016856559 -0.0049927346 0.018884674
0.0049347538 -0.024294214 -0.05071008 0.062119633 -0.121574335 -0.026862811 -0.03930818 -0.009905909
-0.023082955 0.016885016 -0.011797785 0.017156545 -0.1126948 0.001332896 0.0055736643 0.035421226
0.14351326 0.07339236 0.0011110505 -0.034514956 0.029597161 0.028016426 -0.015073802 0.0063985246
-0.037681602 -0.006733596 0.08656816 -0.030955594 0.051752478 -0.016089248 -0.0071361996 -0.039401338
0.05130307 0.018483333 -0.054352414 0.050588597 0.08419528 0.014726343 0.034346104 0.007052754
-0.0006701177 -0.039181493 -0.014589213 -0.029360436 0.073120445 -0.11013551 0.012209659 -0.06367161
-0.029082784 0.029929183 -0.003560302 0.029511707 -0.048301205 -0.0409367 0.018916514 -0.040861268
0.053231116 -0.025199091 0.02864066 0.108403586 0.02975126 0.02792003 0.059246384 -0.005893965
0.0016935559 0.08204445 -0.035093885 0.009531852 0.05754495 -0.08465274 0.043855444 0.02248345
-0.021334257 0.036237214 0.098612994 0.008096004 0.035743557 -0.025659185 -0.04473843 0.011761092
0.049047638 0.058185823 0.05585181 -0.022224735 0.027127875 0.026887191 -0.052719165 0.025144992
0.03722987 -0.042683896 -0.043683633 0.08006307 0.07333827 -0.026710443 0.0128066875 -0.09669943
0.023960568 0.08000187 -0.040492784 -0.08931794 -0.006373758 0.088318504 0.11352807 -0.032994356
-0.021631517 -0.037362363 -0.027233185 0.03619027 0.002455835 0.007384503 -0.025216691 -0.07237269
0.013841059 0.022610502 -0.10410688 0.01498646 -0.0041419817 -0.0070883194 0.03615356 -0.11878294
-0.01615678 -0.040396184 -0.045308124 0.018504089 0.037238207 0.014623734 -0.026363699 -0.116939075
0.024100516 0.020983726 0.022277575 -0.004965062 0.062673226 0.022924108 0.035515785 0.030505141
0.024009068 0.059062578 -0.02524564 0.0022577173 -0.045566656 0.04487562 -0.020073174 0.029442629
-0.029658495 -0.002845886 0.020658309 0.0597254 0.021593932 0.015189832 0.043640602 0.149007
-0.07040456 -0.0014580236 0.03451637 0.03675933 -0.018365998 0.113223515 0.014376636 -0.0036429348
0.08803018 0.038381826 -0.023554195 0.007877401 -0.015138521 0.0068709888 -0.06908683 -0.009120217
0.047915936 -0.001958429 -0.017398756 -0.13847952 0.055224586 0.02296895 -0.0037707821 -0.005691331

fc2.bias f4 [10]
00000000: 419e d4ba 5f50 31ba 7fd6 f4b9 ea00 d73a
00000010: e576 6bb9 381a 4939 5c8b 40ba 3d3c f8ba
00000020: 23fb bc3a 5ed2 37ba
-0.001622148 -0.00067639904 -0.0004669912 0.0016403471 -0.00022455638 0.00019178621 -0.0007344985 -0.0018938851
0.0014418106 -0.0007012243

fc3.weight f4 [1, 10]
00000000: ffb4 fd3e f194 533e f013 123e 4c47 00bf
00000010: a97c 8c3d 57f8 6fbd ecc1 653e c41a 143f
00000020: 1c81 e1be cc58 5b3e
0.49552152 0.20662285 0.14265418 -0.5010879 0.068597145 -0.058586445 0.22437257 0.5785334
-0.44043815 0.21420592
